paramveer_singh/model_checkpoints/CNN.ckpt (torch, 13472 bytes, 5 tensors)

conv1.weight f4 [16, 3, 2, 2]
00000000: 1f04 6a3d 40c3 bb3e 7736 823e b3f8 043d
00000010: 403e babd e612 27be 9847 5abe ea09 6bbe
00000020: 5dde b9bd 657b 103e 93f9 a8bd d4e8 b3bd
00000030: 1b8c 933e 012b 203e ffb4 a43d bf5f 33be
00000040: b963 1a3e 62ae 51be 8480 86be 7427 5e3e
00000050: 53d3 5e3e fb7e 423d 6cb8 c73d dedf 473e
00000060: cb97 6e3e f2c4 41be c4f6 433d 371b 013e
00000070: 2e29 713d 3653 7ebc 5c38 d1bd efeb 9a3d
00000080: 467a 63be ffbd 773e d8e2 d83d af98 99bd
00000090: 26a6 ad3e 7647 233d 8bf3 1f3e df3b a6bc
000000a0: 3d79 e43c 6781 7f3e bebf 193d 9634 083d
000000b0: 6c24 15be 1488 293e af2e 9c3d f930 ac3c
000000c0: 3812 1fbe 2a91 53bd c63b 5dbd b6b5 c43d
000000d0: f1ae 3abe b2d5 20be 0035 673e 8832 ef3d
000000e0: 6698 54be d8e3 6a3e 2e92 6a3e ab70 09be
000000f0: 2a2c 5ebe 00ca 9e3e a481 86be 50d5 8c3e
00000100: ec4f 02be 13ee a23e c054 d1bd 5db8 2bbe
00000110: 81c0 3f3e 67fc 29be ed4d 743d b95a e1bd
00000120: f107 36be c418 89be 5c86 cb3e d452 16bd
00000130: 8b69 b4bd fe26 6abe 5c5a 483c 6e68 7a3e
00000140: 414e 1c3e 2e37 07be a92e 313e bdf4 ca3d
00000150: f013 883c e984 3a3e d0ee bf3d bb3e 64be
00000160: 064c 6bbe 850a 70be e5f8 3abc 9c0a 6b3d
00000170: b660 80be ec70 d03d 3943 8b3e ab37 8b3e
00000180: a2c6 593b f05c adbc 1dcf 16be 697e 2dbe
00000190: 2caa 18bd 507b e9bc a06e 86be ede8 8cbe
000001a0: 3fc9 76be 451f 26be c610 753c 3b06 11be
000001b0: 8d9e 89be a028 fa3d 5b90 6e3e 4670 233d
000001c0: c51b fd3d b463 83be 4a98 3ebd aa87 cf3d
000001d0: 1540 12bd 0d90 ebbd 61be 59be 6cfb 363e
000001e0: 9c21 13be d3ef 75be c4f6 10be 226e 42be
000001f0: b116 d63d ab6b 80bd b6eb a73d 4375 5e3d
00000200: 09c0 803e 68db 293e 6133 2abe 3751 123e
00000210: 85e0 333e 0979 f1bd 6001 d33b 5392 89be
00000220: c27f 55bd f623 3fbc c805 933e 0d80 42be
00000230: 3925 943e 6900 003e b938 893d 3d12 14be
00000240: 94ba 1b3d a6ca aa3e 83c6 3abe 2a39 63be
00000250: 4925 903e 202e 3b3d 14dc c63d d730 50be
00000260: fa1c 3abe 5484 c33d afaf 05be 6326 083d
00000270: e84e 1d3e 4f09 81be 072c 24be fe8b 18bd
00000280: c3f2 1f3e dd9a 963e 8455 da3d c815 6bbe
00000290: 4cda 753e 3549 ce3d 64ff 9abd 0e64 92bd
000002a0: c01f 273e 09f4 efbd 04ec 863e d699 05be
000002b0: 571b d13d 6d8b 62be f6df 993e fc99 39be
000002c0: e679 cfbd 1e64 d6bd 0859 b43b d18e 3abd
000002d0: 7a91 febd 2bf0 d3bd f753 50be e60c e23c
000002e0: 4bd2 903d f52d 893e 8832 a8bb 2f92 a13d
000002f0: 5b0d 513e 550e 08be 35ca 803e 331c 4f3e
0.057132836 0.366724 0.25432178 0.03246374 -0.090939045 -0.16315803 -0.21316373 -0.22953
-0.090756156 0.14109571 -0.082507275 -0.08784643 0.2881783 0.15641405 0.08042335 -0.17516993
0.15077104 -0.20476678 -0.26269925 0.21694738 0.21760301 0.04748438 0.097519726 0.19518992
0.23300092 -0.18922785 0.047842756 0.12608038 0.058877163 -0.015522769 -0.10215828 0.07564532
-0.22214612 0.24193572 0.10590142 -0.07499825 0.33915824 0.039863072 0.15620248 -0.02029222
0.027889842 0.24951707 0.037536375 0.033253275 -0.14564675 0.16555816 0.07626092 0.021019446
-0.15534294 -0.05165211 -0.054012083 0.09604971 -0.18230797 -0.15706518 0.22578812 0.1167956
-0.2076126 0.22938478 0.22907326 -0.13421886 -0.21696535 0.3101349 -0.26270783 0.27506495
-0.127258 0.3182226 -0.10221243 -0.16769548 0.18725778 -0.1660019 0.05964463 -0.11003632
-0.17776467 -0.26776707 0.39750946 -0.036700085 -0.08809193 -0.22866437 0.012228575 0.244539
0.15264226 -0.13204643 0.17302956 0.099099614 0.01661107 0.18214764 0.09371722 -0.22289555
-0.2297822 -0.23441513 -0.01141188 0.057383165 -0.25073785 0.10177788 0.27199724 0.2719091
0.0033229967 -0.02116248 -0.14727445 -0.16942753 -0.037271664 -0.028501183 -0.26256275 -0.27521458
-0.24100207 -0.16222866 0.014957612 -0.14162533 -0.26878777 0.1221478 0.23297255 0.039901994
0.12358812 -0.25662005 -0.046531953 0.10133298 -0.035705645 -0.11502085 -0.2126403 0.17869347
-0.1436829 -0.24017267 -0.14156634 -0.18987325 0.10453547 -0.06270536 0.08199255 0.05431105
0.2514651 0.16587603 -0.16621162 0.14288794 0.17566116 -0.11790664 0.006439373 -0.2686945
-0.052123792 -0.011666289 0.28715348 -0.1899416 0.2893465 0.12500156 0.06700272 -0.14460082
0.03801973 0.33357733 -0.18239789 -0.22189775 0.28153446 0.045698285 0.09709945 -0.20331131
-0.18175116 0.09546724 -0.13055299 0.033239733 0.15362132 -0.25202414 -0.1603242 -0.037242882
0.1561995 0.29415026 0.10660842 -0.22957528 0.24009055 0.10072557 -0.07568243 -0.0714799
0.16320705 -0.11716468 0.2635194 -0.13046965 0.10210293 -0.22123499 0.3005368 -0.18125147
-0.10130672 -0.104683146 0.0055037774 -0.045546357 -0.12430091 -0.10348543 -0.2034453 0.027594041
0.0707136 0.26792875 -0.005132977 0.078892104 0.20415251 -0.13286717 0.25154272 0.20225601

conv1.bias f4 [16]
00000000: b80d aa3c 8c0b ce3e 399f e33d b2d3 c9be
00000010: 5a46 d03d 4178 d63e f095 6e3e 9b38 1cbe
00000020: 2161 bebd 3c2c 883d 761d 14bc e5bf ad3e
00000030: ed31 b13e 3a70 5d3e 7307 97bd 6962 cbbe
0.020758495 0.40243185 0.11114354 -0.39419323 0.101696685 0.4188862 0.23299384 -0.15255968
-0.092958696 0.06649062 -0.009040227 0.33935466 0.34608403 0.21624842 -0.07374468 -0.39723518

conv2.weight f4 [32, 16, 2, 2]
00000000: a73c e03d 14b2 933d b570 cbbb 4f7c 11be
00000010: 4309 51bc eb56 f0bd bbd0 a8bd dd10 41bd
00000020: e2fe 4b3d 9e10 4b3d 36fc 593d bd24 a53d
00000030: ba01 b53c 3efb ec3c 55c0 043e 6417 44bc
00000040: ee1c 973d 7599 18be dcc1 653c c1d8 52bd
00000050: 0603 75bd 0a7d 0ebc d279 8f3c 66f3 913d
00000060: fb8c 8e3d c010 43bd e137 373d fee3 cabd
00000070: 078a 04be 3dfd 30be 6e9b 09be 7267 2b3d
00000080: 82df ac3d a0e7 773d c013 35bc 3002 d1bd
00000090: 6ab1 97bd ff16 753b dc92 a6bd 8b78 0cbe
000000a0: 2588 49bc 06d4 c73d 8d0a d0bd 80c7 07bb
000000b0: 2f61 b93d 93fc 08be db8b b83d 4c6d 1fbd
000000c0: a4b7 eebd 4905 c5bd 0f05 8cbd fb2d 1dbe
000000d0: 6747 523d d367 25be ed7e 89bd 8285 893d
000000e0: 4b00 18bc 5834 4abd 1001 dc3c e2b7 cfba
000000f0: 4d20 593c a974 273d 9989 013e 231a 5b3d
00000100: 27ce b23d 0e84 acbc baaf ef3d 02ca 20be
00000110: b7fc 9dbd ef1f d93c f66f 763c e548 09be
00000120: ad0b 82bd 366b 5a3d 7208 b23c d1b3 abbd
00000130: 59b4 e4bc 3bca a33b 423f 01be eafa 833d
00000140: 92a7 e73d 9da9 993d 677d 7f3d aa88 be3d
00000150: 7e61 613e 60bf 163e e69f 453d af5f 623e
00000160: b4b5 aebd 0790 b5bd 5855 b13e ed77 1c3e
00000170: 931e e8bb 2fd9 bb3d 0b9d 193d b262 3f3d
00000180: fe6a 92bd 9ca6 183d 5495 b6bd 91ee c0bd
00000190: 8b6d 89bd 44eb 97bd f02e 68bc de4f cf3d
000001a0: 084a 45be d5e4 95bd 602d dfbd e072 70bd
000001b0: d92c 4b3e 1b3c 26bd c9ec 393e bcb7 fa3d
000001c0: 6360 f23d e364 213e 7376 6bbd 511a 923a
000001d0: 93d4 203d ff65 b8bd 8b14 363d c03d e23d
000001e0: 76e5 063e 9cd4 68bd a9cd 3f3e 7ac7 1c3e
000001f0: 4764 c43c 3d4a 973d b963 9b3c 703f 503d
00000200: c74a 3d3d ebd3 af3d 9cd2 0a3e 2a22 e53c
00000210: 36e5 c33d f5b1 b5bd 6b6a 633d 504f ccbd
00000220: d500 bf3c 07b4 b5bc 613a 84bd ecf9 d13d
00000230: 6da7 c93c a71f 7fbd a05f ac3c faa5 40bd
00000240: b9fc 24bd 76b1 813c ad91 f23c 4b90 4cbd
00000250: bf2c 54bd bc5d 863d 571a 49bc 4e6c e13d
00000260: 699e 853d cac2 81bc c9db 933d cd90 1f3e
00000270: 4a94 0bbc 7441 72bd cb77 c53c ab50 4c3e
00000280: 11f4 cfbd eacc d0bd 1c34 f93d 328c ca3d
00000290: 740a 403d f6d8 d93c 8152 d0bc 0688 013e
000002a0: 80f3 873c 26a2 063e 4308 b63d ef18 b83d
000002b0: 7913 ab3d 1898 953c 5f6f dbbc 9e10 9e3d
000002c0: 9132 1f3e 85f1 163e 18fb a7bd 97ec 7abd
000002d0: c1d2 533d b80d eb3d 71be f7bd 247c 893d
000002e0: 493f 633b 06c9 023e 5b3c 0f3e bc5d 543d
000002f0: cc62 0fbe e82c 09bc 6b47 15be abad 3a3c
00000300: ead8 50bd ff69 70bd 9257 1c3e 7e6e ed3d
00000310: 68ac 493d e390 b1bc 09a9 cf3d a1e4 b7bd
00000320: 01ad 66bd 651e ff3d a2f7 863d a5de b8ba
00000330: bdcd ccbd de30 253d a22f 0f3e 6bc3 623d
00000340: c527 1cbe 9782 b93d e619 a5bd c00a cabd
00000350: a642 d53d 0b3c 15bd 1992 c9bb 05b2 55bc
00000360: e2cb 4b3c 4e31 fabc a081 4f3d 50a9 dbba
00000370: a59d f4bd 171d aabd f23f 953d 4c22 2a3e
00000380: 76b1 e03d 0625 cb3d be4b d23d aa40 b93d
00000390: ae76 d03c 202e 4f3e a07e 24bd 31ed 883d
000003a0: 1750 73bd a0eb 3abd a473 063d e564 5dbd
000003b0: e71e b73d 4ad3 eabd 4f85 cf3d f32c c7bd
000003c0: 6665 b23d 70fc aa3d 781a a9bd 1f9b a93c
000003d0: aac3 53bd 8571 263e 8912 3a3d 2ebb 873d
000003e0: d783 00be 11aa b33d 8718 f639 9569 0a3e
000003f0: f2c4 f5bd 1cc8 4bbc 23c7 7a3d fa7c 94bd
0.109490685 0.072117 -0.006208504 -0.14207576 -0.012758556 -0.11735328 -0.08242937 -0.047135223
0.049803622 0.049576394 0.053219043 0.08063648 0.02209555 0.028928395 0.12963994 -0.011968467
0.07378565 -0.14902289 0.01402327 -0.051476244 -0.059817336 -0.008696804 0.017514143 0.07126503
0.06960484 -0.047623396 0.044731025 -0.09906767 -0.12943278 -0.17284103 -0.13438198 0.0418467
0.08441068 0.06052363 -0.011052072 -0.10205495 -0.07406886 0.003739774 -0.0813348 -0.13717858
-0.012300526 0.09757237 -0.101582624 -0.0020718277 0.090517394 -0.133776 0.0901105 -0.038922593
-0.116561204 -0.09620149 -0.06836902 -0.15349571 0.051337626 -0.16152887 -0.06713662 0.06714918
-0.009277414 -0.049366325 0.026855975 -0.0015847648 0.01325233 0.04088274 0.12650146 0.053491723
0.08730727 -0.021059062 0.11703439 -0.1570206 -0.07714217 0.026504485 0.015041342 -0.13406713
-0.06349883 0.0533249 0.021732543 -0.08383907 -0.027918028 0.004998473 -0.12621787 0.064443424
0.113112584 0.07503054 0.062375452 0.0930341 0.22009847 0.14721441 0.048248194 0.22106813
-0.08530751 -0.08865362 0.34635425 0.15280123 -0.007083723 0.09172284 0.037503283 0.046724983
-0.071493134 0.037268266 -0.08915201 -0.09420503 -0.06710347 -0.0741792 -0.014171347 0.10122655
-0.19266522 -0.07319037 -0.108973265 -0.058703303 0.19841327 -0.040584665 0.18156733 0.12242076
0.118347906 0.15761141 -0.05748601 0.0011146759 0.039265227 -0.09003829 0.044453185 0.11046934
0.1317347 -0.056843385 0.18730797 0.1531047 0.023973597 0.07387207 0.01896845 0.05084175
0.04621389 0.08585342 0.13556904 0.027970392 0.09565203 -0.08871833 0.05552141 -0.09976065
0.023315826 -0.02218057 -0.064564474 0.10252747 0.024615968 -0.062286045 0.021041691 -0.047033288
-0.040280078 0.01583169 0.02961048 -0.049942296 -0.051800486 0.06560847 -0.012274346 0.110069856
0.06524355 -0.015839953 0.07219655 0.15582581 -0.008519242 -0.059144452 0.024104973 0.19952647
-0.10153974 -0.10195334 0.12168142 0.098900214 0.04688497 0.026592713 -0.025429966 0.12649545
0.016595602 0.13147792 0.088882945 0.08989131 0.083533235 0.018261 -0.026786504 0.07718013
0.15546633 0.1474057 -0.08202189 -0.061260786 0.051714662 0.11477226 -0.12096871 0.06713131
0.0034675172 0.12771997 0.13987868 0.051847205 -0.14002532 -0.008372523 -0.14578025 0.011393945
-0.050988115 -0.058694836 0.1526778 0.1159334 0.049236685 -0.021675533 0.10139663 -0.089791544
-0.056317333 0.12456969 0.06590201 -0.0014104439 -0.10000179 0.040329807 0.13983014 0.055362146
-0.15249546 0.09058111 -0.0806158 -0.09865332 0.10413103 -0.036434215 -0.0061514494 -0.013042931
0.012438746 -0.030541088 0.05066073 -0.0016758833 -0.11944131 -0.0830633 0.07287587 0.16614646
0.10971348 0.09919171 0.10268353 0.09045537 0.025447216 0.20232439 -0.04015982 0.06685866
-0.05940255 -0.045634866 0.032825127 -0.0540513 0.08941441 -0.114660814 0.101328485 -0.0972537
0.087107465 0.0834893 -0.08257002 0.02070385 -0.05170027 0.16254242 0.045427833 0.066274986
-0.12550293 0.08772672 0.0004693905 0.13516839 -0.12000455 -0.0124378465 0.061225068 -0.072504

conv2.bias f4 [32]
00000000: ecf2 95be b1ec 21be 9fb6 e1bd 48fe 953e
00000010: 9b60 3cbe b22f ad3e 4472 5dbc 1131 243e
00000020: b3cb 8b3e af95 2bbe 6f7c 0cbd bfff 8fbe
00000030: 3e68 7d3e 46f1 9ebe e4e7 5fbe 2e97 b13e
00000040: aedc 493e 61f8 7c3e bc82 64be 56a5 47bd
00000050: 659f 9bbd aa2b 273e 6592 d3bd 6a93 b83e
00000060: 5b5c 8a3e 6d78 58be f21c b2be be03 323e
00000070: 5e5f 023e fef8 003e 9535 dd3d a3d7 613e
-0.29286897 -0.15812947 -0.1102116 0.29295564 -0.18396227 0.3382545 -0.013516013 0.16034342
0.27303848 -0.16756319 -0.034298357 -0.28124806 0.24746796 -0.31043452 -0.21865803 0.34685653
0.19713089 0.24704124 -0.22315496 -0.04874166 -0.075987615 0.1632525 -0.10330657 0.36049968
0.27023587 -0.21139689 -0.3478771 0.1738424 0.12731692 0.12594983 0.108012356 0.22054915

fc1.weight f4 [1, 512]
00000000: 6b12 2c3d 98e3 e1bc e293 ec3c 1cd9 e73b
00000010: db0d 09bb 8320 98bb 432a 30bc 2281 4dbd
00000020: 4a5d b83c 6429 67bd de8f 3bbc 5cb1 7ebc
00000030: bd70 063d 886d 703d b346 a3bb affd 1abd
00000040: 4d76 e6bc 8904 eabc e9b3 613d 0958 1ebd
00000050: ce6a 78bd 8cf1 e5bd c72c 13be 57dd eebc
00000060: a2e0 983c c403 963d 28d8 f03b 5ef9 f5bb
00000070: acf2 953c 05e8 023d f874 823d 3e8f 183c
00000080: 9516 253d 91d5 72bc 25c1 b8bd b77c 05bd
00000090: cccc b6bb ac3f 873a 0be8 67bd 7fdc b7bc
000000a0: ffe6 973c f025 82bd abfc babd fe34 d53c
000000b0: f4b6 b4bc ce39 11bd 6fa6 31bd bd20 863c
000000c0: 17ad 733d 1268 7d3d 7b28 9e3d 09a6 54bc
000000d0: 6079 493d 189c 483d c911 993d bdf7 473b
000000e0: fe95 0dbd 20dd a0bc 8fd9 e1bc 1878 433d
000000f0: 97e0 87bc 6bec 763b 1579 83bc d1bc e93c
00000100: 6cb0 36bd f336 69bd d4a4 ce3a d02a 94bd
00000110: e420 4cbd b33d cebd 9250 32be afe4 20bd
00000120: 0caa 88bc baf3 05bd e6a8 66bd 0eb7 24bd
00000130: 6e04 c5bc 7f2c c73d 7e7a 20bb d58c 77bc
00000140: dcb5 bcbc 4ba0 943c 521c e73c 3de4 d8bc
00000150: e404 aabd 9ce3 353d df46 04be 0c64 9abc
00000160: 6465 613c bd10 c33d 86e9 bf3d a489 8bbc
00000170: f7fd 68bb a775 c3bc b8f0 99bc 156a 323d
00000180: 90a8 433d aa8f 3abd 9c68 25bd 4564 553d
00000190: b076 433d 62fa 943d f3ed cc3d 6b8b 953d
000001a0: 3b14 91bd ed94 c53d ef96 3fbd 9a96 77bd
000001b0: c72a b1bb 8932 1f3d e677 b7bc 0e24 1fbc
000001c0: ac2c 5ebc e4dc 7b3d ddb6 c93c e111 433d
000001d0: 0c91 023d 14ff f0bc 5943 3f3d 787d 013d
000001e0: f0db 3ebd 48f7 c83c 69a3 bdbd 390b 003d
000001f0: 80f1 06bc 8d22 173b c963 273d b337 12bd
00000200: add0 de3c eb41 523d f835 a43c aa7d 583c
00000210: 5898 cb3d 4208 863d e4d1 813c 6b60 c1bc
00000220: 68b3 4abd ec71 4ebd f3a2 aa3d 1ebd a5bc
00000230: ac9a 973b 952f f53c 9337 e9bc 363f b13c
00000240: ccdb a7bd f678 753d e25d 743d d4e1 92bd
00000250: aed5 33bd facf f4bc 2e14 46bb fd4f d2bd
00000260: e56f b43d 4869 73bc d3c3 e03c 7ae0 9f3d
00000270: 3e45 053d 3b99 30bd edc0 b03b df79 a8bc
00000280: 3cd5 43bd 818b d1ba 95cc 1fbd d2ac cf3d
00000290: 752c 503d 96f3 87bd ccf9 013d 052b 7fbc
000002a0: 2fc4 13bd b186 dfbd e35b 8bbd 0b45 f8bb
000002b0: 1a60 843c fa66 5bbd c2ce da3c 36f4 a6bc
000002c0: e5f4 1f3b 5f24 02bd ad81 abba 0adc bebc
000002d0: d706 6bbd 20e5 8a3c 6b11 f8bc d0ce 9cbc
000002e0: 3a6c 01bd 8c7c 88bd 1e75 59bd 71de 5abd
000002f0: 62c2 cf3c c1a5 a13b 1dac 3d3d 7d05 9cbc
00000300: b43f d8bb d56b bc3c 2190 483d 702e 8e3c
00000310: 599e 193d dfde adbc ff42 22bc 50fe 533c
00000320: d9d4 453c 19b1 9d3c ca06 5e3c 5790 083c
00000330: 5fb0 68bc 0fa5 1f3d 7a07 1e3d ecd2 19ba
00000340: 4d6d b5bd c5d5 6c3c 728c b73d fd26 dbbc
00000350: 53eb c1bd 6636 d53c 4d37 aa3d 7d79 72bd
00000360: 2bf4 afbb 9ffa efbc 4e20 39bc 3dba 3abc
00000370: 3b4c a9bb 2ce4 10bd bff0 923b 42ba 6a3b
00000380: 9663 14bd 2fc4 973c 5974 3ebb 06e5 013d
00000390: 212c 6f3c 9f90 1abe 7c60 d7bd e634 b7bd
000003a0: 3fa1 a73c 70dd a0bc 3b8e 203d fb8f 22bd
000003b0: 9555 02bc 2596 14bd 5e45 89bd 0ba5 e0bb
000003c0: 8f2d 40bc 98fd e73c 590d adbd b87b ff3c
000003d0: 9d91 ad3b d181 77bd 8ec1 143d ab7d 7b3c
000003e0: ff50 233d bbf1 8d3d a8c4 a7bb bc2b 183d
000003f0: bb67 973c 0ad3 25bd 68cd 0d3d dbd5 053c
0.042009752 -0.027574345 0.02887911 0.007075442 -0.00209128 -0.0046425476 -0.0107522635 -0.05017198
0.022505421 -0.056435958 -0.011447875 -0.015545215 0.03282236 0.058698207 -0.0049827932 -0.037839588
-0.028132582 -0.028566616 0.055103216 -0.038658176 -0.060648732 -0.11227712 -0.1437255 -0.029158277
0.0186618 0.07324937 0.0073499866 -0.0075065335 0.018304192 0.031959552 0.06369966 0.009311495
0.04030474 -0.014821426 -0.090212144 -0.03258964 -0.005578613 0.0010318658 -0.056617778 -0.022444008
0.018542765 -0.06354892 -0.09130224 0.026026245 -0.022059895 -0.035455517 -0.043371614 0.016373033
0.059491243 0.061866827 0.07722565 -0.012979039 0.049188018 0.048976988 0.074740954 0.0030512654
-0.03456687 -0.01963669 -0.02756956 0.047721952 -0.016586585 0.0037677537 -0.016048947 0.028532417
-0.044601843 -0.05693717 0.0015765675 -0.07234728 -0.049836054 -0.10070362 -0.17413548 -0.03928059
-0.016682647 -0.03270314 -0.056313418 -0.040213637 -0.024049964 0.09725284 -0.0024487074 -0.015109261
-0.023035936 0.01814284 0.028211746 -0.02647602 -0.08301714 0.04440652 -0.1291766 -0.018846534
0.013757084 0.09524677 0.09370713 -0.017033406 -0.0035551765 -0.023859812 -0.018791541 0.0435582
0.047768176 -0.045547165 -0.040382966 0.052097578 0.04772061 0.07274319 0.10006323 0.073019825
-0.07083937 0.09647546 -0.0467748 -0.06044636 -0.005406711 0.038866553 -0.02239604 -0.009713186
-0.013560455 0.061489955 0.024623329 0.047624473 0.03187661 -0.029418506 0.046695087 0.031613797
-0.046596467 0.024531975 -0.09259684 0.031260703 -0.008236289 0.0023061365 0.040866647 -0.03569765
0.027199114 0.051332396 0.020045266 0.013213554 0.09941167 0.06544544 0.015847154 -0.023605546
-0.0494875 -0.050401613 0.08331861 -0.02023178 0.0046265926 0.029929915 -0.028468883 0.021636587
-0.0819622 0.05992981 0.059659846 -0.071719795 -0.043904953 -0.029884327 -0.003022443 -0.10269163
0.08810405 -0.014856644 0.027437126 0.078064874 0.032536738 -0.043114882 0.0053940923 -0.020565925
-0.047810778 -0.001598701 -0.039013464 0.10140385 0.050823648 -0.06638257 0.031732365 -0.0155742215
-0.036075767 -0.10914362 -0.068046354 -0.00757659 0.016159106 -0.053565003 0.026709918 -0.02038012
0.0024407443 -0.031772967 -0.0013084911 -0.023298282 -0.05737957 0.016954958 -0.030281743 -0.019141585
-0.031597354 -0.066643804 -0.053090207 -0.053434793 0.025361244 0.0049330895 0.04630672 -0.019045586
-0.006599391 0.023000637 0.048965577 0.017356128 0.037504528 -0.021224437 -0.009903668 0.012939051
0.012074673 0.019249486 0.013551423 0.008335195 -0.014202206 0.03897577 0.03858135 -0.00058679166
-0.08858738 0.0144552635 0.08962335 -0.02675199 -0.09468713 0.026026916 0.08311329 -0.05919789
-0.0053696833 -0.02929431 -0.011299206 -0.011396942 -0.005166558 -0.03537385 0.0044842656 0.0035816585
-0.036227785 0.018526165 -0.0029061048 0.031712554 0.0145979235 -0.15094231 -0.1051645 -0.089456365
0.02046263 -0.01963684 0.03919814 -0.03968809 -0.007954975 -0.036276 -0.06702684 -0.006855612
-0.011729612 0.028319165 -0.084498115 0.031186923 0.0052968995 -0.060426537 0.0363174 0.015349786
0.039872166 0.06930872 -0.005119879 0.037151083 0.01848208 -0.040484466 0.03461972 0.008168663
