paramveer_singh/model_checkpoints/CNN.ckpt (torch, 13472 bytes, 5 tensors)

conv1.weight f4 [16, 3, 2, 2]
00000000: 7695 753e bb40 9a3c 2859 f43d dd55 58be
00000010: e333 9cbd 2482 7b3d 091c 0fbe 81ff 86be
00000020: 1d96 e1bd 7f21 e93d e672 1ebe 0842 943e
00000030: b519 b4bd 47ad 693d af49 0fbe 6cd8 f23c
00000040: 14cb 5c3e c597 b1bd a899 963d 6a75 56be
00000050: b182 e6bd 57bd 6a3c 1474 84bd 0439 273b
00000060: 79e7 a2be d3d9 a2bd 8ca5 033d 5204 573e
00000070: 0916 a43d 8e04 f33c 9319 93bd 1174 823d
00000080: 2d55 233d ec36 8d3e 9b2d 853d 9b8c 76be
00000090: f4cf 03bb e249 98be fb16 933e ce22 843e
000000a0: cae4 1bbe 01a8 93be 9fd3 803e 5334 8a3e
000000b0: 64b0 243e f857 c7bd 734a 76be 99e3 4bbe
000000c0: 2133 8bbe 73d9 943e c252 f3bd b5b7 253e
000000d0: c9a7 52bc b496 993d a3f5 76bd caa3 5ebe
000000e0: 15e7 25be 2ec1 9d3e 9cd5 8bbe fd52 a03e
000000f0: d49d 47bd d11a 823e 5702 d13c f1a0 88be
00000100: b054 8f3d 3779 803e 6e96 623e eb44 303e
00000110: e63f b4bd 6677 8abe 069d 5e3e 5159 673e
00000120: 95f7 393e 7446 32be 91e5 703e 8aa6 693e
00000130: 40d3 993c 7537 0bbc bc39 91be 745b 22bc
00000140: d50f 753d 88e2 e7bc 36e5 9c3d 16a0 07be
00000150: f6b0 10bd 7e63 a13d abe3 113e a4fe 4fbe
00000160: e5a8 a4bd 0f84 383e d7d9 88bd 315c 39be
00000170: 8df4 b43c 2dee 763d 15cf 083e d5e2 343e
00000180: 7c59 87bc 510e 50be 8e85 2fbe fb00 6c3e
00000190: f7d5 e9bd 49a2 bfbd 084a b93e 2681 f33d
000001a0: 4c25 3ebe 9bde 86be b0ab 953e b4ac 273e
000001b0: 0fc7 683e 8c1b b5bd dad7 22be 6d44 ff3d
000001c0: 8f08 2d3e f6f3 2dbe 5948 803e 75b8 1e3c
000001d0: 28ea 2ebe 0d91 b1bd 45a6 c93d d96d 3e3e
000001e0: 8e3e 923e 5747 9dbd 2b84 46be 8da8 f53c
000001f0: 4f83 5a3e d04d ccbc ff34 22be 33f8 11be
00000200: 8f98 873e dc92 5dbe ab24 43bd 6c26 723d
00000210: 4b55 31bd 6308 62bd f9b9 0b3e f7ae e6bc
00000220: 821c da3b 3cf4 2a3e 7608 6b3d f139 803e
00000230: 70f0 06be df1a 39bd 1ec7 35be 4f54 20be
00000240: 45e5 443d ba18 423e 3dc1 9d3c d6de 4c3e
00000250: ab10 cfbd 3889 853e 9292 333e b760 8f3e
00000260: 8a33 6a3e d8ef 92be 9619 aebd 5b54 613d
00000270: a8ff eb3d 98c4 673e 6406 4abd 99fb a23e
00000280: aaf4 383e d28a 5a3e c27f 803e 69d7 4abe
00000290: 1703 44be 0c88 6d3e 1410 14be d280 3a3c
000002a0: 98bc 583e f2cf d6bd c7a5 98bc 84f2 9c3e
000002b0: 150d 94be d83c 7fbe 9190 673e ca25 84bd
000002c0: b749 40be d8f3 fa3d d64a 80bc 96f5 523e
000002d0: 9a44 8a3e aef1 963e 96ee 64be c82a a03d
000002e0: a7ed 1d3a c86f 87bd a71a 703e 11e0 56bd
000002f0: ff43 3fbe 5626 6f3d 0b5b febd 78f7 91be
0.23982796 0.018829694 0.11931068 -0.21126504 -0.07627084 0.06140341 -0.13975538 -0.2636681
-0.1101496 0.11383342 -0.15473518 0.28956628 -0.08793966 0.057050016 -0.13992952 0.029644214
0.21561843 -0.08671526 0.07353526 -0.20943227 -0.11255396 0.014327369 -0.06467453 0.0025516162
-0.31817225 -0.07951703 0.0321403 0.20997742 0.08012015 0.029665258 -0.07182612 0.06369794
0.03987615 0.27580965 0.06502839 -0.24077074 -0.0020112963 -0.29743868 0.2872847 0.25807804
-0.15223995 -0.28839114 0.25161454 0.26993045 0.16082913 -0.097335756 -0.24051838 -0.1991104
-0.27187446 0.2907215 -0.11881019 0.1618336 -0.012857386 0.074994475 -0.06029285 -0.21742168
-0.16201432 0.30811447 -0.2731141 0.31313315 -0.0487345 0.25411084 0.025513811 -0.2668529
0.06998575 0.2509248 0.22127697 0.1721379 -0.0880125 -0.2704422 0.21739587 0.22592665
0.18160851 -0.17409688 0.23525073 0.22817436 0.01877749 -0.008497109 -0.2836436 -0.009909499
0.05982955 -0.02830626 0.07660906 -0.13244662 -0.035325013 0.07880305 0.14247005 -0.20311981
-0.080400266 0.18019126 -0.06682175 -0.18101574 0.022089267 0.060285736 0.13360246 0.17664655
-0.016522162 -0.20317961 -0.17140791 0.23047249 -0.11417764 -0.09357125 0.36189294 0.118898675
-0.18568915 -0.2634171 0.2923255 0.16374475 0.22732185 -0.08843145 -0.15902653 0.12464223
0.16897796 -0.16987595 0.25055197 0.009687533 -0.17081511 -0.08670244 0.098461665 0.18596591
0.2856335 -0.076796226 -0.19386356 0.029987598 0.21339153 -0.024939448 -0.15840529 -0.14254837
0.2648358 -0.21638054 -0.04764239 0.059118673 -0.043294232 -0.05518378 0.13645162 -0.028159602
0.0066562304 0.1669473 0.057381116 0.25044206 -0.13177657 -0.045191642 -0.17751738 -0.15657161
0.04807021 0.18954745 0.019257182 0.2000688 -0.10110601 0.26081252 0.17536381 0.28003475
0.22871223 -0.2869861 -0.08500974 0.05501209 0.11523372 0.22633588 -0.0493225 0.3183258
0.18062082 0.21342018 0.2509747 -0.19808735 -0.19141804 0.23196429 -0.14459258 0.011383252
0.21165693 -0.10488881 -0.018633736 0.30653775 -0.2891623 -0.24925554 0.22613741 -0.0645252
-0.1877812 0.12253541 -0.015660685 0.20601496 0.27005464 0.29481262 -0.22356638 0.0782066
0.00060244877 -0.066131175 0.23447667 -0.05245978 -0.18678282 0.05838617 -0.12419709 -0.28509116

conv1.bias f4 [16]
00000000: 93d9 7abe 27ae 223d 940f 123e cd2a b23e
00000010: 0c0d d43e f52b e4be fa3f d83e 7b01 bbbe
00000020: 3491 d53e 8ddd e6bd 8166 b33e 6727 63be
00000030: ec7c da3e 37a6 1a3e 93d9 3e3d 5a26 233d
-0.2449706 0.039716866 0.14263755 0.3479828 0.41416204 -0.44564787 0.4223631 -0.36524567
0.41712344 -0.11272726 0.35039142 -0.22183 0.42673433 0.15102468 0.046594214 0.039831497

conv2.weight f4 [32, 16, 2, 2]
00000000: 0aa3 29be bba4 00be edca b5bc 0967 953c
00000010: 8a3a 193e d5ac cabd 2683 a63b 70cc 4f3e
00000020: 620a 4abc 2c67 ddbd 4825 e5bc d110 883d
00000030: 5a23 343a 97e5 873c 6cf7 e7bc 2708 3abd
00000040: 80a7 6bbe c20a 063e 3564 733d 86b2 603d
00000050: 59c7 51bc 647c e83b 1508 d83d 047e 0e3d
00000060: 9767 8a3d 944c 14be 596d 32bd a540 c2bd
00000070: e8b0 18be 8453 aa3d 57a6 333d 21ed dcbc
00000080: abb0 c33d 38d7 ed3d c30b f6bd 0259 86bd
00000090: f940 c23d edd8 84bd 905a 80bd 6acf 0bbe
000000a0: ee70 823d 9583 22be 0510 aa3d c2f6 b2bd
000000b0: a989 c33d e5df c83d 7e2e b7bd 6f52 97bd
000000c0: cb67 8f3c 53be c5bd ddab 223d 264c d3bd
000000d0: edd2 c3bd 3b3e 5d3d 8fc0 58bd 51ab a73c
000000e0: 4ad6 643d 7d13 c63d f086 cd3d 5ba9 e4bd
000000f0: 9df5 93bd 50de e23d 18d1 d5bd a739 613d
00000100: 8f97 f73d 5f62 c5bc 48e9 25be 003a 8dbc
00000110: f91d dc3b d899 483d cc9a 97bb c56b 273c
00000120: efb2 98bd 2c6a e23b 4a6d 14be 3c4d d5bd
00000130: d9ee a83d affc 843d d37f dd3d 4098 1ebd
00000140: 847e 1dbe 4106 3d3d 56b4 023d 227c 40bd
00000150: b6ca 96bb 9dbf 713d b6ff babc 603f a1bd
00000160: 4c16 25bc 2a67 bebd 2c86 4c3d 76d4 5bbd
00000170: d458 b73d 664c ff3d bf69 cebd 11ea 7f3d
00000180: 2fcf 343e f545 0bbd 0010 4e3d a2bf 5dbd
00000190: 8480 c03d f549 ad3d 3e8e 0abd d50e e5bc
000001a0: ca2d 11be 9ee3 e3bd 2f10 273d f950 06be
000001b0: 0e7f f83d 3c9c 2a3e 0cfa a5bc a148 77bb
000001c0: 12e2 e33d 2716 41bd e7f2 d23c 1344 64bd
000001d0: 98ea b43c 8e1b 093d c0ab 51bd a05f bdbc
000001e0: 0ae8 c3bc b432 89bd a4c3 bf3d 1624 25bd
000001f0: 1128 0b3e 52b8 fa3d ce7d 0e3e 1e16 393e
00000200: 9c34 62be 1da6 2bbe 812a aabe c350 40be
00000210: 1b3b 7a3d 09fa fdbd 05a8 933d 05e6 7abe
00000220: e715 083d e4eb 46bc 19f4 47bd babc eebb
00000230: 52b6 8cbc afcc 02bd ff40 8f3c 4d2b 0f3c
00000240: 081b c8bd dfbd 823d fd8d 33be bf17 5ebd
00000250: 795a b9bd 7372 85bd d5a8 a83d 902e c63d
00000260: 175f 87bc 39ed fdbc 1516 fb3c aebd 60bc
00000270: 1c68 853d 2f61 013e 7fc5 a1bd 290a 7b3d
00000280: 640e 18be c1e9 213e 9c49 123e 542f 083e
00000290: ba3e 7bbc 8d22 903b 937b f63c 78dc e93d
000002a0: b3b5 753e 2874 eb3d 5fdc 223e 4745 8a3d
000002b0: ed7f 84bd 6929 70be b914 a33d 1115 36be
000002c0: b967 df3d 3a05 eebd 81c0 fbbd 8ff8 cbbc
000002d0: b5de af3d ec70 a8bc 46ab bb3d f086 583d
000002e0: 2eaf 013d 50bc fe3c ea66 003e 0b17 aa3d
000002f0: c1d1 be3d c7f2 54bd 94f1 19bd 8e79 8abb
00000300: cfe9 0d3e 760e 613e 5b68 433d bf0d f03b
00000310: c0ea a0bd bdef 0bbe 6456 8c3e b834 0f3d
00000320: 3d5f f93d bab0 5ebd 9ec9 823e da63 c83d
00000330: b6b3 69bd 52ba cf3d 40b0 853d 8d10 483e
00000340: a43a a33d c7a4 863d 84b5 d43a be23 e63d
00000350: 028e debc ea7c 64bd 5b90 eb3d e8bf b6bb
00000360: ced9 8e3c 2c11 9a3d 7ae3 1abd cb49 d23d
00000370: 0108 d5bd cbfd af3b 378c 5d3d 14c3 9ebd
00000380: 6b07 bf3d 73ca 683e f556 ad3d 0c56 2b3e
00000390: 8b1f 973c 1aa0 993d d1c6 adbd 8f6e 1a3d
000003a0: 7590 013c f3d2 2b3e 5300 003e b336 a43d
000003b0: 5afd a1bd 6702 433d 7c4c ce39 b7ca c93c
000003c0: f6a3 b9bd 4beb 3d3d 941a 563d c091 74bb
000003d0: 2c6e fbbd eb2c bfbd 9456 4e3d 1c50 7cbd
000003e0: 0867 49bd 89c0 bfbd f613 813d d6f4 da3d
000003f0: 8008 dcbd 82e8 0c3c 7c6b 00bd aff1 efbd
-0.165661 -0.1256284 -0.02219149 0.018237608 0.14963737 -0.09896246 0.005081552 0.2029283
-0.012331577 -0.10810694 -0.027971879 0.066438325 0.0006871723 0.01658897 -0.028316222 -0.04541793
-0.23013115 0.13090041 0.059421737 0.054857753 -0.012803876 0.0070949066 0.105484165 0.034788147
0.067580394 -0.14482337 -0.043561313 -0.09484986 -0.14911234 0.083167106 0.043859806 -0.02696854
0.09555181 0.11613315 -0.12013962 -0.06559946 0.09485049 -0.06486688 -0.062672734 -0.13653341
0.06369196 -0.15870507 0.08303837 -0.087384716 0.09547741 0.098083295 -0.089444146 -0.0738877
0.017505547 -0.09655442 0.039714683 -0.103172585 -0.09561715 0.054014426 -0.052918013 0.020467432
0.055868424 0.09671686 0.10035503 -0.111651145 -0.072245814 0.11077559 -0.10440272 0.054986622
0.120894544 -0.024094759 -0.16202271 -0.01723957 0.00671744 0.04897484 -0.0046266075 0.010218565
-0.07456004 0.0069096293 -0.14494815 -0.10415122 0.082486816 0.06493508 0.10815396 -0.038719416
-0.15380293 0.046148542 0.031910263 -0.046993382 -0.0046018017 0.059020627 -0.02282701 -0.07873416
-0.010076117 -0.09297021 0.049932644 -0.053669415 0.089524895 0.12465744 -0.10078763 0.062479082
0.1765716 -0.034002263 0.050308228 -0.054137833 0.093995124 0.08461372 -0.03382706 -0.027961174
-0.14177623 -0.11127399 0.04078692 -0.13116826 0.12133609 0.16661161 -0.020260833 -0.00377325
0.11127104 -0.047140267 0.02575059 -0.055728983 0.02208452 0.033473544 -0.051189184 -0.023116887
-0.023914356 -0.06699124 0.09363487 -0.040317617 0.13589503 0.122421876 0.13915178 0.18074843
-0.22090381 -0.16762586 -0.33235553 -0.18780808 0.061091524 -0.12401206 0.072097816 -0.24501808
0.033224013 -0.012141202 -0.048816774 -0.0072856816 -0.01717678 -0.031933483 0.017487047 0.008738351
-0.09770781 0.06383871 -0.17534633 -0.054221865 -0.090504594 -0.0651597 0.08235327 0.0967685
-0.016524835 -0.030996906 0.030650178 -0.013717098 0.06513998 0.12634729 -0.078989975 0.061288986
-0.1484924 0.15811826 0.14285892 0.13299304 -0.015334779 0.00439865 0.030088222 0.11419004
0.23995094 0.114967644 0.15904377 0.06751495 -0.064697124 -0.23453297 0.07962937 -0.17781474
0.109084554 -0.11622091 -0.122925766 -0.024898795 0.085874 -0.020561658 0.09163527 0.05286306
0.031661205 0.031095654 0.12539259 0.08305176 0.09317351 -0.051989343 -0.037583902 -0.004225916
0.13858722 0.21978173 0.047706943 0.0073258574 -0.07857275 -0.13665672 0.2740966 0.034962386
0.121763684 -0.05436776 0.25544447 0.0978467 -0.05705615 0.1014296 0.06527758 0.19537564
0.07970169 0.065743975 0.0016228412 0.11237286 -0.027167324 -0.05578319 0.11502143 -0.005577076
0.017437842 0.075228065 -0.037814595 0.10267981 -0.10401917 0.0053708307 0.054088797 -0.07752052
0.09327587 0.22733478 0.08463851 0.16732043 0.018447658 0.0750124 -0.08485187 0.037703093
0.007907976 0.1677969 0.12500124 0.080182455 -0.07909651 0.047609713 0.00039348367 0.024632795
-0.09064476 0.04636697 0.05227144 -0.003731832 -0.12276873 -0.09334739 0.050375536 -0.061599836
-0.049170524 -0.09362895 0.06302635 0.1069123 -0.10743809 0.008600356 -0.031352505 -0.11716019

conv2.bias f4 [32]
00000000: 037b 74bd fdec fe3d 7cc9 1a3e a230 9ebe
00000010: e501 3cbe 1d03 e93d e951 87be fe82 aa3e
00000020: eb0e 9dbe 21cd 123e aa3e 7e3e a524 7f3e
00000030: 548e 31be 45d7 8abe 9d43 173e dc74 ed3d
00000040: bab6 483e 14f7 553e 3fe2 49bc 0197 96be
00000050: bcce 8dbd f491 ad3e dd48 493e 8b3b 903e
00000060: 5b06 0abe 7064 37bc 4784 72bd 0027 923e
00000070: f8b5 b63e 6e31 da3d 0145 863e 31de b5bd
-0.059687626 0.12447546 0.15115923 -0.3089648 -0.18360098 0.11377547 -0.2642968 0.33303064
-0.30675444 0.14336063 0.24828592 0.24916323 -0.1733945 -0.27117363 0.14771886 0.11594555
0.19600955 0.20895034 -0.012322008 -0.29412082 -0.06924197 0.33900416 0.19656701 0.28170428
-0.13478987 -0.01119338 -0.05920818 0.2854538 0.35685706 0.10653959 0.2622452 -0.0888027

fc1.weight f4 [1, 512]
00000000: 4353 6dbd 8bec 96bd 6bb5 8ebd 3ab6 7cbd
00000010: 929d 173d 7b74 26bc 044c 1dbd 1cdb 59bc
00000020: e827 ddbd a065 08be db7e 4f3d bf18 70bd
00000030: 0b07 a73c 7d52 3c3d d832 1ebd 4d5e edbd
00000040: 87b3 4a3c c8dd bb3b 87d4 173d 9045 513d
00000050: 1a32 9c3d ac0f 54bc a730 e93b 7812 8e3d
00000060: ad83 a23c 567e 93bd 2513 bcbd 7846 f33c
00000070: bd9d 13bd 341c 0cbd 6809 febc 7cbd 003c
00000080: cb3a 80bd 2eb7 8f3d 8ccd db3c aded 883c
00000090: 5297 32bd 6a0e 473d 2c32 593c b644 94bc
000000a0: dfdf f9bc f504 f6bc 0cba 2d3d d410 bebc
000000b0: 8bfa 07bd 9500 173d a4b8 75bc 211a 1f3d
000000c0: ec07 413c bd83 d0bd dc8d f4bc d887 ce3d
000000d0: 52da 723d 442a aebd 2cda 0fbd 97b6 2c3d
000000e0: d3d5 a1bd c63f 953c c0f4 c3bc 98b2 98bd
000000f0: eb55 2abc 3697 21bc d3eb a33c d1ab dabb
00000100: 704a 383c 0525 3cbd f41f 01ba 0d16 043d
00000110: ca30 25bd defd 56bd 7878 babd 0401 bfbc
00000120: d310 6ebc e958 c9bd 0ea7 0dbe 3969 f1bc
00000130: 5152 1a3c cfa7 73bc e905 0d3c 1179 8fbb
00000140: 9b42 8ebd 2202 9f3c 1b7f 003d 93c1 12bd
00000150: f422 383d 6077 093d 92e0 133d 8c50 b6bc
00000160: f175 c2bc 31a2 653c 10b6 e43c 3fb2 5eba
00000170: 6032 6f3d b62c 63bd d3bf a33c 163f d53c
00000180: 8453 7a3c 61f0 2bbe 649d b2bd 1e3a 81bc
00000190: 1232 2cbd c8e2 adbd a57a 0dbe 248e 313c
000001a0: fa36 77bd 7033 a8bd 4673 8cbd 0825 58bd
000001b0: 1017 6dbd 108c 863d cbf8 1cbc 947e 28bc
000001c0: 932a 803d 16d9 c13c 76a4 b0bb 7f85 4b3d
000001d0: c1d4 503d 6f98 8fbd 28d4 05bd 1637 c93c
000001e0: 2976 ebbb f7d9 b83d 4f60 b13d 2f15 27bc
000001f0: 21df ef3a bb7d 35bd 88d2 21bd 2e71 123c
00000200: 4f07 05be 7c18 8fbd f656 1bbe bf76 d63a
00000210: 4207 02be 6908 0abe 3359 e9bd 8e88 0ebe
00000220: 215c d23c 09b2 663c 57b0 d7bc 6f94 443c
00000230: a8b4 15bd dcce e93c 020c 3e3d be8a 5d38
00000240: 21c5 62bc e224 2e3d 36b9 09bc 0298 c43b
00000250: b4ea 653d 30f3 7c3c f856 90bc 1873 053d
00000260: b8bd bb3d ac68 a73c adf8 b1bc beca 86bb
00000270: 9051 55bd 2ee2 f5bc 6617 8f3d c33b a63c
00000280: bd60 fd3c a5e8 203d 6cc8 473d 3de0 cb3c
00000290: e056 2e3d ace9 df3d 21e6 0a3d 74ec 983c
000002a0: b67c 0a3d f0fe 7b3c 230c a03d ccf2 903b
000002b0: 55cb 863c 5c75 8d3c c4c8 bb3c 4288 b1bc
000002c0: 7943 013d ec03 a63d 1620 d43d 3461 033c
000002d0: 7573 56bb 6aee 553a 2bde a93d 881b abbc
000002e0: 5fe8 61bc f9ae cfba f595 ed3c 5f36 a43a
000002f0: fc4f 0dbc 5828 9dbb f7ea aabc 5ac0 3b3d
00000300: 54da 7bbd adae 87bd fe4f 0abe eb3e 7fbc
00000310: 4f65 92bd 82e9 0ebe 525d fbbd 0c34 dd3c
00000320: 7dc4 78bc 9cd9 a7bd 025d e4bd 3097 0bbd
00000330: 3bae dd3c 9b32 1bbd aeba 6fbb f84b 11bb
00000340: e96e 32bd 3639 54bd 8bea dabd b0ab d1bd
00000350: 4373 dc3c 330a 67bd 5414 0cbd 1677 2ebd
00000360: 8fbc 563c 1f16 1f3e def1 4cbd a983 9bbc
00000370: 256b 0b3c 81e3 d2bd 7d48 4bbd a4f6 5b3d
00000380: 01c9 ce3c cf10 733c 1fcb 4a3c 7ac4 8fbd
00000390: 7f6f dbbd dec2 043e 4f72 8a3b a6ca 98bc
000003a0: 3d75 4b3d f022 443d 6638 60bb b61d ec3b
000003b0: e2d8 ffbb 2735 28bd fc7b a2bb 787c 083c
000003c0: 11b7 a43d 8900 b33d 9ca6 263e 27ce f4bc
000003d0: 4691 013e 72cb 4b3c 86d2 a0bb 8506 98bc
000003e0: 69dc 4c3c 63c7 71bc a3c0 133d 81d2 033e
000003f0: 9fa4 223d a08f 15be 38f7 3d3d 4813 17bd
-0.057940733 -0.07369336 -0.069681965 -0.061697222 0.037015505 -0.010159607 -0.038402572 -0.013296869
-0.10798627 -0.13320017 0.05065809 -0.05861735 0.0203891 0.045977104 -0.038622707 -0.11590252
0.012371904 0.0057332255 0.037067916 0.05109173 0.076267436 -0.01294319 0.0071163955 0.069371164
0.019838179 -0.07201831 -0.09183339 0.029696688 -0.036039103 -0.034206584 -0.031010345 0.007857677
-0.06261214 0.07017361 0.02683141 0.016714895 -0.04360134 0.04859773 0.013256591 -0.01809917
-0.030502258 -0.03003166 0.042413756 -0.023201384 -0.03319792 0.03686579 -0.014997635 0.038843278
0.011781674 -0.10181377 -0.0298528 0.10084504 0.059290238 -0.08504155 -0.035120174 0.04216632
-0.07902112 0.018218886 -0.023920417 -0.07455939 -0.010396461 -0.009862712 0.02000991 -0.006673314
0.011248216 -0.045933742 -0.0004925721 0.03224759 -0.040329732 -0.0524882 -0.09105009 -0.023315914
-0.014530378 -0.098314114 -0.13833258 -0.02946912 0.00941904 -0.014871552 0.008607366 -0.004378446
-0.06946298 0.019410197 0.031371217 -0.035829138 0.04495521 0.03356111 0.03610284 -0.022255205
-0.02373788 0.01401572 0.027918845 -0.00084951887 0.05839765 -0.05546256 0.01998893 0.026031058
0.015278701 -0.16790916 -0.08721426 -0.015774783 -0.04203994 -0.08490521 -0.13816316 0.010837112
-0.060355164 -0.08212936 -0.06857924 -0.05276969 -0.057883322 0.065696836 -0.009580801 -0.010284085
0.062581204 0.023663085 -0.005390699 0.04968786 0.050984148 -0.07011496 -0.03267303 0.0245624
-0.0071857166 0.090259485 0.086609475 -0.010197922 0.001830075 -0.04430936 -0.03950742 0.008938117
-0.1299107 -0.06987092 -0.15169892 0.0016362293 -0.12698081 -0.1347977 -0.113939665 -0.13919279
0.025678696 0.014080533 -0.026329203 0.01199828 -0.03654924 0.028541021 0.04639817 5.281972e-05
-0.0138409445 0.042515643 -0.008405974 0.005999566 0.056132033 0.01543884 -0.017619595 0.032580465
0.09167045 0.020435654 -0.021725023 -0.004113524 -0.052079737 -0.030015077 0.06986885 0.020292168
0.030929917 0.039284367 0.04877512 0.024887199 0.04256332 0.10933241 0.033910874 0.018667437
0.03381034 0.015380606 0.07814815 0.004423475 0.016454378 0.017267875 0.022922881 -0.021671418
0.031558488 0.08106217 0.103576824 0.0080187805 -0.0032722626 0.00081608316 0.08294328 -0.020887151
-0.013788312 -0.0015844993 0.02900217 0.0012528411 -0.008625027 -0.004796069 -0.020863993 0.045837738
-0.06148751 -0.06625114 -0.13507077 -0.015578966 -0.07148229 -0.13956264 -0.12273659 0.027002357
-0.015183565 -0.081958026 -0.11150552 -0.03407973 0.027060619 -0.037890058 -0.0036579776 -0.0022170525
-0.043562803 -0.051812373 -0.10689267 -0.10237825 0.02691043 -0.05640621 -0.034199074 -0.042594038
0.013106479 0.15535782 -0.05003535 -0.018983679 0.008509432 -0.10297299 -0.049629677 0.05370201
0.02524233 0.01483555 0.012377529 -0.07019897 -0.107146256 0.12964961 0.0042250524 -0.018651318
0.049672354 0.04788488 -0.0034213304 0.0072056903 -0.007807837 -0.041066315 -0.0049586277 0.008330457
0.0804273 0.087403364 0.16274494 -0.029883457 0.12653074 0.012438642 -0.004907909 -0.018557796
0.012503722 -0.01475701 0.036072385 0.1287327 0.039707776 -0.1460557 0.046378344 -0.036883622
