paramveer_singh/model_checkpoints/CNN.ckpt (torch, 13472 bytes, 5 tensors)

conv1.weight f4 [16, 3, 2, 2]
000000 2d 09 13 3c c5 ee 9c 3e d5 fc 80 bd e8 cd 35 be
       0.008974356 0.30650917 -0.06298224 -0.17754328
000010 15 ad 1b 3e 94 ad 79 3e 5e 6d 98 be 4a 0c 9a be
       0.15202744 0.24382621 -0.2977094 -0.300875
000020 57 68 5e 3d 34 bf f8 bd 5b 51 41 3e 3c 2f a9 bc
       0.054298725 -0.12145844 0.18878691 -0.020652406
000030 60 d5 96 be 32 b4 c6 3e 41 f3 7f be 33 1c 01 3d
       -0.29459667 0.38809353 -0.24995138 0.031521033
000040 c0 87 8f 3d a0 48 03 3e 49 ea 24 3e 4a 7b 88 3d
       0.07008314 0.12820673 0.16104998 0.066641405
000050 67 a8 cd be 1a 6e 9d bd 41 ec 66 be ac e8 8f be
       -0.40167543 -0.07687016 -0.22551061 -0.28107202
000060 c7 31 b0 be 01 c5 28 be 42 27 8b be a2 71 90 be
       -0.34412977 -0.16481401 -0.2717839 -0.28211695
000070 46 d7 a0 bd 2b 4d 7f 3e 36 6f 14 bc 58 eb 4d be
       -0.0785356 0.24931781 -0.009059718 -0.20109308
000080 3d 5d 71 3e 8c 28 14 3e bf c1 49 3e d5 27 91 3e
       0.23570724 0.14468592 0.19702815 0.28350702
000090 26 d9 19 3e d0 70 40 3e 5e e3 10 3e 07 7e 72 be
       0.15024242 0.18793035 0.14149234 -0.23680888
0000a0 5d 23 82 3e bd d3 e1 bd 3c 9a e1 bb 34 82 90 be
       0.25417605 -0.11026714 -0.0068848412 -0.28224337
0000b0 cb cb ba bd 96 fd 86 bd 22 26 46 be d7 ae b1 bd
       -0.09120902 -0.065913364 -0.19350484 -0.08675926
0000c0 79 91 14 3e 00 fa 37 bd 99 d6 7c 3e 6c 7f f8 3d
       0.14508618 -0.044916153 0.24691238 0.12133679
0000d0 60 3c b6 be e7 99 39 3e 75 85 7b be f2 54 83 3e
       -0.35592937 0.18125115 -0.24562629 0.25650746
0000e0 35 48 7a bd 27 20 7e be ca 32 3b be 72 0a 68 3e
       -0.06110402 -0.24816953 -0.18281093 0.22660235
0000f0 f7 95 f5 3d 90 b2 7d be 3e ee 93 3d c8 cd 4e 3d
       0.11991494 -0.24775147 0.072231755 0.050489217
000100 a3 0d 54 3e c5 4b 96 be 5c 71 53 3e 80 14 4b be
       0.20708327 -0.29354683 0.20648712 -0.19832039
000110 b0 5c 93 3e ec 9a 6a be fe 54 29 bd 5b 4f 8b 3d
       0.28781652 -0.2291066 -0.04134082 0.06802245
000120 c2 e4 f0 3d eb c8 9c be 37 43 d8 39 85 3c eb 3d
       0.11762382 -0.30622038 0.0004124881 0.114861526
000130 25 20 69 3e 67 8a 48 3e 1f d4 8f be 31 54 b7 3d
       0.22766168 0.19584046 -0.28091523 0.08951605
000140 a6 bc b0 3e db 44 de bd 9e da 76 be 85 f1 24 be
       0.34518927 -0.10852977 -0.24106833 -0.16107757
000150 31 79 3a bd 78 40 07 bd f2 12 9a be fc 9d c6 3d
       -0.045525733 -0.033020467 -0.3009258 0.09698102
000160 3a 0a 74 3e 3f 8a 27 3e b9 10 c8 bd 6c 8e c8 be
       0.23832026 0.1636133 -0.097688146 -0.3917116
000170 7b 71 b6 3e 3c af 41 be ce 83 1f bd 21 2d 4b be
       0.35633454 -0.18914503 -0.038944058 -0.19841434
000180 f0 e1 5f be 0c d5 79 be 80 33 b5 bb 00 d1 d1 ba
       -0.21863532 -0.24397677 -0.005529821 -0.0016007721
000190 80 3e 6f 3b 60 88 ee 3c b0 5e 1e 3d 5c 4e 57 be
       0.0036505759 0.029117763 0.03866452 -0.21025985
0001a0 51 4b 8a be 75 a7 8b be 02 64 7f be 5c 27 a6 bd
       -0.27010587 -0.27276197 -0.24940494 -0.08112976
0001b0 c4 60 47 bd b3 d1 2c 3e 47 9d 09 be ec 24 a6 bc
       -0.048676267 0.16876869 -0.13438903 -0.020281278
0001c0 02 5b f8 3a fd 65 a5 be c1 51 29 bd 58 8a 2a 3e
       0.0018948021 -0.32304373 -0.041337732 0.16654336
0001d0 23 23 0c 3e 94 19 20 3e 50 7f 0f bd 61 14 4a 3e
       0.13685279 0.15634757 -0.035033524 0.19734336
0001e0 d4 77 54 bd fe 8a 61 3e cf 71 fa 3c ae 0d ab bc
       -0.05187209 0.22025678 0.030571846 -0.020880546
0001f0 e4 d5 9a 3e 2e ba 9a 3b 48 5f a4 bc 65 91 a6 be
       0.3024131 0.0047219014 -0.020064965 -0.32532802
000200 30 59 e5 bd e9 9f 3f 3e b7 38 40 3d 51 b6 d4 bd
       -0.11198652 0.18713345 0.046929087 -0.103863366
000210 a4 65 e9 bd 36 21 4b 3e c3 a7 2e be 82 f5 dc bd
       -0.113963395 0.19836888 -0.17056184 -0.107890144
000220 53 d1 ff b8 64 55 2d 3e f2 b9 41 be db 3b 1e 3e
       -0.00012198337 0.16927105 -0.18918589 0.1545252
000230 39 98 d9 bc 29 85 95 3e 63 62 9e bd fa 68 83 bd
       -0.026561843 0.29203156 -0.077336095 -0.06416507
000240 ee 13 9c 3e d1 db 97 bd 48 bd 23 be 2e ae 02 3d
       0.30483955 -0.074149735 -0.15990174 0.031904392
000250 ab 40 8d 3e 7c 88 97 be 39 62 6b 3e 3c 55 90 be
       0.275884 -0.29596317 0.22986688 -0.2819003
000260 a9 9d 16 be f8 33 28 3c dd 42 6e 3e 6f 6c 12 be
       -0.1470858 0.010266297 0.23267694 -0.14299177
000270 82 b2 0a be 52 ac 65 3e 94 c2 5a be 03 a5 f8 bd
       -0.13544658 0.22429016 -0.21363288 -0.121408485
000280 20 03 75 3e d6 15 e4 bd e3 12 ac 3e d0 a0 ab 3e
       0.23926973 -0.111369774 0.3360816 0.33521128
000290 ec 9d 02 be 23 28 5c bd 86 50 19 bc 24 f8 9e be
       -0.12755555 -0.053749215 -0.009357577 -0.3104869
0002a0 77 6d 9d bd b1 da f7 bd 1c d3 92 be 9f 28 9f 3e
       -0.076868944 -0.12102259 -0.2867669 0.3108568
0002b0 be 80 ce 3d 61 54 67 bd ac 1c 19 3d 13 df 8d 3e
       0.100831494 -0.056476954 0.03738086 0.27709255
0002c0 b7 28 33 be 57 d5 68 3d bf b7 65 be 5e 6f 3a 3e
       -0.17496 0.05684408 -0.22433375 0.18206546
0002d0 8f 39 b1 be f4 93 42 3e c0 9e 27 3e 7a 7a 7a 3c
       -0.34614226 0.19001752 0.16369152 0.01528799
0002e0 bc 28 99 bd 9e a8 bf bd 68 db b6 3d 64 e0 a9 bb
       -0.074784726 -0.09358333 0.08928567 -0.00518422
0002f0 19 95 c1 be 69 ce 13 3e 66 f2 68 3e 3e d8 29 3d
       -0.37809065 0.14434208 0.22748718 0.04146599

conv1.bias f4 [16]
000000 72 9c 42 3f 95 aa ef 3e 1d 0c 74 bf 90 a0 4e bf
       0.76019967 0.4680983 -0.95330983 -0.8071375
000010 51 1e 2a 3f de 61 c0 3f 3a 32 79 3f 42 1a e2 3f
       0.6645251 1.5029867 0.97342265 1.7664263
000020 b2 20 4d be ec 3a 8a 3e aa c6 64 3f fa 86 9c 3f
       -0.20032004 0.2699808 0.8936564 1.2228692
000030 72 4c 32 3f a1 99 3b 3f d6 62 b9 3f b0 84 6d 3f
       0.69647896 0.73281294 1.4483287 0.9278059

conv2.weight f4 [32, 16, 2, 2]
000000 07 ca da 3b 44 be 3a 3e 5b 09 9c be af 47 0b bf
       0.0066769156 0.18236643 -0.30475888 -0.54406255
000010 cd 9b e9 b8 35 52 77 be 80 22 15 3e 24 8a cb be
       -0.00011139326 -0.24152453 0.14563942 -0.3975383
000020 18 09 5d 3e 5d 3b fe bd 9e 2c 77 3d ba 32 96 be
       0.215855 -0.124136664 0.060345285 -0.29335576
000030 e0 0f 91 be 09 91 03 3e c1 bf d5 3d 47 b9 a6 bd
       -0.28332424 0.12848295 0.10436965 -0.081408076
000040 a1 2d 5b 3e 34 41 29 3d 0d 4d cd bd a4 69 b7 3c
       0.21404125 0.04132195 -0.10024462 0.02238924
000050 a8 50 a5 be 98 24 d8 3d b7 63 0b 3e 0f 79 12 3e
       -0.32288098 0.10553855 0.13612257 0.14303993
000060 0a 9e 84 be 8c ee 7e be 2e 42 8e be 6e 45 e9 bd
       -0.25901824 -0.24895686 -0.27784866 -0.11390196
000070 3a 09 87 be 8a d7 02 3e 5b 4a 83 3e 09 40 d5 3d
       -0.26374227 0.12777534 0.25642666 0.10412604
000080 00 63 a0 3c 44 02 a0 3d 12 f3 ed 3d b0 c8 42 bc
       0.019578457 0.07812932 0.116186276 -0.011888668
000090 9a d5 43 bc 62 f5 97 bd 6f 1a e0 3d 52 37 2f 3d
       -0.011952782 -0.0741985 0.10942542 0.042777367
0000a0 57 0a e1 3c 8c 61 86 bd 91 c6 8a 3d a8 4c ad 3b
       0.02747075 -0.06561574 0.06776155 0.005288679
0000b0 46 0a da 3d b0 d9 95 be 40 d7 56 3d bc da 88 bc
       0.10646491 -0.29267645 0.052451372 -0.016705863
0000c0 e5 58 12 be 85 20 93 3e ec d3 08 be 25 98 29 3e
       -0.14291723 0.28735748 -0.13362092 0.16561945
0000d0 bf 58 d6 bb 5c ff ac bc a2 ac 37 3e 55 13 0e 3e
       -0.006541341 -0.021117859 0.17936948 0.13874562
0000e0 d1 07 53 be 82 88 3e be f6 40 d4 3d b7 50 67 3e
       -0.2060845 -0.18606761 0.10363953 0.22589384
0000f0 8b a7 c7 be 72 0c a0 bc f4 fd 6e 3e b4 a3 91 be
       -0.38995013 -0.019537184 0.23339063 -0.28445208
000100 4b 30 93 bd d1 6c 11 be 6f 44 37 be 56 6e c0 3d
       -0.071869455 -0.14201666 -0.17897199 0.09396045
000110 d1 dc 55 bf 95 3a 95 3c 62 bc 94 3e f2 1a d3 be
       -0.83540064 0.01821641 0.29049975 -0.41231495
000120 59 03 1c 3d de b3 1b bd 5a ec cb bc 47 30 6f 3e
       0.03808913 -0.03801333 -0.024892975 0.2335826
000130 c9 48 f9 3c c0 ed a9 bd 69 39 1e 3e 84 c7 00 3e
       0.030430214 -0.082973 0.15451588 0.12576109
000140 43 97 ba bd f7 05 3d be 26 41 65 3d 7f ad 85 be
       -0.09110882 -0.18459307 0.055970334 -0.2610893
000150 98 ef c4 3d 42 f3 2a 3c 33 06 5d 3e a1 54 bb 3d
       0.096160114 0.010433974 0.21584396 0.09147001
000160 1f ac 4d be d4 8c b7 bd 48 38 a5 bd 89 5c a8 3d
       -0.2008519 -0.08962408 -0.080673754 0.08220775
000170 5e 71 6b bd 25 32 a8 3e 6a 20 ea 3d d5 32 8c 3e
       -0.057481162 0.32850757 0.11431964 0.27382532
000180 68 70 ab bd 6a e8 e9 3d 18 d4 fa bc 00 18 55 bb
       -0.08371049 0.114212826 -0.030618712 -0.0032515526
000190 70 be 55 3a 8b f6 d9 bc 66 9b 46 3d fc e5 1a bd
       0.00081536826 -0.026606819 0.048488043 -0.037816986
0001a0 4d 15 ae 3c 80 e3 5f be 71 58 00 be 50 6b 0a be
       0.021250391 -0.21864128 -0.12533738 -0.13517499
0001b0 33 97 04 3d c0 f9 89 be 56 44 b0 bd 9b b2 f5 bd
       0.032370757 -0.26948357 -0.08606784 -0.11996957
0001c0 ec b7 43 3e 31 32 2d 3c ba 09 b9 3c 03 64 32 3e
       0.1911313 0.010571049 0.022587646 0.17420964
0001d0 d3 34 84 3e 43 e3 3d be 0c 0d 1d 3e 55 e3 94 be
       0.25821552 -0.18543725 0.15337008 -0.2907969
0001e0 11 99 cf bc 9b f0 d0 bd 62 4c 9f 3d 32 c0 76 be
       -0.025341542 -0.10202142 0.07778241 -0.24096754
0001f0 b7 5e ca be a2 7c 81 3e e2 68 08 be 76 47 44 3e
       -0.39525387 0.252904 -0.1332126 0.19167885
000200 fa d3 c8 bc 67 b6 94 bd ef f6 a1 3d 22 4d a1 3d
       -0.02451514 -0.07261353 0.07908427 0.0787604
000210 19 63 d9 3d 05 2c 33 3d cf c8 3c be ac 21 90 3e
       0.106146045 0.043743152 -0.18435977 0.2815069
000220 02 7f 10 3e 73 c7 3d be 17 c5 10 3b 66 c4 21 be
       0.1411095 -0.18533115 0.002209013 -0.15797576
000230 0f 69 ff bd 9d 04 e1 3d fa 4d 61 be ed 8c 6d 3d
       -0.1247121 0.10987208 -0.22002402 0.057995725
000240 d8 be cc 3c 24 c9 0e 3b 9c 5e 77 bd 1d 00 ab 3d
       0.024993345 0.002178737 -0.06039296 0.08349631
000250 1c 2c cb bd 3a 7a 08 be bc 2f 69 3c ce c3 8c 3d
       -0.099205226 -0.13327876 0.014232572 0.06873284
000260 d1 4d 8a 3e e5 9a ff 3a e2 19 e0 3c 74 dd 8d bd
       0.27012494 0.0019501118 0.027356092 -0.069270045
000270 7d 35 ff 3c 43 22 91 3e 7e f6 ec be 17 90 14 be
       0.031153435 0.28346452 -0.4628181 -0.14508091
000280 42 21 99 bd 8c ea 09 bd bc 01 11 bd 00 b6 d4 3c
       -0.074770465 -0.033670947 -0.035402045 0.02596569
000290 09 62 16 bb 5e e5 41 bd aa a9 46 bd 9e 5c 23 3d
       -0.0022946617 -0.047337882 -0.048501648 0.03988325
0002a0 bf e1 8a 3d 22 fa 57 3d d9 5e 9d bd 28 2a 62 3d
       0.06781339 0.05272878 -0.076841064 0.055215985
0002b0 cf 11 bc bb 57 7f 25 be e4 e0 a7 bb 64 95 bc bc
       -0.0057394276 -0.16161858 -0.0051232446 -0.023020454
0002c0 6d 01 35 3d 41 a5 99 bc 86 e4 9e 3d 3a ca 1e 3e
       0.044190813 -0.018755557 0.07758431 0.15506831
0002d0 2c 84 5d 3d 87 52 13 bd de 48 62 bc 07 88 2e 3d
       0.054081127 -0.035967376 -0.013811318 0.042610195
0002e0 f8 2d fd 3d 84 83 d4 3c 23 84 66 3d 7e d6 07 3e
       0.123622835 0.025941618 0.05627836 0.13265416
0002f0 ca f5 38 bd 5c 1c ac 3d 18 ff 85 3e ea d9 e8 bc
       -0.045156278 0.084038466 0.26171184 -0.028424222
000300 08 dc 11 3e fb 03 2e 3e 92 30 a8 bd e1 26 0f be
       0.14244092 0.16993706 -0.08212389 -0.13979675
000310 40 99 97 be 3b 0a 9f 3c d3 bb 51 bd f5 4e bb 3d
       -0.29609108 0.019414058 -0.051204514 0.09145919
000320 62 2a 45 be 99 97 29 3e 3c 8d 44 be 8f af 82 be
       -0.19254449 0.16561736 -0.19194502 -0.25524566
000330 86 74 c8 3c 98 73 34 3e 1e 09 88 be 49 63 b8 bd
       0.024469625 0.1762222 -0.26569456 -0.09003312
000340 05 5c 63 bd 96 87 03 3e 91 c2 19 be 75 36 4f be
       -0.05550768 0.1284469 -0.15015627 -0.20235617
000350 13 1e 14 be f8 fc 07 3e fa d4 5a bd a5 b5 b2 3c
       -0.14464597 0.13280094 -0.053425767 0.02181513
000360 16 a0 0c 3d 3a 74 91 3d fc 42 e8 3d 46 26 8a 3d
       0.034332357 0.071022466 0.11340901 0.06745581
000370 44 b7 9a 3d 9f 91 e4 bc 5b c5 80 3d 06 6b 9c 3e
       0.075544864 -0.027901469 0.062876426 0.30550402
000380 50 7b 1c 3d f0 9c c1 3d 4e 91 87 3d fc f3 30 3d
       0.038203537 0.094537616 0.066195115 0.04320143
000390 51 da c6 3d 9b 6d b0 3d a8 dd 84 bd b9 a5 95 be
       0.09709609 0.086146556 -0.0648759 -0.29228
0003a0 71 dc 44 3d 76 0c ec 3d 30 12 b4 3c d5 1b a9 be
       0.04806179 0.11525814 0.021981329 -0.33029047
0003b0 09 43 3a be a3 b5 ac bd 4c ae 18 3e db 09 82 be
       -0.18189634 -0.08433082 0.14910239 -0.25398144
0003c0 57 76 5f 3e 8f 8f 4b 3e 43 52 cf bd 27 32 a6 bd
       0.21822487 0.19878982 -0.10123112 -0.081150346
0003d0 4c 74 af 39 af 6a 20 3d 39 74 70 bc a8 34 10 be
       0.0003346525 0.03916424 -0.014676147 -0.14082587
0003e0 f6 c0 d5 bd 1a 13 eb 3c 87 78 92 bd 64 2c e3 be
       -0.10437195 0.028695632 -0.07151895 -0.44369805
0003f0 14 a3 f3 bb 49 1c 0e be 95 22 56 3e d4 fb f6 bd
       -0.007435212 -0.13877977 0.2091163 -0.12059751

conv2.bias f4 [32]
000000 b4 05 b6 be 94 a3 a8 3e 69 9a 81 3f 76 4f 13 be
       -0.35551226 0.329373 1.0125247 -0.1438578
000010 1c 3a fc 3e a5 63 5d 3f 86 46 64 bf ab fc 35 bf
       0.49263084 0.8648017 -0.8917011 -0.71088666
000020 1e ce ba bf 65 e5 8f 3f c1 e8 a9 3f 87 c3 10 3f
       -1.4594152 1.1241881 1.3274156 0.5654835
000030 a4 08 98 3f 90 a4 25 bf 15 b9 1f bf 8a 37 08 bf
       1.1877637 -0.6470423 -0.6239179 -0.53209746
000040 f8 7e b1 3e a9 b6 81 bf 32 b2 ac be a4 69 6b 3f
       0.34667182 -1.0133868 -0.33729702 0.9195807
000050 b0 5a 48 3e ec 6c 10 3e f8 71 5e bf 0c 17 91 bf
       0.19565845 0.1410405 -0.8689265 -1.1335158
000060 dc bd 69 bf 16 68 a5 bd 42 ee 78 3f 4b ec 89 3f
       -0.9130533 -0.080764934 0.9723855 1.0775236
000070 ce a6 58 bf 91 bf 16 be 2b a8 04 be 17 b1 81 3f
       -0.84629524 -0.14721514 -0.12954776 1.0132169

fc1.weight f4 [1, 512]
000000 eb a8 0c be 1c 5a c6 3c fa 65 99 bc 12 d1 6b bd
       -0.13736312 0.02421289 -0.018725384 -0.05757243
000010 5a a7 80 3d 7f 7d 7f be 4a 99 87 be 89 9a 86 bd
       0.0628192 -0.24950217 -0.26484138 -0.06572444
000020 2c 8e a8 3d 37 c4 68 3d 6c 3d 0f 3e 45 6d 6f 3d
       0.08230242 0.05682775 0.13988274 0.058453817
000030 c0 f2 4a bb 5a b8 b3 38 d4 01 63 bb e5 2f c1 3c
       -0.0030967444 8.569723e-05 -0.003463854 0.023582408
000040 4f 66 1d be f8 fa 38 3e 71 10 95 3e 48 f7 ca 3d
       -0.15371059 0.18064487 0.29114106 0.099104464
000050 49 6e 0a 3e 67 da c4 be 37 3c 09 3a f8 85 39 3e
       0.13518633 -0.38447878 0.0005235108 0.18117511
000060 c8 36 14 3d a7 f9 d8 3d 6b 41 14 3e a5 81 c9 3a
       0.036185056 0.105944924 0.1447808 0.001537372
000070 b7 8b 97 3d aa 72 d6 bd 60 66 5f 3c 55 99 37 bd
       0.07399695 -0.10471089 0.013635248 -0.044823963
000080 ea ee 10 3d 9f 43 32 3d 0f 90 bf 3d 3a 90 5c 3c
       0.035384096 0.04352152 0.09353649 0.013462121
000090 21 48 15 3c fc 8b 8b 3d 29 f8 56 3d d3 fc 8d 3d
       0.009111435 0.06813809 0.052482758 0.06932988
0000a0 98 15 46 3d 76 84 06 be 7e 6e 18 3d 0e df 09 3d
       0.048360437 -0.13136467 0.03721475 0.033659987
0000b0 c2 c4 0e 3d 3e 0f 4d 3d 27 e8 89 bd b1 30 a5 bc
       0.03485561 0.050063364 -0.06733733 -0.02016482
0000c0 96 4f ad 3c d9 6e cd bd 17 fd ce bd b0 fa d4 3d
       0.021156114 -0.10030908 -0.10106867 0.10399377
0000d0 df 1b 61 3d 30 03 bf be bb 44 6e bd 9c 3c 8e 3d
       0.05495822 -0.3730712 -0.058171015 0.06945154
0000e0 d7 b2 f3 3d 31 82 ba be 23 27 76 3c 83 8c fa 3b
       0.11899345 -0.36427453 0.015023979 0.007646145
0000f0 7f 34 63 bb 09 42 00 be ba 1e a0 3d 02 d4 87 bd
       -0.0034668741 -0.1252519 0.078183606 -0.06632234
000100 a9 db 4f bd ff 52 37 be e0 64 fe bb 69 31 e4 bd
       -0.050746594 -0.17902754 -0.00776349 -0.11142237
000110 1b a4 a4 bd 30 8f a4 3d a8 51 2e 3e 31 e9 b4 bc
       -0.08039113 0.08035123 0.17023337 -0.02208385
000120 d0 18 c8 bc df d2 d2 3d 23 e4 fa bb 1c 16 17 3d
       -0.024425894 0.10294127 -0.0076565905 0.03688632
000130 4a ec 52 bb ce 01 e4 3d bf 79 00 be b1 3d af 3d
       -0.0032184296 0.11133157 -0.12546442 0.085566886
000140 f3 98 06 bd 7b a8 2d 3e a3 14 25 3d 28 78 13 3c
       -0.032860707 0.16958801 0.040302884 0.009000815
000150 1a bb 2a 3d c9 ed 44 3d 11 56 8e 3a eb 3d e9 bd
       0.04168234 0.048078332 0.001085939 -0.11388763
000160 86 fb ce 3c 47 5c 88 bd b6 13 df 3d 1e 90 48 bd
       0.02526642 -0.066582255 0.108924314 -0.048965566
000170 8e ed 28 3d 7a 7a 9e 3d 55 10 cd 3c f3 37 22 bd
       0.041242175 0.07738204 0.025032202 -0.03960414
000180 4b 03 0a 3e b6 d0 4e 3d d7 ee b4 bd cd cf be bd
       0.13477819 0.05049201 -0.088346176 -0.093169786
000190 05 b8 2a be 4a da d6 bd 52 45 1a be 78 3f 8b bd
       -0.1667176 -0.10490854 -0.15065506 -0.06799215
0001a0 62 80 ca 3c 7d 76 0e be 67 f5 21 bc 52 3a b2 bc
       0.02471942 -0.13912387 -0.009885169 -0.021756325
0001b0 27 54 d6 bd e0 d6 ea bd 9f 24 4d bd fb cb 1c 3c
       -0.104652695 -0.114667654 -0.050083753 0.009570117
0001c0 91 4c 10 bd b1 39 bd bc d8 18 25 bd 06 a2 59 bd
       -0.03522927 -0.023098798 -0.040306896 -0.053133033
0001d0 59 8a 00 be f9 c8 03 3e 23 85 be 3d d9 a2 a8 3d
       -0.12552775 0.12869634 0.093027376 0.08234186
0001e0 17 12 8d bd 8e ee f5 bd b0 54 9d 3d 5d 9a 25 be
       -0.06888216 -0.12008391 0.076821685 -0.16172166
0001f0 32 f2 7f 3a 12 72 45 3d d6 42 8e bc e3 da 0a 3d
       0.0009763568 0.04820449 -0.017365854 0.033900153
000200 6a 6f ac 3d 01 ac b5 3d 37 94 bb 3d 47 6f dd bb
       0.08419688 0.08870698 0.09159129 -0.00675765
000210 0c c6 90 bc 59 b0 80 3d 06 46 d4 bc 04 c8 28 3c
       -0.017672561 0.06283636 -0.025912296 0.010301594
000220 2b 96 91 bd 61 9e d7 bd 45 91 2c be dc 62 61 b9
       -0.071087204 -0.10528255 -0.16852291 -0.000214945
000230 e2 4c 36 3d 86 43 d4 bc e2 ad 82 bd c0 85 c5 3c
       0.044506915 -0.025911104 -0.06380822 0.024111629
000240 c4 ef 5c 3b 40 70 1d 3e b9 bc 1d 3e 27 e3 aa 3d
       0.0033712247 0.15374851 0.15404023 0.08344107
000250 a9 71 7f 3c fc b2 14 3c 34 fb 5b 3d 4c ed 97 3d
       0.015591064 0.009075876 0.053706363 0.07418308
000260 45 f2 f3 bc a5 34 6e 3d 83 a0 0f be 2a 6f fb 3c
       -0.029778609 0.058155674 -0.14026074 0.030692656
000270 6e 20 d3 bc c7 27 a4 3d 6f 13 47 3c 8d 70 c2 3b
       -0.0257723 0.080153994 0.012150629 0.0059338273
000280 dc bc 25 3e f7 a0 24 3b da 86 36 3c 6e e5 6e 3e
       0.16185325 0.0025120357 0.01114055 0.23329708
000290 e5 ae 50 3d 2e f7 06 be 69 6d c6 bd de 42 99 3b
       0.050948042 -0.13180229 -0.09688837 0.0046771606
0002a0 c0 19 75 bd 57 24 04 3e 9c ea 2b 3e 82 a4 22 3a
       -0.05983901 0.12904488 0.16788715 0.0006204323
0002b0 9b 01 6a bc 76 d1 4a bd 17 3b ac bd b2 3f 9f 3d
       -0.014282609 -0.049516164 -0.08409708 0.07775821
0002c0 07 f3 b0 bd 5d 61 57 3e 57 17 b6 3d 75 2f 9e 3c
       -0.08640104 0.21033235 0.088911705 0.019309739
0002d0 25 9c 92 bd 6b 3e 46 3d 37 05 bb 3d c9 2c 04 be
       -0.071586885 0.04839937 0.09131854 -0.12907709
0002e0 70 e1 aa 3d a9 2e d0 bd 0a 55 d1 bd a6 88 74 3d
       0.0834378 -0.1016515 -0.10221298 0.05970063
0002f0 b9 14 c6 3c 07 2b 23 bd b7 f2 8c 3c 6c ba b3 bb
       0.024179803 -0.039835956 0.01720558 -0.0054848697
000300 3f 37 23 bc 3f 7f 00 3e fb 64 9e 3d eb 0a 4f 3d
       -0.009961902 0.1254854 0.07734104 0.05054752
000310 38 d3 86 bd 7f b1 0c 3e dc 28 1a 3e 93 6f 83 bc
       -0.065832555 0.13739584 0.15054649 -0.016044414
000320 39 66 ca bb 1a 0d 8c 3c 2b 5e 89 bd 40 3f 3b 3d
       -0.0061767367 0.017096091 -0.06707414 0.045714617
000330 a2 5c f4 3c 9b 5d b3 bc f4 8a 12 3d 0b 4f ac 3c
       0.029829327 -0.02189522 0.035777047 0.021033784
000340 77 97 e8 3d 07 48 42 bd b3 b1 14 bd b2 ca a3 bc
       0.113570146 -0.047431972 -0.03630228 -0.019994114
000350 12 df ce bd 26 c0 90 bd f8 ba 48 be 9d 87 e4 3b
       -0.10101141 -0.070678994 -0.19602573 0.006974174
000360 3d f8 c2 3d 86 25 d7 bd 4f 4a ea bd a4 37 81 3c
       0.09520004 -0.10505204 -0.114399545 0.015773602
000370 57 36 c3 3c 09 ba 52 bd 6d cc 0b bc 6e f5 59 bd
       0.023829622 -0.05144695 -0.008532626 -0.053212576
000380 2c 69 08 be 97 07 a5 3d d2 31 9e 3c 91 63 11 be
       -0.1332137 0.08058088 0.019310866 -0.14198138
000390 16 dd 5b bd 38 fd 9a 3d d1 a5 0d 3e cc 15 e3 bd
       -0.05367764 0.07567829 0.13832785 -0.11088142
0003a0 0c 81 15 3c 8c 6f c8 3d b0 f8 01 3c 9b 9a 14 bd
       0.009125005 0.09786901 0.007932827 -0.036280256
0003b0 b1 a0 27 bc c6 c4 f1 3b 64 dd e3 bd d7 0b 4d bd
       -0.010231183 0.0073781935 -0.11126211 -0.05006012
0003c0 c7 4b 21 3a 91 c6 54 bd 2b 4f 1a bc 73 87 84 3d
       0.00061529543 -0.05194718 -0.009418289 0.064711474
0003d0 30 10 cd 3d 98 70 08 be 45 70 1a 3b 69 8b ce 3d
       0.10012853 -0.13324201 0.0023565453 0.10085184
0003e0 48 b2 78 bd e1 39 69 be a8 69 0f be c6 f6 7a bc
       -0.060716897 -0.22775985 -0.14005148 -0.015317624
0003f0 cc e5 06 3d c4 32 d2 3c df 27 c3 3d 52 74 51 3d
       0.032933995 0.025658973 0.09529089 0.051136322
