paramveer_singh/model_checkpoints/CNN.ckpt (torch, 13472 bytes, 5 tensors)

conv1.weight f4 [16, 3, 2, 2]
0	0xbe7e4d70	-0.24834228
1	0x3e4aa5eb	0.19789855
2	0xbe591bab	-0.2120196
3	0x3bbc693e	0.0057498505
4	0xbdb04671	-0.08607186
5	0x3e9124a8	0.2834828
6	0xbdd4913f	-0.10379266
7	0x3e9e2a2f	0.3089156
8	0xbe112977	-0.14175974
9	0x3dca9303	0.098913215
10	0xbdfc4b22	-0.12319018
11	0x3e0d13b7	0.13777052
12	0x3df8fdf4	0.12157813
13	0x3e254e21	0.16143085
14	0xbe33a34a	-0.17542759
15	0xbdd2142d	-0.102577545
16	0xbe5e1e52	-0.21691254
17	0x3dbfbcf5	0.093622126
18	0xbb55d6db	-0.0032629285
19	0xbe149d7e	-0.14513204
20	0x3dd51067	0.10403519
21	0xbb92531a	-0.004465473
22	0x3e16dbc4	0.14732271
23	0x3e0fb03b	0.1403207
24	0x3e96c255	0.2944514
25	0x3e8bf98d	0.2733883
26	0xbe1c8a1b	-0.15287058
27	0xbe1a0adb	-0.15043204
28	0x3e1b0f37	0.15142523
29	0xbe1bd70b	-0.15218751
30	0xbe6472ab	-0.22309367
31	0xbe74132f	-0.23835443
32	0x3e0dbe40	0.13842106
33	0xbe1a1f72	-0.15051058
34	0x3e27def7	0.16393648
35	0xbdb4af76	-0.08822529
36	0x3df422b4	0.119206816
37	0xbe8cebe7	-0.2752373
38	0x3e5f2bf2	0.21794108
39	0xbdf3d823	-0.11906459
40	0x3e84c279	0.2592962
41	0xbe19a324	-0.1500364
42	0xbd975d08	-0.07390791
43	0x3deb86c3	0.11500313
44	0x3e4de798	0.20107877
45	0xbe369870	-0.17831588
46	0xbd6110fd	-0.054947842
47	0xbda3de45	-0.08001379
48	0xbe5f65e6	-0.21816215
49	0xbe27c37e	-0.16383168
50	0x3e8f1a6e	0.27949852
51	0xbe1c7f66	-0.15282974
52	0x3e0bbe46	0.13646802
53	0xbe9e362d	-0.30900708
54	0x3e9c4434	0.30520785
55	0x3d8c58aa	0.06852849
56	0x3e08d826	0.13363704
57	0xbe820bc4	-0.253996
58	0x3d6b4b41	0.057444815
59	0xbaf373e3	-0.0018573966
60	0xbe3da266	-0.18518981
61	0x3c768c86	0.015048152
62	0x3ea86b2b	0.32894263
63	0xbc9f5f9d	-0.019454772
64	0x3db53380	0.088477135
65	0xbead7c12	-0.3388372
66	0x3e57b716	0.21065935
67	0xbe6479ee	-0.22312137
68	0xbe145fe0	-0.14489698
69	0xbe0fcb75	-0.14042456
70	0x3e4daf40	0.20086384
71	0x3e3ff4dd	0.18745752
72	0xbf02b600	-0.5105896
73	0x3cc22b54	0.023702301
74	0x3daed5f3	0.08536901
75	0xbd7719de	-0.060327403
76	0x3da1ffa2	0.07910086
77	0xbcc292e0	-0.023751676
78	0x3e849ddc	0.25901687
79	0xbd2fbe30	-0.042905986
80	0xbf1e3c3b	-0.61810654
81	0x3d8a4ce8	0.0675295
82	0x3ecb00a4	0.39648926
83	0xbe3b3500	-0.18281937
84	0xbd83195f	-0.064013235
85	0xbd1da871	-0.038490716
86	0x3e6d477d	0.23171802
87	0xbda246fe	-0.07923697
88	0xbe9574fe	-0.2919082
89	0xbd17cd73	-0.037061166
90	0x3e8e535d	0.27797976
91	0xbe32a62b	-0.174462
92	0xbe3c14d2	-0.18367317
93	0x3ea1cbb3	0.31600723
94	0x3dc54eaa	0.096341446
95	0xbdab825f	-0.08374476
96	0x3eb97357	0.3622081
97	0xbd716a9c	-0.05893956
98	0xbe49fb39	-0.1972474
99	0xbe4891c3	-0.19586854
100	0xbd706cc3	-0.058697473
101	0x3e0bca9b	0.13651507
102	0xbe4dcb1d	-0.20097013
103	0x3e3141bb	0.1731023
104	0x3e86088a	0.2617839
105	0x3e81847b	0.25296387
106	0xbeb4517b	-0.35218415
107	0xbe0b8de8	-0.13628352
108	0x3e295b60	0.16538763
109	0xbd375c14	-0.044765547
110	0x3dd8a65e	0.10578607
111	0xbe48d7db	-0.19613592
112	0x3e2625ca	0.16225353
113	0x3d1d5988	0.03841546
114	0xbcfed917	-0.031109376
115	0x3e62cfdf	0.22149609
116	0xbdf48a80	-0.11940479
117	0xbea0c3ea	-0.3139947
118	0x3d9df62c	0.07712969
119	0xbd985728	-0.07438499
120	0x3e8a522a	0.2701581
121	0xbe5f8e89	-0.21831717
122	0xbe146532	-0.14491728
123	0xbf1a53c4	-0.60284066
124	0xbe024e9c	-0.127253
125	0x3e87fdc7	0.26560804
126	0x3d48b5ed	0.049001623
127	0xbee550fb	-0.44788346
128	0x3e82411f	0.25440308
129	0x3da267b8	0.07929939
130	0x3e6faf2b	0.23406665
131	0x3cc9edea	0.02464958
132	0x3d9bab9e	0.07601093
133	0xb9eca135	-0.00045133536
134	0x3e657896	0.22409281
135	0xbe471d15	-0.19444688
136	0x3e981fb1	0.2971168
137	0xbdb99174	-0.09060946
138	0x3e259e9a	0.16173783
139	0xbe5d9424	-0.21638542
140	0x3de4e092	0.11175646
141	0xbdc98528	-0.09839851
142	0xbdc55246	-0.09634833
143	0xbe4a0b7b	-0.19730942
144	0x3cebe744	0.0287968
145	0x3e658c5a	0.22416821
146	0xbcb9f4ec	-0.022699796
147	0x3e8ed295	0.27895036
148	0xbd963cd2	-0.07335819
149	0x3bf6344e	0.0075135594
150	0xbe02fa6b	-0.1279084
151	0xbd415aa3	-0.04720558
152	0xbdf9f0cc	-0.122041315
153	0xbe0a1118	-0.13483083
154	0xbe220962	-0.15823892
155	0x3d3d7a7c	0.04625939
156	0x3e0460b8	0.1292752
157	0x3e62f8f2	0.22165278
158	0x3d330702	0.043707855
159	0x3cb8052f	0.02246341
160	0xbe5adafd	-0.213726
161	0xbe074611	-0.13210322
162	0xbe0d56be	-0.13802621
163	0x3e13da8e	0.14438841
164	0x3e2e655a	0.1703085
165	0x3e78d93c	0.24301618
166	0xbea369dd	-0.31916705
167	0xbe07649e	-0.13221976
168	0x3c7eafc9	0.01554484
169	0xbd9b7650	-0.07590926
170	0x3de92b4f	0.113852136
171	0x3dae27fa	0.08503719
172	0xbe2fdcfa	-0.1717414
173	0x3e14d433	0.14534073
174	0x3e4e5d36	0.20152745
175	0x3d43ac28	0.047771603
176	0x3dbaac2a	0.09114869
177	0xbd85e8dd	-0.06538556
178	0x3dfc13dd	0.12308476
179	0xbe304c3c	-0.17216581
180	0xbeba0513	-0.36331996
181	0xbec146a0	-0.37749195
182	0x3ea334da	0.3187626
183	0x3e94ea60	0.29085064
184	0x3e600ecf	0.21880649
185	0xbc67e4aa	-0.014153639
186	0x3e1f4c67	0.15556489
187	0x3e5d04fa	0.2158393
188	0x3e2e1ea7	0.1700388
189	0x3caeeaa4	0.02135212
190	0xbeaf782a	-0.34271365
191	0xbe777d0c	-0.24168795

conv1.bias f4 [16]
0	0x3fc9cd2a	1.5765736
1	0x3f5f6b31	0.87272936
2	0xbf12ba1a	-0.5731522
3	0x40036673	2.053128
4	0xbfc254e8	-1.5182161
5	0x3fd061ff	1.6279906
6	0x3f77eaa8	0.9684243
7	0x3fe46b39	1.7845222
8	0x3ff6518f	1.924364
9	0x3f18c3b4	0.5967362
10	0xbe405d0e	-0.18785498
11	0x3f9316e1	1.1491357
12	0xbfac74c1	-1.347313
13	0xbd414adf	-0.047190543
14	0x3f33b5ef	0.70199484
15	0x4000a047	2.0097826

conv2.weight f4 [32, 16, 2, 2]
0	0xbce3c81b	-0.027805379
1	0xbd83ae6c	-0.06429753
2	0x3d88c0fd	0.066774346
3	0x3b9b28be	0.0047350815
4	0xbdc6c6e2	-0.09705903
5	0xbd13d2bf	-0.036089655
6	0x3d1acd31	0.037793342
7	0x3e143eb8	0.1447705
8	0xbdcf85e1	-0.10132957
9	0x3e106c01	0.141037
10	0xbb1751d1	-0.0023089538
11	0xbda66c1a	-0.081260875
12	0xbdc76667	-0.097363286
13	0xbeab3d90	-0.33445406
14	0xbe340918	-0.17581594
15	0xbd94c9cc	-0.07265052
16	0x3da6f827	0.081528
17	0x3c7fe039	0.015617424
18	0xbb1876d9	-0.0023264198
19	0xbe767c76	-0.24070916
20	0xbd960bbb	-0.07326456
21	0x3e47cb98	0.19511259
22	0x3e17a6f2	0.14809778
23	0x3e190f7b	0.14947312
24	0x3ea67e75	0.32518354
25	0xbe16bac4	-0.14719683
26	0x3cf369c6	0.029713523
27	0xbd0c5ec9	-0.03427008
28	0x3e3f88d3	0.18704538
29	0x3d1429c6	0.03617265
30	0x3c9d7e66	0.01922531
31	0xbd589de8	-0.052884966
32	0x3d9328c7	0.07185512
33	0xbd98f5d4	-0.07468763
34	0xbc014bb7	-0.007891587
35	0xbc9121a3	-0.017716235
36	0xbe945d6c	-0.28977525
37	0x39bb6897	0.00035745345
38	0x3d882a73	0.066487215
39	0x3d433daa	0.04766623
40	0x3d38e63d	0.045141447
41	0xbeb2a486	-0.34891146
42	0x3e889a80	0.26680374
43	0x3d301b4a	0.042994775
44	0xbde7a9e4	-0.11311701
45	0xbdb21606	-0.08695607
46	0xbd2d0f97	-0.042251196
47	0x3c9f2fad	0.019431913
48	0xbdc71301	-0.097204216
49	0x3e06080b	0.13089006
50	0xbd254588	-0.040349513
51	0x3e1bd922	0.15219548
52	0xbdafdbc9	-0.085868426
53	0xbcdb7673	-0.02678988
54	0x3dce8fb9	0.10086007
55	0x3e4b7c02	0.19871524
56	0xbea7f2af	-0.3280234
57	0xbc3f9b86	-0.0116947945
58	0xbb9b86e6	-0.0047463058
59	0x3dbef392	0.09323801
60	0xbae5bf19	-0.0017528265
61	0xbe909ede	-0.28246206
62	0x3d3b6e12	0.045759268
63	0x3d22976f	0.0396952
64	0x3c71b9e9	0.014753797
65	0xbd338e3a	-0.04383681
66	0x3da66432	0.081245795
67	0x3e5781b6	0.21045575
68	0x3da731e7	0.08163815
69	0xbd8e2f82	-0.06942655
70	0xbd86d1b3	-0.06582966
71	0x3cb4729f	0.022027312
72	0xbe0965c8	-0.13417733
73	0xbd17855d	-0.03699242
74	0xbe4a4a32	-0.19754866
75	0x3bd9e321	0.0066493903
76	0x3e6993a1	0.22810222
77	0x3d17675e	0.036963813
78	0x3e4ba2ef	0.19886373
79	0x3e8b6f8c	0.2723354
80	0x3da782eb	0.081792675
81	0xbe728c0a	-0.23686233
82	0xbc62b8e0	-0.013838023
83	0xbe03e73a	-0.12881175
84	0xbe881952	-0.26581818
85	0x3e8504d9	0.2598026
86	0xbd743a50	-0.059625924
87	0xbe18f6a6	-0.14937839
88	0xbf32dca4	-0.6986792
89	0x3e0949f9	0.13407125
90	0xbe340600	-0.17580414
91	0xbe2536eb	-0.16134231
92	0x3c747b05	0.014921908
93	0xbcbbe3e1	-0.02293581
94	0x3e64d3d4	0.22346431
95	0x3dcc9b5a	0.099905685
96	0x3d79acee	0.060955934
97	0x3aad1791	0.0013205876
98	0x3ebc1c4f	0.36740348
99	0xbd9931fe	-0.074802384
100	0x3dbb3d18	0.09142512
101	0xbba73158	-0.005102318
102	0xbdb90462	-0.09034039
103	0xbdb2e60b	-0.087352835
104	0xbdd26dce	-0.1027485
105	0x3e2dcff2	0.16973856
106	0xbedd343b	-0.4320391
107	0x3da9b8f5	0.08287231
108	0x3cfdb993	0.030972278
109	0x3d7606f0	0.06006521
110	0xbdbbee76	-0.09176342
111	0x3ce892af	0.028390257
112	0xbd79d340	-0.06099248
113	0x3e0d9c8c	0.13829249
114	0xbd846e90	-0.064664006
115	0xbbeff576	-0.0073229624
116	0x3dc11eb9	0.09429688
117	0xbd938e32	-0.07204856
118	0xbddd33f9	-0.108009286
119	0xbc2cc209	-0.010544308
120	0x3e219b5a	0.15781918
121	0xbd988e5a	-0.074490264
122	0xbd0f87fe	-0.0350418
123	0xbd60cec5	-0.05488469
124	0xbd034543	-0.032048475
125	0xbc63b70c	-0.013898622
126	0xbcd148a2	-0.02554733
127	0x3de682de	0.1125543
128	0xbe3f08c4	-0.18655688
129	0xbdbf8294	-0.09351078
130	0x3d734a5d	0.05939709
131	0xbc7d6f92	-0.015468495
132	0x3c35d565	0.0110982405
133	0x3e49795c	0.19675201
134	0xbd4c6861	-0.04990423
135	0x3d961948	0.07329041
136	0xbe04f765	-0.12984999
137	0xbdc380ce	-0.09546052
138	0x3c82e4be	0.015978213
139	0xbe0f2835	-0.13980182
140	0xbe6c964d	-0.2310421
141	0x3e0429b1	0.12906529
142	0x3db67fd0	0.08911097
143	0xbe5ab57a	-0.2135829
144	0xbc60388b	-0.013685356
145	0xbdee2de2	-0.11629845
146	0xbe21f222	-0.15815023
147	0xbf217fa1	-0.6308537
148	0x3e300fb3	0.17193489
149	0x3e15d979	0.1463374
150	0x3e6eb13f	0.23309802
151	0x3f00585c	0.50134826
152	0xbef65429	-0.48111084
153	0x3eb54e1c	0.35411155
154	0xbf66c42a	-0.9014307
155	0xbe829432	-0.2550369
156	0xba99b079	-0.0011725567
157	0xbe768881	-0.2407551
158	0xbeaa0f89	-0.33214977
159	0xbc09bb7e	-0.008406518
160	0xbda8772f	-0.082258575
161	0x3e6f7086	0.23382768
162	0x3d707b96	0.05871161
163	0x3bc1b918	0.0059119575
164	0x3d6e1ea0	0.058134675
165	0x3d17a248	0.037019998
166	0xbe8101d8	-0.2519672
167	0x3d997935	0.074938215
168	0x3e8fb7de	0.28069967
169	0xbe1a1103	-0.15045552
170	0xbd9443b0	-0.07239473
171	0x3dd478ef	0.10374629
172	0x3db0c658	0.08631581
173	0xbcfe1d04	-0.031019695
174	0x3d362820	0.04447186
175	0xbe66de1f	-0.2254567
176	0x3d7733eb	0.060352247
177	0xbcd6535d	-0.026162798
178	0x3cfa69b7	0.030567987
179	0x3e99222a	0.29908878
180	0x3e0ad001	0.1355591
181	0x3cad2640	0.021136403
182	0xbe7836ad	-0.24239607
183	0xbb8e5ad8	-0.0043443255
184	0x3d04ad17	0.032391634
185	0x3d4488dc	0.04798208
186	0xbe3f635a	-0.18690243
187	0x3d019010	0.03163153
188	0x3cc732a3	0.024316138
189	0xbeaaa5fe	-0.33329767
190	0x3e1af489	0.15132345
191	0x3e31abaa	0.17350641
192	0xbe0f0698	-0.13967359
193	0x3e45fbea	0.19334379
194	0x3e5ddf18	0.21667135
195	0xbe749b73	-0.23887424
196	0x3df8ab7b	0.12142082
197	0xbd92121c	-0.0713236
198	0x3d94dbfc	0.07268521
199	0xbe9c37f2	-0.30511433
200	0xbdae0296	-0.08496587
201	0x3c1a522e	0.009419007
202	0x3c1b5710	0.009481207
203	0x3dcdcd0f	0.100488774
204	0xbe721702	-0.2364159
205	0x3e2b1d0c	0.16710299
206	0xbdf8e6a2	-0.12153365
207	0xbcdd13de	-0.026987012
208	0xbd8f3ee6	-0.06994419
209	0x3d6d2b4f	0.05790263
210	0xbe9d28c3	-0.3069516
211	0xbea55beb	-0.3229669
212	0x3e4028c5	0.18765552
213	0x3d4a0554	0.049321488
214	0x3df6aae7	0.12044316
215	0xbe66c311	-0.2253535
216	0x3dce3fa9	0.10070736
217	0x3e43c2c2	0.19117263
218	0x3f12f116	0.5739912
219	0x3e8c6932	0.27424008
220	0x3ebacd95	0.36484972
221	0x3ec3d1e5	0.38246074
222	0xbea17502	-0.31534582
223	0x3c397d9f	0.011321454
224	0xbe9ee82e	-0.31036514
225	0xbe2ef5b0	-0.1708591
226	0x3e440dde	0.19145915
227	0xbe4181d2	-0.18897179
228	0x3dbbe060	0.091736555
229	0xbde531a0	-0.11191106
230	0x3c827383	0.01592422
231	0x3aca1883	0.0015418682
232	0x3e249df7	0.16075884
233	0x3d6dffa0	0.05810511
234	0xbda7be47	-0.081905894
235	0xbdd41eaf	-0.10357415
236	0xbea92738	-0.33037734
237	0x3e04a346	0.12952909
238	0x3c38b54c	0.011273693
239	0xbd17d9e7	-0.037073042
240	0x3db0b41c	0.08628103
241	0x3d757dc7	0.059934404
242	0x3da88f34	0.08230439
243	0x3d3094e6	0.04311075
244	0xbe2288b5	-0.15872462
245	0xbbddd163	-0.0067693456
246	0xbd8e146a	-0.069374874
247	0xbe46fa65	-0.19431455
248	0x3d804026	0.06262235
249	0xbe3b22dd	-0.18275018
250	0x3e0a7c43	0.13523965
251	0xbe9568d4	-0.2918154
252	0x3e41fa8e	0.18943235
253	0x3e0661e5	0.13123281
254	0x3e3ca2c4	0.18421465
255	0x3d9d05f5	0.07667152

conv2.bias f4 [32]
0	0xbf9b510e	-1.2134111
1	0x3fd0b42b	1.6304983
2	0xbf859547	-1.0436181
3	0x3eb9ce03	0.36289987
4	0x3f9bab99	1.2161742
5	0xbf460b77	-0.77361244
6	0xbde1cfd4	-0.11025968
7	0xbf853720	-1.0407448
8	0xbfc881aa	-1.566457
9	0x3e3dc21c	0.18531078
10	0xbf8fba62	-1.1228755
11	0x3f365801	0.71228033
12	0x3fc56c68	1.5423708
13	0xbf2d6964	-0.6773894
14	0x3cb58b4a	0.022161145
15	0xbdc006d7	-0.093763046
16	0x3fc56118	1.5420256
17	0x3fa7ee14	1.3119531
18	0xbf2b47ed	-0.66906625
19	0xbfc261db	-1.5186113
20	0x3ee9233c	0.45534694
21	0xbf970790	-1.1799183
22	0x3f8ce41e	1.1007116
23	0x3fdd05d5	1.7267405
24	0x3fd84a5c	1.6897693
25	0xbf6cdcb2	-0.92524254
26	0xbe5d10f3	-0.21588497
27	0x3efaa1c8	0.48951554
28	0x3f8f9799	1.1218139
29	0x3f691207	0.9104313
30	0xbfbc7f2f	-1.4726313
31	0xbe587d1e	-0.21141478

fc1.weight f4 [1, 512]
0	0x3cb9c84f	0.022678522
1	0xbd299fd9	-0.04141221
2	0xbc9eb371	-0.019372674
3	0x3e62ff1a	0.22167626
4	0x3d1cfecc	0.03832893
5	0xbda1fd30	-0.0790962
6	0xbe30899c	-0.17239994
7	0x3b1c4a1c	0.0023847884
8	0xbc8b6f80	-0.01702094
9	0xbdf10048	-0.11767632
10	0x3dce9824	0.10087612
11	0x3d2c7b00	0.04210949
12	0x3d0147b0	0.031562507
13	0xbdf81389	-0.12113101
14	0xbe4a0f21	-0.19732334
15	0xbc82e483	-0.015978104
16	0x3d883837	0.06651347
17	0x3e27da1b	0.16391794
18	0x3dc64c05	0.09682468
19	0x3d52d08f	0.05146843
20	0x3d0709a8	0.032968193
21	0xbd335c0c	-0.043788955
22	0xbe1097c3	-0.14120393
23	0x3cfe9590	0.031077176
24	0x3d201b0f	0.039088305
25	0xbbe44c2c	-0.006967088
26	0x3e3fe218	0.18738592
27	0xbc5bc0a9	-0.013412633
28	0xbc562c9e	-0.013072161
29	0xbc7a2b6f	-0.015269144
30	0xbde3c342	-0.11121227
31	0x3ca5d9c5	0.020245442
32	0xbe0db71a	-0.13839379
33	0x3e603caf	0.21898149
34	0xbd4292f3	-0.047503423
35	0xbd099708	-0.0335913
36	0x3c4c5fc8	0.012474008
37	0xbd96e9c4	-0.07368806
38	0x3daf89b1	0.085711844
39	0xbda98b80	-0.08278561
40	0x3d56589e	0.052330606
41	0xbdfaf31d	-0.122534014
42	0xbdcd7a2c	-0.10033068
43	0x3ddde29e	0.108342394
44	0x3bb3817c	0.005478082
45	0x3d1012da	0.03517423
46	0xbdde535f	-0.108557455
47	0x3d335cac	0.04378955
48	0x3d846198	0.06463927
49	0xbd449df4	-0.0480022
50	0x3e0ed884	0.13949782
51	0xbe2bdee0	-0.16784239
52	0xbe1744b6	-0.14772305
53	0x3b07fe4f	0.0020750945
54	0xbd247375	-0.04014917
55	0xbd099d6a	-0.033597387
56	0xbd352929	-0.044228707
57	0xbf1801da	-0.59377825
58	0xbe76d651	-0.24105193
59	0x3cf4fab1	0.029904695
60	0x3e5ed390	0.21760392
61	0x3cb2a2c7	0.021806134
62	0xbe246e4f	-0.16057704
63	0x3d56d63a	0.052450396
64	0x3c41c568	0.0118268505
65	0x3c0b53b7	0.008503846
66	0xbcb23fbd	-0.021758908
67	0x3decc065	0.11560134
68	0xbd732efa	-0.059370972
69	0xbe073021	-0.13201953
70	0xbd818ffd	-0.06326292
71	0x3d6e9b34	0.058253482
72	0x3cff17a6	0.031139206
73	0x3e3c4a69	0.1838776
74	0xbdb0c191	-0.0863067
75	0x3d5dafe4	0.05412282
76	0xbd92e952	-0.071734086
77	0xbce9ae0d	-0.028525377
78	0x3d140da7	0.036145832
79	0x3c805db4	0.015669681
80	0x3d0991c5	0.033586282
81	0xbd3c9b96	-0.046046816
82	0xbd3adaeb	-0.045618933
83	0xbdaa71a2	-0.08322455
84	0xbe0d4c13	-0.13798551
85	0x3e2414e7	0.16023599
86	0x3dad9957	0.08476513
87	0xbca8b317	-0.02059321
88	0x3cc4298a	0.023945589
89	0xbe209a3d	-0.15683837
90	0x3d2ccbfa	0.042186715
91	0x3dc4deff	0.09612846
92	0xbd07f1d5	-0.033189613
93	0xbd0404d6	-0.032231174
94	0xbc0f6c2c	-0.0087538175
95	0xbd43a96a	-0.047768988
96	0x3c99a4f5	0.018755415
97	0xbc965759	-0.018352197
98	0xbcaf6bca	-0.021413703
99	0x3bdd9f18	0.00676335
100	0x3d0a06ef	0.03369802
101	0xbd0e9dd8	-0.0348185
102	0x3d28d027	0.041214135
103	0xba969ca0	-0.001149077
104	0xbcf30cd8	-0.02966921
105	0x3d01483f	0.03156304
106	0x3cc5d8da	0.024151254
107	0x3cdac6ea	0.026706178
108	0x3c9749fa	0.018467892
109	0xbc23c9ec	-0.009996872
110	0xbc63e488	-0.013909467
111	0x3ce8e912	0.02843145
112	0xbdb52917	-0.08845728
113	0xbe1c2bb4	-0.15251046
114	0xbd30c949	-0.04316071
115	0xbc00f69a	-0.007871294
116	0x3dbd53d5	0.09244505
117	0xbcd7c069	-0.026336865
118	0xbc943b0a	-0.018094558
119	0xbd9bd8ec	-0.07609734
120	0x3c14a2fc	0.009072062
121	0x3e8430a1	0.2581835
122	0xbd654c97	-0.055981245
123	0xbd057f69	-0.03259221
124	0xbcd3f791	-0.025874885
125	0xbcb3d11a	-0.021950293
126	0xbc6ef9b9	-0.014585906
127	0x3d2a624f	0.04159766
128	0xbb8352f6	-0.0040076924
129	0xbd91976f	-0.07108962
130	0x3cde1528	0.027109697
131	0xbd6fbf9b	-0.05853234
132	0xbda64c48	-0.08120018
133	0xbda4bbfe	-0.08043669
134	0xbe638a44	-0.22220713
135	0xbb83d475	-0.0040231296
136	0xbcabde0b	-0.020979902
137	0xbcce6b0a	-0.025197525
138	0xbe4b1284	-0.19831282
139	0xbcf33c4d	-0.02969184
140	0x3c6215da	0.013799155
141	0x3cfa8d5a	0.03058498
142	0x3dd11d27	0.102106385
143	0x3cc506ac	0.024051033
144	0xbbf464b7	-0.007458295
145	0xbe4163ef	-0.18885778
146	0xbd2fb573	-0.042897653
147	0xbdb8aafe	-0.09016989
148	0x3a13c8f9	0.0005637552
149	0x3cca2ae2	0.024678651
150	0x3d660632	0.056158252
151	0xbd7a5c12	-0.06112296
152	0xbd1ba2cb	-0.03799705
153	0xbcf0060e	-0.029299762
154	0x3d9350bc	0.07193133
155	0xbd507e2e	-0.050901584
156	0x3d5b1b28	0.053492695
157	0x3da0f7be	0.07859753
158	0x3dd3d5cf	0.10343515
159	0x3d2dc2dc	0.04242216
160	0x3b2ab90d	0.002605024
161	0xbdb2657b	-0.08710762
162	0xbdf5ddff	-0.12005233
163	0x3dd5c1fb	0.104373895
164	0x3e1ad4a4	0.15120178
165	0xbd326143	-0.043549787
166	0xbd8c949a	-0.06864281
167	0xbd7c06eb	-0.061530035
168	0x3e13944f	0.14412044
169	0xbd29e8cc	-0.041481778
170	0xbda15617	-0.078777485
171	0xbd4b5147	-0.04963806
172	0x3cf3b8cd	0.029751206
173	0x3d53e5b4	0.051732734
174	0x3d86d85c	0.06584236
175	0xbd66d3a3	-0.056354176
176	0x3e39f418	0.1815952
177	0x3e1a4694	0.15065986
178	0x3ef3eb00	0.47640228
179	0xbeb87a5b	-0.3603085
180	0x3dfb46f3	0.12269392
181	0xbea70daa	-0.32627612
182	0xbea19f48	-0.31566834
183	0xbe2a7bcf	-0.16648792
184	0x3ed7823b	0.42091545
185	0xbeab0422	-0.3340159
186	0xbc9ba051	-0.018997343
187	0x3e6730d9	0.22577228
188	0x3d195fe2	0.037444957
189	0x3ef483ff	0.47756955
190	0xbdb963e4	-0.09052256
191	0x3e03e519	0.12880363
192	0xbce5696d	-0.028004372
193	0x3e606502	0.21913531
194	0x3e073843	0.13205056
195	0xbccd1184	-0.025032766
196	0xbd59e26a	-0.05319444
197	0x3da3c125	0.07995824
198	0x3e0568ff	0.13028334
199	0xbd0cb770	-0.034354627
200	0xba035a76	-0.0005010733
201	0x3c3ec203	0.011642936
202	0xbe01925d	-0.1265349
203	0x3be109d4	0.0068676267
204	0x3d2254b6	0.039631568
205	0x3b68e681	0.0035537782
206	0x3d8ff1ad	0.07028518
207	0xbc9ce95b	-0.019154241
208	0xbd955d1f	-0.07293152
209	0x3d1f74c7	0.038929727
210	0xbc2a0f0e	-0.010379566
211	0x3cb3d903	0.021954065
212	0xbb53cc1b	-0.0032317701
213	0xbd032adc	-0.032023296
214	0xbe3b6e64	-0.1830383
215	0xbcf25ec8	-0.02958621
216	0xbdc5f0f8	-0.09665102
217	0x3e112d10	0.14177346
218	0x3dbab6cd	0.09116898
219	0xbd89becf	-0.06725847
220	0x3d1bcc1f	0.038036462
221	0xbc09d293	-0.008412021
222	0x3d7240fc	0.059144005
223	0x3ba689a6	0.005082327
224	0x387e07a6	6.0565442e-05
225	0xbe25e7fa	-0.16201773
226	0xbcaa93fb	-0.020822516
227	0xbc4a36fd	-0.012342212
228	0x3cf9e30f	0.030503778
229	0x3ced46c4	0.028964408
230	0x3e6348a2	0.22195676
231	0x3cf7c699	0.030246066
232	0x3c228ec7	0.009921736
233	0xbd1e5c7b	-0.038662415
234	0xbe0a2397	-0.13490139
235	0x3c824c03	0.015905386
236	0xbd5872a2	-0.052843697
237	0x3e26322c	0.16230077
238	0xbe08466a	-0.13308111
239	0x3d3527c5	0.04422738
240	0x3a33a1c0	0.0006852411
241	0xbcd89cc8	-0.026441947
242	0x3d117f77	0.03552195
243	0xbcec536d	-0.028848374
244	0x3cec862a	0.028872568
245	0xbd14c8b3	-0.036324214
246	0xba991960	-0.0011680536
247	0xbca04be4	-0.019567437
248	0x3d2c55a3	0.042073857
249	0xbd2ff0bd	-0.042954195
250	0x3b159fe0	0.0022830889
251	0x3c4a4a0a	0.012346754
252	0x3cf43254	0.029809155
253	0x3cca24f9	0.024675833
254	0x3be32a07	0.0069325003
255	0x3c7b37f9	0.015333169
