paramveer_singh/model_checkpoints/CNN.ckpt (torch, 13472 bytes, 5 tensors)

conv1.weight f4 [16, 3, 2, 2]
0.23779239 -0.26074404 -0.20189893 0.025142027 0.11100462 -0.16158895 -0.14620425 0.2582626
0.29390296 -0.040883042 0.23140958 -0.2317605 0.25410962 -0.11163026 0.27832294 -0.16241585
-0.17870206 -0.07317456 0.015432961 -0.19131434 -0.11350974 -0.11497238 0.36155838 -0.012786869
0.021869928 0.15364431 0.06795773 -0.26174536 0.18372226 -0.0909991 -0.14640155 -0.13879417
0.30577645 0.023404412 0.09816104 -0.11741739 -0.27778217 -0.25824568 -0.28117913 0.13978669
0.12449884 0.29033005 -0.1123009 -0.17892885 -0.16630775 0.16052735 -0.12940486 -0.14035031
-0.13767485 -0.071622804 0.13620871 -0.11149508 -0.11120784 0.26782513 -0.13891476 -0.083402306
-0.024392212 -0.24164896 -0.08744611 0.15364753 0.080708176 -0.22436823 -0.23391344 -0.0037521985
-0.14749508 0.1402545 -0.015780138 0.13833535 0.041366342 0.2062362 0.12666397 0.09589442
0.2375476 0.031038916 0.06474265 0.22218725 0.0077193347 -0.1554382 0.21662234 0.20562503
-0.06565133 -0.05697499 0.28109875 -0.25589544 0.2099779 0.13480839 -0.0747128 0.30231026
0.052446652 -0.034279313 0.17109104 0.23719592 0.06674134 -0.06931032 0.05301218 0.06696748
-0.16856031 -0.15474717 -0.020692794 -0.21034482 -0.13305032 -0.16075982 -0.10420489 0.29761875
0.21181558 0.057774454 0.18575364 -0.07371592 0.10674463 0.19597197 0.20224267 -0.094019786
0.03648068 0.1889792 0.21363902 -0.25209543 -0.14605051 -0.056446865 -0.24542074 -0.26938227
0.13977244 -0.21807308 -0.31545562 -0.074589014 0.23922949 -0.15468796 0.06332504 0.20061302
0.013647043 0.07530912 0.22230656 0.095468976 -0.18332605 -0.17357956 0.29203632 0.039303172
0.05955855 0.17338578 0.24858844 0.29892278 0.18070988 0.013370167 -0.12338279 -0.0004570585
0.13665682 -0.11334167 -0.05361607 -0.13425322 -0.025114857 0.2354508 0.17022824 0.18783227
0.11275096 -0.17065693 -0.19001774 0.12341203 0.13250506 -0.18886895 -0.151808 0.014197365
0.25167078 0.0076513872 -0.16232678 0.28736222 -0.14534336 -0.010600617 -0.2203139 0.26956365
0.22008318 -0.11723488 0.037901293 -0.027454024 -0.23208074 0.1714443 -0.25102398 0.20880538
-0.2139815 0.23113371 -0.047778968 -0.0036102966 -0.25186408 -0.07324287 0.2684548 -0.10808669
0.15369323 -0.25150594 -0.26593727 -0.25427365 0.15970767 0.25318992 -0.27304485 0.040332407
00000000: d97f 733e 3e80 85be 98be 4ebe a7f6 cd3c
00000010: 6456 e33d 9377 25be 91b6 15be ff3a 843e
00000020: 737a 963e fa74 27bd a2f6 6c3e a052 6dbe
00000030: a81a 823e 689e e4bd 5880 8e3e 5750 26be
00000040: acfd 36be 8bdc 95bd 88da 7c3c e8e7 43be
00000050: cb77 e8bd a476 ebbd 2e1e b93e 0480 51bc
00000060: 9028 b33c ef54 1d3e 6c2d 8b3d 7d03 86be
00000070: b021 3c3e bc5d babd 4aea 15be 0f20 0ebe
00000080: bb8e 9c3e 9cba bf3c a808 c93d 8778 f0bd
00000090: 7739 8ebe c738 84be b6f6 8fbe 3e24 0f3e
000000a0: 3ff9 fe3d 24a6 943e 04fe e5bd 2039 37be
000000b0: 944c 2abe 4861 243e b582 04be feb7 0fbe
000000c0: a3fa 0cbe faae 92bd 4c7a 0b3e 8857 e4bd
000000d0: f0c0 e3bd 6020 893e ac3f 0ebe d4ce aabd
000000e0: 2dd2 c7bc d372 77be f216 b3bd c755 1d3e
000000f0: 544a a53d c9c0 65be 0187 6fbe 72e7 75bb
00000100: f308 17be e09e 0f3e 5945 81bc c8a7 0d3e
00000110: c16f 293d 952f 533e 33b4 013e 4b64 c43d
00000120: ae3f 733e 5345 fe3c cb97 843d 0e85 633e
00000130: 79f2 fc3b 312b 1fbe 3fd2 5d3e 5e8f 523e
00000140: 3474 86bd 9b5e 69bd 2dec 8f3e ba04 83be
00000150: 7204 573e 360b 0a3e 0603 99bd 69c8 9a3e
00000160: 4dd2 563d 7768 0cbd 7d32 2f3e 7de3 723e
00000170: afaf 883d 92f2 8dbd 4d23 593d 3f26 893d
00000180: 139b 2cbe 0b76 1ebe ef83 a9bc a264 57be
00000190: 583e 08be 399e 24be 6069 d5bd 7c61 983e
000001a0: 2fe6 583e e8a4 6c3d 3436 3e3e 5ff8 96bd
000001b0: ee9c da3d e0ac 483e b418 4f3e 728d c0bd
000001c0: c46c 153d c383 413e 30c4 5a3e a712 81be
000001d0: 448e 15be d434 67bd 934f 7bbe 79ec 89be
000001e0: 8220 0f3e 8d4e 5fbe 6683 a1be 20c2 98bd
000001f0: 93f8 743e 8566 1ebe 8fb0 813d 806d 4d3e
00000200: d997 5f3c ab3b 9a3d 55a4 633e 3d85 c33d
00000210: d3b9 3bbe d7be 31be c985 953e 5dfc 203d
00000220: abf3 733d 0b8c 313e f88d 7e3e 680c 993e
00000230: 030c 393e 8c0e 5b3c 1eb0 fcbd 5aa1 efb9
00000240: c4ef 0b3e ad1f e8bd 869c 5bbd ad79 09be
00000250: acbd cdbc 041a 713e 5050 2e3e 1a57 403e
00000260: fae9 e63d b1c0 2ebe 0394 42be 72bf fc3d
00000270: 68af 073e dd66 41be 8e73 1bbe 119c 683c
00000280: feda 803e 7db8 fa3b fe38 26be 2421 933e
00000290: e4d4 14be 36ae 2dbc f899 61be 3f04 8a3e
000002a0: 7c5d 613e d718 f0bd 633e 1b3d 43e7 e0bc
000002b0: 93a6 6dbe 188f 2f3e 3786 80be 14d1 553e
000002c0: f71d 5bbe 51ae 6c3e e1b3 43bd ba9a 6cbb
000002d0: 54f4 80be 5c00 96bd e872 893e 8e5c ddbd
000002e0: c261 1d3e 63c5 80be ee28 88be 2830 82be
000002f0: 688a 233e 1ca2 813e 89cc 8bbe 9833 253d

conv1.bias f4 [16]
0.15730454 0.050115235 0.188966 0.19711222 -0.070805356 0.16062722 -0.0055375122 0.21635734
0.13704236 0.14309233 0.05327199 -0.35468146 -0.07090537 0.034721334 0.24401021 0.12406898
00000000: 7114 213e a245 4d3d 4e80 413e c9d7 493e
00000010: 6602 91bd 767b 243e 0574 b5bb c78c 5d3e
00000020: d554 0c3e cc86 123e bb33 5a3d cf98 b5be
00000030: d636 91bd f537 0e3d d0dd 793e e117 fe3d

conv2.weight f4 [32, 16, 2, 2]
-0.04701967 0.08117701 0.08687342 -0.076248735 -0.00060078886 0.08728816 0.06318401 -0.013761847
0.043660995 -0.055936106 -0.06347224 0.062358554 0.05015413 -0.07755958 0.11167419 0.11734043
0.12905927 0.058811314 0.013979982 -0.06822122 -0.06866057 -0.09768347 -0.055785164 -0.045482498
-0.02040228 -0.022979386 -0.12925592 -0.06647325 0.089619 -0.09156879 -0.08946928 0.025883181
0.0063505964 -0.021596834 0.15518203 0.112567045 -0.10091152 0.070130944 -0.08005278 0.08875452
-0.09966841 -0.106373 -0.09325641 -0.036360893 -0.09865194 0.033831067 0.041887417 0.066069774
-0.081409134 0.017250044 -0.020082913 -0.06097225 0.06507388 0.12638795 -0.060110815 -0.121178046
0.106063075 0.07186047 0.080810614 0.081809334 0.14216463 0.004510487 0.0033752234 -0.09758757
-0.0885009 -0.12715282 0.11146771 -0.096153565 0.048107825 -0.047261268 -0.06803905 0.083355024
0.13228902 0.03785458 0.09914309 0.058717918 0.035622366 -0.02283295 0.0009591794 -0.13401422
0.10623529 -0.10987797 -0.029600352 -0.046310645 -0.10830219 -0.08085442 0.030043146 0.057290982
-0.043498565 -0.0027914767 -0.023340527 -0.024554867 0.028385958 -0.057412513 0.11796413 -0.04678587
-0.018206032 0.044697937 -0.00505249 -0.009106888 -0.09160136 -0.038203657 -0.08243813 -0.0661946
0.030147329 -0.009011344 -0.03012376 0.11083068 -0.02991686 -0.10474022 -0.0013572174 0.013481341
-0.05660931 -0.0053014527 -0.049571723 0.13686816 0.033716228 0.007100572 0.12890434 -0.07678361
-0.047107734 -0.019431667 -0.0031635424 0.13677914 0.071162075 -0.1258224 0.11070777 0.03767006
0.062272206 -0.006776785 0.07913175 -0.06389196 0.18285184 0.036522478 0.024172697 0.09909506
-0.02869555 -0.042418636 0.033371408 -0.06675746 -0.05636793 -0.1314136 0.018378785 0.001776412
-0.11200217 0.06748334 -0.09136029 -0.12208795 -0.047034483 0.09236926 -0.071629524 -0.08058239
-0.03753663 -0.13586679 0.07760978 -0.06262391 -0.025472876 0.04153806 -0.027307905 -0.0854366
0.009603111 0.01581149 0.12903099 0.09648139 0.015610703 -0.038901567 0.055425458 -0.028105022
0.02922307 -0.05265789 -0.064999506 0.06293161 0.09911525 0.097550444 0.063165136 0.06787829
0.08077757 -0.054163944 -0.112670064 -0.054627884 -0.10323212 -0.07910632 -0.038172122 0.063673444
-0.0034823637 0.04653598 0.029895797 -0.03692266 -0.09054933 -0.1102418 0.0009046534 -0.03770507
-0.03379066 -0.08279033 -0.19006927 -0.10663321 0.14268033 -0.062219396 -0.06916294 0.004158486
-0.08554342 -0.09121797 -0.11730943 -0.043991838 0.022580406 -0.049305707 0.10756635 0.043413334
-0.045662414 0.0065401974 -0.007393027 0.006720918 -0.032395657 0.112628035 -0.15890557 0.051532093
0.051795147 -0.046835646 0.011682524 -0.08290033 0.096830525 -0.084814094 -0.010860491 0.070343316
-0.08864701 0.13137698 0.12991102 -0.011753862 0.0636475 -0.085717335 0.1790031 0.1267125
0.034764342 -0.0696343 -0.15067136 0.06097077 -0.099123724 0.047892082 -0.07150745 0.100421764
-0.021898162 0.05880264 -0.037424665 0.10407275 -0.12505409 0.11930095 -0.020654514 -0.04378041
0.12550421 -0.102382705 0.10672431 -0.063311026 0.030867577 0.023376618 -0.049201716 0.050849482
00000000: b397 40bd 2240 a63d b1ea b13d 4c28 9cbd
00000010: 427e 1dba 23c4 b23d 9e66 813d 5f79 61bc
00000020: dfd5 323d 421d 65bd bcfd 81bd af6b 7f3d
00000030: 6b6e 4d3d 8fd7 9ebd 70b5 e43d 2e50 f03d
00000040: 1d28 043e 22e4 703d 4b0c 653c 91b7 8bbd
00000050: ea9d 8cbd 450e c8bd fc7e 64bd db4b 3abd
00000060: af22 a7bc 443f bcbc aa5b 04be 2123 88bd
00000070: 2b8a b73d 6b88 bbbd ab3b b7bd f708 d43c
00000080: aa18 d03b d8eb b0bc 0ae8 1e3e 8d89 e63d
00000090: b3aa cebd d0a0 8f3d b6f2 a3bd eec4 b53d
000000a0: f41e ccbd 16da d9bd 37fd bebd 29ef 14bd
000000b0: 070a cabd 7292 0a3d 2492 2b3d 974f 873d
000000c0: d5b9 a6bd f74f 8d3c ec84 a4bc 0abe 79bd
000000d0: 7445 853d d86b 013e c236 76bd 322c f8bd
000000e0: 9937 d93d 952b 933d 0980 a53d a78b a73d
000000f0: 9b93 113e b5cc 933b da32 5d3b fedb c7bd
00000100: f63f b5bd 5934 02be 2f49 e43d 29ec c4bd
00000110: b60c 453d 0895 41bd 0f58 8bbd 0ab6 aa3d
00000120: c676 073e 670d 1b3d 880b cb3d 3382 703d
00000130: c2e8 113d 2b0c bbbc 7171 7b3a 063b 09be
00000140: e391 d93d b307 e1bd 707c f2bc 3bb0 3dbd
00000150: 8acd ddbd 0197 a5bd 0b1d f63c f3a9 6a3d
00000160: 8d2b 32bd 35f1 36bb a234 bfbc 4a27 c9bc
00000170: ab89 e83c 6229 6bbd 2e97 f13d 8aa2 3fbd
00000180: d124 95bc 2f15 373d 5c8f a5bb 0f35 15bc
00000190: 7e99 bbbd 707b 1cbd 53d5 a8bd 0991 87bd
000001a0: 88f7 f63c 51a4 13bc 1bc6 f6bc 32fb e23d
000001b0: 3414 f5bc 0a82 d6bd a9e4 b1ba d8e0 5c3c
000001c0: 2adf 67bd cfb7 adbb b80b 4bbd 2b27 0c3e
000001d0: 071a 0a3d eaab e83b 80ff 033e ba40 9dbd
000001e0: 0af4 40bd 292f 9fbc 6f53 4fbb d50f 0c3e
000001f0: 6cbd 913d 96d7 00be c1ba e23d ec4b 1a3d
00000200: 2411 7f3d cb0f debb d40f a23d cad9 82bd
00000210: 833d 3b3e 9898 153d d205 c63c 5af2 ca3d
00000220: ee12 ebbc 2abf 2dbd 75b0 083d 23b8 88bd
00000230: 0fe2 66bd 4991 06be 1b8f 963c 7fd6 e83a
00000240: 6561 e5bd b534 8a3d 1b1b bbbd 3f09 fabd
00000250: 3ba7 40bd 182c bd3d 80b2 92bd 6108 a5bd
00000260: 02c0 19bd aa20 0bbe e0f1 9e3d f740 80bd
00000270: 7eac d0bc d023 2a3d d4b4 dfbc 62f9 aebd
00000280: 5e56 1d3c 1987 813c b320 043e 0998 c53d
00000290: 09c4 7f3c 4057 1fbd ce05 633d 813c e6bc
000002a0: 3865 ef3c cdaf 57bd 761e 85bd 4ae2 803d
000002b0: f0fc ca3d 87c8 c73d b95c 813d c603 8b3d
000002c0: b66e a53d 03db 5dbd 90bf e6bd 7dc1 5fbd
000002d0: 5d6b d3bd 7f02 a2bd 5f5a 1cbd 3967 823d
000002e0: 5e38 64bb 839c 3e3d 08e8 f43c 373c 17bd
000002f0: ed71 b9bd 74c6 e1bd 4326 6d3a a270 1abd
00000300: 1368 0abd fa8d a9bd 85a1 42be 8362 dabd
00000310: cb1a 123e c4d9 7ebd 4da5 8dbd e943 883b
00000320: 6331 afbd 7dd0 babd ed3f f0bd c930 34bd
00000330: 8bfa b83c c8f4 49bd bf4b dc3d 2ed2 313d
00000340: 8308 3bbd 274f d63b 3541 f2bb 263b dc3b
00000350: 4fb1 04bd 87a9 e63d 24b8 22be 5113 533d
00000360: 2627 543d bcd6 3fbd 0f68 3f3c a6c7 a9bd
00000370: 154f c63d 03b3 adbd 33f0 31bc 2810 903d
00000380: 908c b5bd b087 063e 6507 053e 4593 40bc
00000390: 9f59 823d 928c afbd 974c 373e ecc0 013e
000003a0: 0e65 0e3d 6e9c 8ebd 9849 1abe 7cbc 793d
000003b0: 6101 cbbd 7d2a 443d 7f72 92bd eda9 cd3d
000003c0: c663 b3bc 09db 703d 9b4a 19bd 1824 d53d
000003d0: 2e0e 00be 0e54 f43d a833 a9bc 1653 33bd
000003e0: 2d84 003e 06ae d1bd 4692 da3d 36a9 81bd
000003f0: 00de fc3c 5280 bf3c bd87 49bd 8c47 503d

conv2.bias f4 [32]
0.15627423 -0.091842376 -0.13670853 -0.0690129 0.19291587 0.158782 -0.0851043 0.030017931
0.09600774 -0.08319647 -0.04311971 -0.12438386 -0.18487461 -0.023736704 -0.001058311 -0.08126419
0.14993933 0.2219079 -0.0077183037 0.10379501 -0.2154984 0.1284542 -0.05054533 0.061077956
0.07079243 0.0996441 -0.18482678 0.16355489 0.09130777 -0.043965694 0.095906444 0.013747035
00000000: 5a06 203e db17 bcbd 52fd 0bbe a356 8dbd
00000010: bd8b 453e c097 223e 2a4b aebd 2ae8 f53c
00000020: b59f c43d e962 aabd 4b9e 30bd f7bc febd
00000030: c54f 3dbe 7a73 c2bc 06b7 8aba d76d a6bd
00000040: b289 193e d33b 633e d3e9 fcbb 7a92 d43d
00000050: 9dab 5cbe 7f89 033e 9f08 4fbd e12c 7a3d
00000060: 9ffb 903d 3512 cc3d 3b43 3dbe ef7a 273e
00000070: 91ff ba3d 5f15 34bd 996a c43d 3e3b 613c

fc1.weight f4 [1, 512]
-0.10957319 0.005615925 -0.058504775 -0.035032183 0.008549449 0.032843415 0.03944357 -0.040645447
-0.036137763 -0.023099942 -0.023513492 0.008976554 -0.037159085 0.07492175 0.05240998 0.039155938
0.010670007 0.03324596 -0.05328901 0.007953092 0.012220879 0.04292223 -0.028009081 0.017896999
-0.039094694 -0.024436489 -0.04026696 -0.023610556 0.00978019 -0.040204152 -0.0014309845 -0.07211751
-0.023394762 -0.008776721 -0.014468023 -0.08869161 0.020402052 -0.035385776 0.043605708 -0.035497073
-0.020339264 -0.057995036 -0.04866374 -0.012344404 -0.013918665 -0.05632128 0.022945505 0.011065811
0.018953182 0.01455182 0.0026099961 -0.03014961 -0.0029010207 -0.07323028 -0.055359017 0.07979819
-0.0281796 -0.06912355 -0.0859287 0.047326688 -0.035927054 -0.061983112 -0.052055895 -0.0299645
0.012992741 -0.005300402 0.05854988 0.010555911 0.0071182577 0.06656564 0.05451683 0.0057155127
0.05764034 0.0924132 0.012116285 0.013677945 0.014108947 0.07171533 -0.019274518 0.09016504
0.01793164 0.05568132 0.048914183 -0.015429992 0.025183491 -0.02987843 0.040239427 -0.03311162
3.513388e-05 0.0027739005 -0.0154795395 -0.02913757 0.01797707 0.037218817 0.018423907 -0.022141913
-0.027586123 -0.010407117 0.061522055 0.04685655 -0.058006395 -0.010153614 -0.0047947094 -0.047798105
-0.018535394 -0.037653577 -0.052164655 0.03481455 0.009536087 -0.025621112 -0.032175135 0.026496697
-0.0063259765 0.02068304 -0.003610224 -0.0022577078 -0.0011009456 0.01000948 -0.028170345 -0.0018994358
0.03126337 -0.022664227 0.036423996 0.012777133 -0.037354194 0.041566424 0.041992042 0.00016636765
-0.01590176 0.0008094975 0.072578534 -0.030612048 0.05826218 -0.1391621 -0.033894937 0.053479847
0.029613959 0.11330154 0.0821713 0.0467563 -0.018887796 -0.061112717 0.027158054 0.013912507
-0.046324886 -0.09304343 -0.111751795 0.03182875 -0.057774764 -0.013588811 0.009190615 -0.028649904
-0.022222549 -0.05550695 -0.09228855 -0.02543151 -0.012858589 -0.07273809 0.027808508 0.026805876
-0.008416897 -0.085886784 -0.0271275 -0.04235681 0.028032653 -0.035946257 -0.017493745 -0.005521445
0.022048382 -0.014497649 0.028545387 -0.01617842 -0.011788105 -0.027146459 0.008383954 -0.025365459
0.02936442 -0.011355423 0.03001894 0.0005873495 -0.05577257 -0.017899081 -0.02240557 -0.039190024
-0.05834292 -0.07367796 -0.02100469 -0.04891724 0.03208914 0.029640445 -0.030794095 -0.039617747
-0.05390121 0.017877935 0.015841473 -0.04406406 -0.040535003 0.05706816 0.098869726 -0.07441232
0.05745172 -0.03376497 -0.03965351 0.03332994 -0.015750973 -0.039817948 0.0020404863 -0.030896632
0.015631845 0.062531725 -0.0020648385 0.024799645 0.020590607 0.020438021 0.054633267 0.00018803742
0.0049355314 0.032362208 -0.0410976 0.013216854 0.006253717 -0.011661889 -0.031458516 0.030362027
-0.08018127 -0.08736641 0.014672637 -0.03687435 -0.016128207 -0.11891296 -0.006957623 -0.107845806
-0.047728863 -0.012249031 0.10306552 -0.007902483 -0.014368831 -0.05539683 -0.11974763 0.023164347
0.021164618 -0.048038352 -0.039276272 -0.0004788788 -0.04118976 -0.07318797 -0.08116644 -0.0039843554
-0.027600696 -0.06451791 -0.088928126 0.006141653 -0.0066601657 -0.02849563 0.010804873 -0.044376142
00000000: e967 e0bd cb05 b83b b4a2 6fbd e87d 0fbd
00000010: fd12 0c3c d186 063d 958f 213d d77b 26bd
00000020: 3105 14bd 173c bdbc 5e9f c0bc 6512 133c
00000030: 2034 18bd 9370 993d d9ab 563d fa61 203d
00000040: 41d1 2e3c ea2c 083d 9445 5abd b04d 023c
00000050: 153a 483c 38cf 2f3d 4d73 e5bc ba9c 923c
00000060: c221 20bd 082f c8bc f8ee 24bd ed6a c1bc
00000070: 173d 203c 1cad 24bd df8f bbba 58b2 93bd
00000080: 5fa6 bfbc 3ccc 0fbc 490b 6dbc f2a3 b5bd
00000090: 3422 a73c adf0 10bd e69b 323d 6165 11bd
000000a0: 879e a6bc 348c 6dbd a153 47bd 2f40 4abc
000000b0: 1d0b 64bc 24b1 66bd 36f8 bb3c 604d 353c
000000c0: b443 9b3c c26a 6e3c 780c 2b3b 51fc f6bc
000000d0: 0d1f 3ebb c2f9 95bd 23c0 62bd 3c6d a33d
000000e0: e8d8 e6bc a690 8dbd 63fb afbd a1d9 413d
000000f0: 3f28 13bd 01e2 7dbd 9038 55bd 1c78 f5bc
00000100: 81df 543c ffae adbb 00d2 6f3d b3f2 2c3c
00000110: 4640 e93b 9153 883d 0a4d 5f3d 3249 bb3b
00000120: 4718 6c3d 2243 bd3d 6283 463c 7619 603c
00000130: 3629 673c 7ddf 923d 98e5 9dbc 73a8 b83d
00000140: 60e5 923c 1912 643d 3d5a 483d 14ce 7cbc
00000150: 9c4d ce3c 9cc3 f4bc 19d2 243d 0da0 07bd
00000160: b75c 1338 54ca 353b e59d 7dbc eab1 eebc
00000170: a644 933c c272 183d bced 963c f562 b5bc
00000180: 4bfc e1bc 9d82 2abc 8dfe 7b3d a7ec 3f3d
00000190: 1d98 6dbd 585b 26bc f01c 9dbb f2c7 43bd
000001a0: 8ad7 97bc a33a 1abd 9baa 55bd b499 0e3d
000001b0: 3f3d 1c3c 5ee3 d1bc 13ca 03bd 9a0f d93c
000001c0: 234a cfbb 7b6f a93c 8299 6cbb 0df6 13bb
000001d0: 9b4d 90ba cdfe 233c 7fc5 e6bc 7df6 f8ba
000001e0: 050e 003d 54aa b9bc 5431 153d 2e57 513c
000001f0: b600 19bd 8e41 2a3d d9ff 2b3d fa72 2e39
00000200: 6844 82bc 7534 543a 0ea4 943d 1ec6 fabc
00000210: 53a4 6e3d 8280 0ebe 6bd5 0abd af0d 5b3d
00000220: f998 f23c a30a e83d 6d49 a83d 8983 3f3d
00000230: 94ba 9abc 5451 7abd 917a de3c 49f1 633c
00000240: 2abf 3dbd 8e8d bebd 20de e4bd dd5e 023d
00000250: 3ba5 6cbd 9ba3 5ebc 3c94 163c 34b3 eabc
00000260: 100c b6bc 415b 63bd c801 bdbd be55 d0bc
00000270: d5ac 52bc b5f7 94bd abce e33c ff97 db3c
00000280: 06e7 09bc 69e5 afbd 7e3a debc 567e 2dbd
00000290: bca4 e53c 623c 13bd 0b4f 8fbc 3ded b4bb
000002a0: cf9e b43c 8c87 6dbc 04d8 e93c 9b88 84bc
000002b0: e522 41bc 4062 debc da5c 093c 39cb cfbc
000002c0: a78d f03c 190c 3abc 48ea f53c 5cf8 193a
000002d0: c771 64bd 18a1 92bc e38b b7bc b885 20bd
000002e0: fcf8 6ebd 78e4 96bd 0712 acbc 725d 48bd
000002f0: e76f 033d 85d0 f23c e643 fcbc 3846 22bd
00000300: 84c7 5cbd bf74 923c fac5 813c 847c 34bd
00000310: 0808 26bd 4ec0 693d 367c ca3d 7d65 98bd
00000320: 7f52 6b3d 234d 0abd b86b 22bd fa84 083d
00000330: 2f08 81bc 2518 23bd aeb9 053b ef1a fdbc
00000340: 5b0e 803c a210 803d 3e52 07bb a028 cb3c
00000350: a2ad a83c a36d a73c 22c7 5f3d e92b 4539
00000360: 3dba a13b 3c8e 043d f555 28bd 818b 583c
00000370: fbeb cc3b 8211 3fbc a5da 00bd c9b9 f83c
00000380: 1436 a4bd 29ed b2bd 8065 703c 8f09 17bd
00000390: 4d1f 84bc a388 f3bd c6fc e3bb 43de dcbd
000003a0: 577f 43bd 29b0 48bc 0414 d33d 6b79 01bc
000003b0: 3f6b 6bbc c9e7 62bd 3f3e f5bd 28c3 bd3c
000003c0: 6c61 ad3c ddc3 44bd 28e0 20bd 0612 fbb9
000003d0: 98b6 28bd 93e3 95bd 973a a6bd 328f 82bb
000003e0: db1a e2bc f721 84bd f31f b6bd eb3f c93b
000003f0: 853d dabb ab6f e9bc ec06 313c c2c3 35bd
