paramveer_singh/model_checkpoints/MultimodalNN.ckpt (torch, 76610 bytes, 11 tensors)

conv1.weight f4 [16, 3, 2, 2]
000000 02 0e 36 3e ae 42 dc bd aa 68 10 3e 53 fc 79 be
       0.17778781 -0.10754906 0.14102426 -0.2441266
000010 c6 84 c5 bd 5b 09 7a bc 10 4a 50 bd 09 4a 9c bd
       -0.09644465 -0.01526102 -0.05085188 -0.076313086
000020 65 a3 56 3e 32 f0 21 bd fe 6a 52 3e 98 7d a8 3d
       0.20960768 -0.03953571 0.20548627 0.0822708
000030 67 32 41 3e e4 42 7e be 26 ec 79 3e b6 e4 14 3e
       0.18866883 -0.24830204 0.2440649 0.14540371
000040 90 b4 48 be 68 25 31 3d 93 d0 2a be 0d b1 2d 3e
       -0.19600129 0.043248564 -0.16681127 0.16962071
000050 8a 86 12 3e 48 94 4d 38 74 32 14 3e df 55 1a be
       0.14309135 4.9013906e-05 0.14472371 -0.1507182
000060 50 b5 7c be e3 1c 45 3e 19 1e 4b bd e5 98 76 3e
       -0.2467854 0.192493 -0.04958925 0.24081762
000070 ff 42 8b be 73 8b 29 be 8d 7c 36 3e 14 e4 97 3e
       -0.2719955 -0.16557102 0.1782095 0.29666197
000080 f3 8f c8 bd fa c3 46 3e 55 29 97 be 34 3e f5 bd
       -0.09793081 0.19410697 -0.2952372 -0.11974755
000090 16 07 26 3e d7 27 b2 bd db d8 63 3e 52 fe 83 3e
       0.1621364 -0.08699005 0.22250693 0.25779969
0000a0 3f 2b 0d be 95 1f 43 be fd a6 1b bc 93 8b 9e be
       -0.13786028 -0.19055016 -0.009500262 -0.30965862
0000b0 54 70 17 be 62 a6 fc 3d 80 48 8c be d1 a5 42 3e
       -0.14788944 0.123364225 -0.27399063 0.19008566
0000c0 6a c1 8d be 26 67 4a be d9 41 88 3e d1 7f 86 3d
       -0.27686626 -0.1976591 0.26612738 0.06567348
0000d0 c9 7c d4 be 8b 01 55 3e 46 30 dd 3d 69 08 54 3c
       -0.41501454 0.2080137 0.10800223 0.012941458
0000e0 a1 f4 c4 be cb b7 33 3e 03 f2 78 3e a9 54 db bc
       -0.38467887 0.1755058 0.2431107 -0.026773768
0000f0 36 38 3d 3d 4d 5b 7e be b9 9b b3 3c bd 77 a0 be
       0.046196185 -0.24839516 0.02192484 -0.31341353
000100 ab 88 77 3e c6 60 82 be ac 4f 83 3e c2 0d 6e be
       0.24173228 -0.25464457 0.25646722 -0.23247436
000110 50 6a 88 3e a2 59 9f bd 69 fa 8a 3e 02 59 18 be
       0.2664361 -0.07780768 0.27144173 -0.14877704
000120 5f e3 ab bd a4 e4 d2 3d d4 95 a6 3e 1f b9 7a be
       -0.08392977 0.10297516 0.32536185 -0.2448468
000130 52 73 1b be b0 53 c5 be 8f e5 be 3d 00 75 5a 3c
       -0.1518071 -0.3854041 0.093211286 0.013333559
000140 98 11 d1 bd 20 f0 46 be dc 11 4e 3e 3b b7 08 3e
       -0.10208434 -0.19427538 0.20124 0.13351147
000150 18 cc d1 bd a5 8d 65 be bd ad 92 be f3 5a 43 3d
       -0.10244006 -0.22417314 -0.28648177 0.047694158
000160 4b ff 14 3e 6a 86 90 3e ad 7a de 3b b4 61 db 3d
       0.14550512 0.2822755 0.0067895264 0.10711995
000170 76 cb 80 3e d7 87 b8 3d 57 73 aa bc df 15 db bd
       0.25155228 0.090102844 -0.020806951 -0.10697531
000180 8e c9 ae bd 81 c1 56 3e b4 5e e8 bd 86 27 6a be
       -0.08534537 0.20972253 -0.11346188 -0.2286664
000190 03 01 03 3e db 4c 99 3e 96 5b a5 be 3f 89 91 be
       0.12793355 0.2994145 -0.32296437 -0.28425023
0001a0 71 2e 8a 3e 30 bc c5 3d 3f 7a a5 be f2 0a a5 3d
       0.26988557 0.096550345 -0.3231983 0.08058728
0001b0 de 90 81 bd d8 9d a1 be 83 82 d7 bd b6 d2 1c bd
       -0.06326459 -0.31565738 -0.1052294 -0.038286887
0001c0 3e d7 17 3c 3e 81 ea bd 50 8b 19 3e 73 29 3f 3e
       0.009267626 -0.11450432 0.1499455 0.18668155
0001d0 a1 f7 2d 3e dd 93 39 be 6e de 6b 3e d4 6c 19 3e
       0.16988994 -0.18122812 0.23034069 0.14982921
0001e0 f1 93 a4 bd 39 92 90 3d 3a d5 48 bd 42 08 b7 bd
       -0.0803603 0.0705914 -0.049031474 -0.08937122
0001f0 c3 a6 10 be 3f f5 4d 3e 39 e6 2c 3e a5 c6 0b bd
       -0.14126115 0.20113085 0.16884698 -0.03412499
000200 88 c7 84 bd f6 41 c8 3d 04 a5 b6 3d 87 21 6e 3d
       -0.0648337 0.09778206 0.08918193 0.058137443
000210 0b 57 d0 3d b7 f6 4d be 47 9e 73 3e d5 b2 ca 3e
       0.10172852 -0.20113645 0.23790847 0.39589563
000220 be fe e7 be fa 92 c3 be 8b df 82 be 8d de 9e 3d
       -0.4531154 -0.38198072 -0.25561175 0.07757292
000230 53 f1 d3 bd 45 1f e7 3c 5a f4 41 be 7c 7d 03 bd
       -0.10348763 0.028213153 -0.18940869 -0.032102093
000240 fd 72 d9 bc e3 99 f8 bd f1 80 7c 3e ce 40 82 3c
       -0.026544088 -0.121387266 0.24658562 0.015900042
000250 e5 54 8f bd ad 35 36 3e d3 ba c5 3e c3 a0 b1 be
       -0.06998614 0.17793913 0.38619098 -0.34692964
000260 ab ce 7a be 78 b2 97 bd 11 37 c7 bd 9e 70 75 be
       -0.244929 -0.07407087 -0.097273 -0.23968741
000270 aa 97 ad 3e d2 a5 72 be 43 85 92 3d 92 47 4e be
       0.33904773 -0.23696068 0.07154324 -0.2014449
000280 57 f7 63 3e 85 a7 25 3e 76 0e 94 be 05 55 48 3e
       0.22262321 0.16177185 -0.28917283 0.19563682
000290 6c 81 5f 3d 73 83 08 be 03 af be be 11 dc 0c be
       0.054566786 -0.13331394 -0.37242898 -0.13755824
0002a0 c4 54 68 3d 05 4f 13 be 58 be 09 3d 57 0e 4d 3e
       0.056721464 -0.14385612 0.03362879 0.20025001
0002b0 84 5a 79 be af e3 ab be d7 8c 3b 3e bc 39 2e 3e
       -0.24350935 -0.33572146 0.18315445 0.17014211
0002c0 3c fa 25 3d 03 fe c1 be 19 02 90 3e d9 b8 04 3e
       0.040521845 -0.37889108 0.281266 0.12961139
0002d0 b4 34 94 3e 7f 4f ab 3d e4 af ff 3d 0c 15 77 be
       0.2894646 0.08364772 0.1248472 -0.24129122
0002e0 47 45 6e 3d 2c 32 47 bc 37 9d 94 be 12 9b fc bd
       0.058171537 -0.012157958 -0.29026195 -0.12334265
0002f0 7a 74 a6 3e b3 c6 80 3e b9 bb 72 be 5d e5 92 be
       0.3251074 0.25151595 -0.23704423 -0.28690615

conv1.bias f4 [16]
000000 69 11 16 3e ef de 4b bf 1c ce 3f 3f 5e b9 33 bd
       0.14655079 -0.79637045 0.7492387 -0.04387795
000010 58 29 5d be c8 db da 3e 74 8d 00 3f a1 30 3b be
       -0.21597803 0.42745805 0.5021584 -0.18280269
000020 e0 f5 da be e5 e0 a5 be 17 a7 34 bf 82 59 ee 3e
       -0.42765713 -0.32398143 -0.7056746 0.46552664
000030 cc 73 8c 3e 4d 8b bf bd ee e2 b1 3d 24 68 c9 3e
       0.27432096 -0.093527414 0.086858615 0.39337265

conv2.weight f4 [32, 16, 2, 2]
000000 d7 e4 01 3e 98 6f 15 bd 9f 29 42 3d 17 b1 87 bc
       0.12684952 -0.036483377 0.047402974 -0.016563935
000010 64 88 fd bc 8f 2f bf bd 25 1f 2a 3e ab a1 0c be
       -0.030948825 -0.09335243 0.16613443 -0.13733546
000020 1b b4 e0 bd ca 41 b9 bc cf 32 7d bd aa e3 4a be
       -0.109718524 -0.022614378 -0.061816033 -0.1981341
000030 ca a5 38 3d 67 fc 04 3e f1 2a 35 bd e6 19 a5 bd
       0.045079984 0.12986909 -0.044230405 -0.0806158
000040 6e df b8 bd 1c ad 55 be 5d 5d 57 3e 46 8f 96 be
       -0.09026991 -0.20866817 0.21031709 -0.29406184
000050 06 fe 2b be 7d f7 c6 bd 22 6a 3f bc f7 66 b2 be
       -0.16796121 -0.097151734 -0.011683019 -0.3484418
000060 35 99 b2 3d 19 a5 08 3e 14 75 82 3a 77 b8 c6 3d
       0.08720628 0.1334423 0.0009953105 0.097031526
000070 13 03 45 be 0e 81 00 bd 16 c0 40 be f9 78 88 bd
       -0.19239454 -0.031373076 -0.18823275 -0.06663699
000080 99 92 b2 bd b6 5e dc be 7b 32 22 be d9 89 04 bf
       -0.087193675 -0.4304101 -0.1583957 -0.5177284
000090 56 8f 04 3c a9 34 6a bd 1c 10 8d bc ba f6 39 be
       0.008090815 -0.057179127 -0.017219596 -0.18160525
0000a0 e7 fa 0f bd ef ff 33 be 04 70 ac 3d f9 5f 31 be
       -0.03515139 -0.175781 0.08419803 -0.17321767
0000b0 c4 de 6a ba 02 17 14 bd 8c b7 4b 3e 4b a4 93 bd
       -0.0008959586 -0.036154754 0.19894236 -0.07209071
0000c0 bb 01 2b 3e 33 1f 4d bc cd 94 ac bd 1a 33 72 3e
       0.16699879 -0.0125196455 -0.08426819 0.23652306
0000d0 dc 81 17 3e 7e 34 97 be 9f d5 48 be 2b ba ee bd
       0.14795631 -0.29532236 -0.1961274 -0.116566025
0000e0 a7 f3 89 bc e7 cb a2 3c 09 39 f2 3d 9b 01 7c 3c
       -0.016839815 0.019872619 0.11827285 0.015381242
0000f0 29 60 35 3e 45 ad 9e bd c3 1f 3d 3c df a7 f2 3d
       0.17712463 -0.07747892 0.011543217 0.11848425
000100 a3 9d 92 3d 8f b9 fd 3d e6 5c 8b 3c c2 af a0 be
       0.07158973 0.12388908 0.01701207 -0.31384093
000110 78 ce d1 bd 0e 37 8a bc 10 d6 63 be 95 14 32 be
       -0.10244459 -0.016871955 -0.22249627 -0.17390664
000120 ad 39 15 be 33 28 9b 3d 2c ae 05 bc c5 12 85 3d
       -0.14572783 0.07576027 -0.008159202 0.06497721
000130 57 ab 9f be a9 aa 24 3d 2c 14 33 be 95 d6 ae 3b
       -0.3118541 0.040201817 -0.17488164 0.0053356388
000140 46 20 4b be b2 db 5c 3d 3a 1b b3 be 20 dd 55 be
       -0.1983653 0.053920455 -0.3498171 -0.20885134
000150 80 8f 97 3e 9b 4c 04 3e 93 e4 2d be a7 65 44 be
       0.2960167 0.12919848 -0.16981725 -0.19179402
000160 4e ca a1 bd 06 8c 0d 3e ac 2c 83 bb 4c d1 13 be
       -0.07899915 0.13822946 -0.004003128 -0.14435309
000170 98 d0 79 be 92 b1 7c 3c d4 f8 57 be dc 6c 3c bc
       -0.24395978 0.015423195 -0.21091014 -0.0115005635
000180 08 87 9e be e1 30 0e 3e e2 9f 6b be e0 85 f1 3d
       -0.30962396 0.13885833 -0.23010209 0.11793113
000190 26 20 ca be b3 e1 7a 3e a2 c1 56 be 98 e6 16 be
       -0.39477652 0.2450016 -0.20972303 -0.14736402
0001a0 97 14 96 b9 8d bc 97 3d 69 e9 4a be 53 6b b9 3c
       -0.0002862557 0.0740901 -0.19815601 0.022634184
0001b0 c9 87 31 3e 92 28 ab 3a 24 a7 64 3b 75 98 87 be
       0.17336954 0.0013058356 0.0034889663 -0.26483503
0001c0 b4 ae 8d 3b 6d cb bb bc d9 f3 06 3b 2b ac fc bd
       0.0043238048 -0.02292415 0.0020592122 -0.12337526
0001d0 d4 ac b9 be dd 01 a5 bc ae 97 52 3d d4 3f 09 3e
       -0.3626467 -0.02014249 0.051414184 0.13403255
0001e0 16 44 4a be b9 f6 5e 3e 0a b5 71 be b6 88 d0 bd
       -0.19752535 0.21773805 -0.23604217 -0.101823255
0001f0 d9 49 93 bd d8 81 76 3e d7 16 e5 bd 07 3e 0d bd
       -0.0719182 0.24072969 -0.11185997 -0.034482982
000200 c9 ea d6 3d 45 aa a7 bd 37 de 3b 3d 79 07 20 3d
       0.104940005 -0.08186773 0.045866217 0.039069626
000210 77 18 b1 3d f2 29 1a be 42 53 f0 3d f6 eb 9c 3a
       0.086472444 -0.15055063 0.1173463 0.0011972177
000220 9e 56 c9 bd a5 72 65 bd b9 10 dc 3d ab c6 d0 bd
       -0.09830974 -0.056017537 0.10745377 -0.10194143
000230 2a 7e ee 3c 7f a0 c2 bd 81 b0 73 bc da 3d 30 bd
       0.029112894 -0.095032685 -0.014873625 -0.043027736
000240 a4 b9 00 3e 77 5f f7 3d ca 1b 20 be 65 fc 5e be
       0.12570816 0.12078755 -0.156356 -0.21775968
000250 da 0e 67 3b f7 58 0e be 0b e2 d7 3d 09 09 a8 3c
       0.0035256655 -0.13901125 0.10541161 0.02051212
000260 20 ad 71 bd 87 f5 21 3e 8e 86 70 be 49 91 ac be
       -0.059002995 0.15816317 -0.23488829 -0.33704594
000270 0f 2d 10 3c 7c 38 f3 3d ff 95 ec bd 44 9e 01 3c
       0.008799805 0.11876008 -0.11552047 0.007911269
000280 03 20 d4 bd e9 db 1c bd 2e 21 ea 3d 73 a6 24 bf
       -0.10357668 -0.03829566 0.1143211 -0.6431648
000290 df 56 3e bc 4e 01 0d ba 34 55 87 bd 21 51 ac bd
       -0.011617391 -0.00053789176 -0.06608048 -0.084139116
0002a0 65 86 07 bd ab a9 29 be de 17 9a 3d 33 ff 13 3b
       -0.033087153 -0.1656863 0.075240836 0.002258253
0002b0 a8 72 2a bd b8 96 c4 be 94 11 0b be cc 9c 42 be
       -0.04161325 -0.3839624 -0.13580924 -0.19005126
0002c0 2f 82 47 3d 27 72 67 3e f9 05 90 be bd 66 77 3d
       0.048708137 0.2260214 -0.28129557 0.060400713
0002d0 ad 26 f3 ba 03 ec 2a be 2c 5f b2 bd b0 33 2f be
       -0.0018550955 -0.16691594 -0.08709559 -0.17109561
0002e0 42 94 8e 3d 43 19 bb bc bf df d4 bd 67 25 6c be
       0.06961872 -0.022839194 -0.10394239 -0.23061143
0002f0 96 4c 93 3e 6b 0a f2 3d af dc 13 bd ed 3f 2b 3e
       0.28769368 0.11818393 -0.036099132 0.16723605
000300 14 c5 06 be be 17 e6 bd 86 32 d9 3d 6f 67 82 3d
       -0.13161117 -0.11234997 0.1060534 0.06367385
000310 f6 70 e9 3b b4 70 72 3d b8 47 0d be 1b b8 08 3e
       0.0071240617 0.059189513 -0.1379689 0.1335148
000320 6f 80 eb bd ce 22 10 bc 90 cf 31 3d 92 5c fb 3d
       -0.11499106 -0.008797361 0.043410838 0.12273516
000330 ab d2 de bd fa 17 8d bd dc 04 a5 3c 35 3e b2 3d
       -0.108800255 -0.06889339 0.020143919 0.08703271
000340 ff 96 01 be 3c 01 7a be 67 28 38 3e 93 49 84 be
       -0.12655257 -0.24414533 0.17984162 -0.25837383
000350 13 60 11 3d 98 e2 e6 bd 34 31 93 3d ea 7b 6b 3e
       0.035492014 -0.11273688 0.07187119 0.22996488
000360 8c 57 91 be 3c 8a 26 be c2 c1 99 bc 3b 21 b0 be
       -0.28387105 -0.1626367 -0.018769149 -0.34400353
000370 50 e8 4d bd f0 83 25 bb c3 95 9c 3d 74 2b b1 bd
       -0.05027038 -0.0025255643 0.07645752 -0.08650866
000380 b7 db e8 be 6e 79 93 be 32 7b 2f bb 7f dd 23 3e
       -0.4548013 -0.2880358 -0.002677631 0.16002463
000390 7a 92 61 3c 45 2f ef bd 8d 52 21 3c 3b 7b 21 bd
       0.013767833 -0.11678938 0.009846342 -0.039424162
0003a0 16 56 71 3d 2b 96 69 bd f1 44 7e bd c1 14 82 3d
       0.05891999 -0.057027977 -0.062077466 0.06351615
0003b0 7d bf bb 3e e4 45 9d ba 14 19 ac 3c fb 0c aa bb
       0.3666953 -0.0011998978 0.021008052 -0.0051895357
0003c0 fd 8a 77 bc 62 f6 19 be 80 0b 01 be c9 06 08 bd
       -0.015108821 -0.15035394 -0.12602043 -0.033209596
0003d0 d4 15 b5 be 56 e0 71 bd a9 35 47 be c5 cf 36 be
       -0.35368216 -0.059051834 -0.19454063 -0.17852695
0003e0 ba 4a ae 3e f9 98 68 3d 55 bd 2f bd 6f 34 40 3e
       0.34041387 0.05678651 -0.04290517 0.18770002
0003f0 79 5f a3 bd ec a7 05 3d e9 59 d6 3c 5e c1 a2 bd
       -0.07977194 0.032630846 0.02616592 -0.07947038

conv2.bias f4 [32]
000000 e5 4c c1 3e bf b2 cd 3e 02 bd 33 3e ef 32 3b be
       0.37753978 0.40175435 0.1755257 -0.18281148
000010 b1 94 b1 3d 17 9f c1 bd 52 78 91 3e 8f f2 9c be
       0.08670939 -0.09454172 0.2841211 -0.30653808
000020 7d 1e d5 bd 33 a8 da 3e 56 71 b2 3c e4 b8 37 3e
       -0.10406206 0.4270645 0.021782558 0.17941624
000030 e5 44 c3 3c bb eb e3 3c e2 68 88 be a2 3a b6 bd
       0.023836562 0.027822366 -0.2664252 -0.08897902
000040 03 16 98 3d 7c c8 3d be 0c 7c 1d be 07 27 69 3d
       0.074260734 -0.1853351 -0.15379351 0.056921985
000050 62 27 ae 3e 57 84 fe 3d a2 77 11 3e 3d 45 98 3e
       0.34014422 0.124275856 0.14205793 0.29740325
000060 75 e6 cc 3d c7 93 ae 3e 39 3f 27 3e 71 e2 55 3e
       0.10004894 0.3409712 0.16332711 0.20887162
000070 ce d9 de bc 3a 8c 10 3e 3c a4 d5 3e 76 c1 94 be
       -0.027203467 0.14115992 0.41726863 -0.2905385

linear1.weight f4 [16, 5]
000000 89 61 7c 3f bd 45 52 3e 61 59 a8 be 1a ef bf 3d
       0.98586327 0.20534416 -0.3288069 0.09371777
000010 d0 9e 36 bd 2d f5 b4 3e 0a 01 68 bd 55 bd 0a be
       -0.04458505 0.35343304 -0.056641616 -0.13548787
000020 60 4a 80 3e b4 6e 08 be 8c f7 99 3e e5 b9 b6 3d
       0.25056744 -0.1332348 0.30071676 0.08922175
000030 36 fd c6 3e e4 a9 7d 3e 92 01 84 bd e0 14 e8 3e
       0.3886506 0.2477184 -0.06445612 0.45328426
000040 99 69 06 3f 32 44 b9 bc aa 77 32 3f 1b 60 2d 3f
       0.5250488 -0.022615526 0.6971384 0.6772477
000050 a5 b7 28 3e dd c4 17 3c 89 75 58 3e a6 7d 55 3e
       0.16476305 0.009263244 0.21138586 0.20848712
000060 38 ab c1 3e 6d 8d 49 3f a3 e0 e3 bf d7 75 a7 be
       0.37825942 0.78731424 -1.7802929 -0.32707092
000070 41 ce a2 3e 77 a2 af be 2e 44 32 bf d7 b9 e9 bf
       0.31797984 -0.34303638 -0.69635284 -1.8259839
000080 2f e8 04 be 7f cb 9d bf 6c 21 7b 3e 09 b9 22 bf
       -0.12979196 -1.2327727 0.24524468 -0.6356359
000090 92 1c 02 c0 0d 44 bd 3e b1 66 8e bf 7b ea 59 3e
       -2.0329938 0.3696598 -1.1125089 0.21280853
0000a0 d6 ac c7 3d 7d 47 98 3e 0e ef 62 3b 09 bd 17 bd
       0.09749763 0.2974204 0.003462735 -0.037045512
0000b0 0b 3f 7a bd d5 85 94 bf 6b 45 4b bd e1 20 51 bd
       -0.06109528 -1.1603342 -0.04962675 -0.051056746
0000c0 0a e0 05 40 48 a6 d8 bc b1 39 d6 3e 8d 78 91 bd
       2.0917993 -0.026446477 0.4184089 -0.07103071
0000d0 60 6b 61 be ba 29 fe 3d 49 d7 54 3e d4 4f d5 3e
       -0.22013617 0.124103025 0.2078525 0.41662467
0000e0 90 86 db bd df fe de bd 4d 83 3a 3e 76 fd 65 be
       -0.10719025 -0.108884566 0.1821415 -0.22459969
0000f0 c4 9d 68 bf 7c ba ea bf 62 2f 10 be 1e 42 bf bf
       -0.9086573 -1.833816 -0.14080575 -1.4942052
000100 98 12 84 bd ee e4 91 3e d5 c6 f5 bb 46 66 f2 3b
       -0.06448859 0.28494972 -0.0075005093 0.007397446
000110 b7 29 97 be fa 5f be 3d 7d 1d 3c 3f 62 3b 29 3e
       -0.29524013 0.0929565 0.73482496 0.16526559
000120 14 31 7c be 68 27 d2 3c 21 91 3d 3e c8 f7 16 3e
       -0.24628097 0.025653556 0.18512394 0.14742959
000130 43 0c ec 3e 46 f5 26 3d 90 d8 0d 3f cc f0 d1 3e
       0.46103105 0.040761255 0.55408573 0.41004026

linear1.bias f4 [16]
000000 2b 00 1e 3e b4 cd 5d 3f a0 ea 8d 3f 4f 3b 8a be
       0.15429752 0.86642003 1.1087227 -0.26998374
000010 42 9d 4d 3f 65 41 75 bd 26 85 7d 3d 90 f2 02 be
       0.8031808 -0.05987682 0.06189456 -0.12787843
000020 25 6d 7b 3f fb 2b 10 3e 04 7e 9b 3f d6 22 93 3f
       0.98213416 0.14079277 1.2147832 1.1495006
000030 0b 78 a6 3e 5e cd 87 3f 45 24 13 3e 2a 7e 89 3f
       0.3251346 1.0609548 0.14369304 1.0741627

linear2.weight f4 [16, 16]
000000 a2 0e 9e be 30 e2 9b be e3 7a 01 bf d6 c8 b5 be
       -0.3087054 -0.30446005 -0.50578135 -0.35504788
000010 b3 02 5e bf db c8 d4 3f f9 45 55 3f 9b 99 6a 3f
       -0.8672287 1.6623796 0.83309895 0.91640633
000020 1a 9f 52 bf 80 f7 0d 3e 9e 95 62 be 45 77 1b 3d
       -0.8227402 0.13863945 -0.22127387 0.03795554
000030 f0 93 81 3f 72 e1 23 bf f5 99 4c 3c 10 6f 5b bf
       1.0123272 -0.6401588 0.012487878 -0.8571634
000040 57 61 18 3f ad f3 18 3f bc d4 89 3e 8b 8a 62 bf
       0.5952353 0.5974682 0.26920116 -0.8849265
000050 75 44 06 3f 0e 13 63 3f 21 b0 2c bf 80 29 b2 be
       0.5244821 0.8870095 -0.6745625 -0.34797287
000060 e3 eb c9 3e 8e 84 6f 3f 93 85 2e 3f 3c 6e 9f 3e
       0.3943778 0.9356164 0.6817257 0.3113879
000070 9d a0 41 be 0b 2e 12 3f 4c 6e 23 3f a0 3e 00 3f
       -0.18908925 0.57101506 0.63840175 0.5009556
000080 30 65 d6 bc a8 03 01 3e e9 68 42 be 1c 1b d0 bd
       -0.026171297 0.12599051 -0.18985333 -0.10161421
000090 92 92 13 3d fe 61 00 be f0 ae 00 3e 07 bf 47 3e
       0.036028452 -0.12537381 0.12566733 0.19506465
0000a0 20 54 83 bd b1 6c a6 bd e9 ba 85 be f6 29 a3 3d
       -0.0641253 -0.081262 -0.26119164 0.07966988
0000b0 da 2b 71 be dc 90 59 bd 2c 57 4a be a0 f6 67 bd
       -0.23551884 -0.053116664 -0.19759816 -0.056631684
0000c0 08 fe dd 3e 00 e7 ae 3e 04 16 a5 3e 9f 24 67 bf
       0.43357873 0.34160614 0.3224336 -0.90290254
0000d0 5d 43 25 3f c9 79 41 3f b0 cc c1 be e2 3d e9 be
       0.64555913 0.75576454 -0.37851477 -0.45555025
0000e0 cd cc 0d 3f 1d 3d 8b 3f 24 a4 2f 3f 9f 7e 01 3f
       0.55390626 1.0878025 0.68609834 0.50583833
0000f0 ff 9a 13 bf e3 2e 4d 3f 05 ea 0b 3f 73 c0 d5 3e
       -0.5765838 0.8014967 0.5465396 0.4174839
000100 6f 6c 02 3d 55 c2 f4 3e 9b ee 17 3f 20 da 7f bf
       0.03184169 0.47804514 0.5934846 -0.9994221
000110 3d fa 24 3e 13 7e 0d 3f 4a 12 10 bf 14 f1 26 bf
       0.16111083 0.552705 -0.56277907 -0.65211606
000120 31 39 2c 3f ec 9a 90 3f a4 ab d9 3e 59 10 f8 3e
       0.6727477 1.1297278 0.42513764 0.48449972
000130 33 6b 30 be e9 ca db 3e 9e 02 ff 3e ea 8f 45 3e
       -0.17228393 0.42928246 0.49806684 0.1929318
000140 4f 94 8d 3e 98 53 3c 3e 5e 15 92 3e 46 88 4c bf
       0.27652213 0.18391263 0.28531927 -0.79895437
000150 ac 55 f3 3e bb 48 0a 3f b4 a4 a4 be ed 22 fb be
       0.475263 0.5401723 -0.3215691 -0.49050084
000160 bd 13 42 3f b4 c0 96 3f 92 fa 2b 3f 97 a2 e0 3e
       0.7581137 1.1777558 0.67179215 0.43874046
000170 22 02 05 bf 11 57 d0 3e 90 08 44 3e b8 f3 15 3f
       -0.5195638 0.40691426 0.19143891 0.5857501
000180 b4 bb 0b 3f fe f6 a9 3e 43 3b 10 3f 11 3e 71 bf
       0.5458329 0.33196253 0.56340426 -0.9423533
000190 45 b5 78 3e bf ca e1 3e 68 66 28 bf db a8 b2 be
       0.24287899 0.44099995 -0.6578126 -0.34894451
0001a0 4e ee 2c 3f 52 af 79 3f dc b8 be 3e 17 e3 a3 3e
       0.67551124 0.9753314 0.37250412 0.32009193
0001b0 de 23 b1 be d3 f6 b7 3e b2 da fb 3e 70 f6 a2 3e
       -0.34597677 0.359305 0.4919029 0.31828642
0001c0 e9 e1 92 bd c0 8c 1d be c5 13 40 bf cc 04 98 be
       -0.07171995 -0.15385723 -0.75030166 -0.2969116
0001d0 9f f6 a2 be 4f 12 e5 3f 8c 86 49 3f 2e 66 86 3f
       -0.31828782 1.7896212 0.7872093 1.0499933
0001e0 e8 2d 6e bf a1 7b 0b be be 84 6e 3d 11 7a df 3d
       -0.930388 -0.1362138 0.05823206 0.10911954
0001f0 5d c9 65 3f 1b fa e0 be b6 88 15 3d e5 46 88 bf
       0.8976038 -0.43940815 0.03650733 -1.0646635
000200 9f 8a 38 3f a2 d6 23 3f 80 aa c5 3e fa 35 68 bf
       0.7208652 0.6399938 0.38606644 -0.9070736
000210 2f d8 1d 3f 7a fe 00 3f 85 3e 8d be 75 1d fa be
       0.61657995 0.503883 -0.2758676 -0.488506
000220 71 2c 19 3f bd 24 99 3f e3 98 0d 3f 3e ea 1a 3f
       0.5983344 1.1964337 0.5531141 0.60513675
000230 82 93 17 bf 97 58 0d 3f 3f c3 d2 3e 68 a4 1d 3f
       -0.59209454 0.552133 0.41164586 0.6157899
000240 f9 bb 19 3f fb 19 c7 3e a6 d2 1c 3f 12 1b 38 bf
       0.6005245 0.3888701 0.61258924 -0.71916306
000250 1f 70 0c 3f c1 57 17 3f 3a 98 56 be ea bc 1d bf
       0.54858583 0.59118277 -0.20956507 -0.61616385
000260 30 80 ad 3e c2 31 ab 3f 8d 51 1d 3f 60 99 a1 3e
       0.33886862 1.337456 0.6145256 0.31562328
000270 fd 10 17 bf 8e c3 e0 3e e3 3b e4 3e 4a d6 f5 3e
       -0.590103 0.43899196 0.4457694 0.48015052
000280 80 25 f1 3b 08 99 5c be e0 ec 8f bd 86 fa 7a be
       0.0073592067 -0.21542752 -0.07027602 -0.2450963
000290 5a 7c 4f be 34 53 de 3d 89 2f 87 bd 3f 70 1c 3e
       -0.2026228 0.108557135 -0.066008635 0.15277193
0002a0 d3 8f cb bd 6b d3 65 3c 70 e9 88 bd 76 52 02 be
       -0.09939542 0.014027457 -0.0668515 -0.12726769
0002b0 97 d3 32 ba ca 9a ca 3d b0 74 fc 3c ff 61 a6 bc
       -0.00068216905 0.09892805 0.03081736 -0.0203104
0002c0 ac 01 f0 3e 6c 96 09 3f e7 5c 15 3f 69 ae 2a bf
       0.46876276 0.5374515 0.5834488 -0.6667238
0002d0 4a 4b b0 3e bc ef 10 3f f2 92 be be 2f ea 3e bf
       0.3443244 0.56615806 -0.37221485 -0.74576086
0002e0 b0 64 0e 3f 99 e4 82 3f cc f0 29 3f da fe 22 3f
       0.55622387 1.0226012 0.6638305 0.6367012
0002f0 2b 23 ad be f9 05 2d 3f 89 24 b6 3e 51 36 28 3f
       -0.33815894 0.6758724 0.3557475 0.6570788
000300 f3 3f 5d 3e 36 8c 08 3f 97 6f 31 3f 2f c6 5a bf
       0.21606426 0.53338945 0.693109 -0.85458654
000310 b9 d5 c4 3e ac c5 f3 3e 31 bf 99 be 19 e3 03 bf
       0.38444307 0.4761175 -0.3002868 -0.515184
000320 69 3c c4 3e 25 33 9c 3f 1b 5c 30 3f e7 89 0d 3f
       0.3832734 1.2203108 0.6889054 0.5528855
000330 28 61 03 bf eb b8 32 3f 56 0b fa 3e 28 17 9c 3e
       -0.51320124 0.6981341 0.48836774 0.30486417
000340 e7 87 08 3f 14 27 89 3e 34 47 17 3f 2f 9b 6c bf
       0.5333237 0.26787627 0.5909302 -0.9242429
000350 03 02 0d 3f 64 fa 3a 3f cf 63 0c bf b8 83 ca be
       0.55081195 0.73038316 -0.54839796 -0.39553618
000360 53 c2 43 3f 8f 71 92 3f 01 fc 31 3f 1c db 31 3f
       0.7646839 1.1440905 0.6952515 0.6947496
000370 34 52 e5 be 55 e2 31 3f 5f 8d dc 3e 4f bd 03 3f
       -0.44789279 0.6948598 0.43076608 0.51460737
000380 a0 62 43 be 25 ca fd be 93 44 44 bf 01 c0 d8 3d
       -0.19080591 -0.49568287 -0.76667136 0.10583497
000390 bd 83 7b bf a5 85 99 be 05 59 05 3f 47 e0 64 3f
       -0.9824789 -0.29984775 0.5208896 0.8940472
0003a0 f3 6a 55 bf 9f 07 8e 3e dd 56 20 bf 7d f3 01 be
       -0.83366317 0.2774019 -0.6263254 -0.1269054
0003b0 80 61 53 3f 25 36 25 bf 3e c1 4b be 3d 57 86 bf
       0.8257065 -0.64535743 -0.19897935 -1.0495373
0003c0 ea 2c ad bd c8 14 da be 91 34 1f bf bf 1c 8f be
       -0.08455832 -0.4259398 -0.62189585 -0.2795162
0003d0 ef 31 47 bf fe d6 b6 bd aa cc 23 3f 6f 12 5c 3f
       -0.7781057 -0.08927725 0.6398417 0.8596563
0003e0 4d 9b 31 bf c5 b6 e8 3e f5 d4 34 bf c7 92 eb bd
       -0.69377595 0.45451942 -0.70637447 -0.11502605
0003f0 40 09 2f 3f 7a 9c 14 bf 42 77 27 3e 37 f3 a0 bf
       0.6837349 -0.58051264 0.16354087 -1.2574223

linear2.bias f4 [16]
000000 7f 2b ec 3b 2a 22 fe 3e c2 4f 3d be f2 97 42 3f
       0.0072073336 0.4963544 -0.18487456 0.760131
000010 3a b6 d4 3e db 0f fe 3e ce 14 34 3f 00 3c 5b 3e
       0.41545278 0.49621472 0.70344245 0.21409607
000020 a8 63 0b 3f 12 58 03 3f fd c7 57 be d6 aa 41 3f
       0.5444894 0.5130626 -0.21072383 0.756513
000030 c4 a4 e7 3e b7 e9 08 3f 31 36 77 3e 92 37 c0 bd
       0.45242894 0.5348162 0.24141766 -0.09385599

fc1.weight f4 [30, 512]
000000 76 55 13 3d 10 61 9d bc 3d 50 ae bd 34 99 81 bd
       0.035970174 -0.019211322 -0.08511398 -0.06328049
000010 68 96 7b 3d 0b 9f a3 3e f0 20 90 bb 6a 4b 67 bd
       0.061422735 0.31957278 -0.0043984577 -0.056468405
000020 ec 96 0a bd 3f 22 8f bd 09 ea a3 bd bd ee 99 bc
       -0.033835337 -0.06988954 -0.08003623 -0.018790597
000030 70 5c 62 bd 04 2b 4b 3c bf 21 00 bd 3a 2b 53 bd
       -0.055263937 0.012400392 -0.031282183 -0.051554896
000040 a2 5b ac bc 24 7f 09 3e 95 33 34 be fa 2f 97 bd
       -0.021039788 0.13427407 -0.17597802 -0.07382198
000050 0f 02 b0 bc 71 3f 1b bd 98 a2 ec bd 69 4d dc 3e
       -0.021485357 -0.0379023 -0.1155445 0.4302781
000060 51 53 30 bd 10 57 9e be ae f9 07 3d 6b d1 14 3e
       -0.043048207 -0.30925798 0.033197097 0.14533012
000070 fb c2 95 3d e8 75 f5 3d 9c 57 e8 bd 0a 9e 6a bb
       0.0731258 0.119853795 -0.11344835 -0.0035799765
000080 4e 0f 5e bd ad 42 af bc 8f f0 7c bb 48 2e cb 3c
       -0.054213814 -0.021394098 -0.0038595533 0.024802342
000090 e6 86 43 3c 5a 02 0b 3e 0a 22 10 3e 58 01 5c 3d
       0.011934018 0.13575116 0.14075485 0.05371222
0000a0 c9 97 e8 bc 28 8d a8 bc a5 27 cc 3b ae 41 82 bc
       -0.02839269 -0.020575121 0.006230312 -0.01590046
0000b0 40 07 8b bd c4 a2 c8 bc 8b 4a 05 be ec 6d 13 3d
       -0.06788492 -0.024491675 -0.13016717 0.0359935
0000c0 5b 3e 81 bd f7 90 18 3e 47 bf 82 3d 02 ae b7 3c
       -0.063107215 0.1489905 0.063841395 0.02242184
0000d0 12 ac f7 3c 3d d3 e7 3b b7 f9 02 3c e1 dd fb bd
       0.030233417 0.007074742 0.007994107 -0.122981794
0000e0 82 55 8d 3d 8e 22 a4 bd b5 29 65 bd b1 2f 81 3c
       0.06901075 -0.08014403 -0.055947978 0.015769811
0000f0 33 ce 6b bc 68 68 ca 3a 7b 52 fc 3d a6 20 ef bc
       -0.014392423 0.0015442492 0.123204194 -0.029190373
000100 67 cd 21 3c 76 23 93 3c 92 84 81 bd f4 eb ad 3c
       0.009875632 0.017961245 -0.06324114 0.021230675
000110 0a c7 88 3d af 7b 0d bd 28 f3 90 bd 8c 87 d6 bd
       0.06678589 -0.034541782 -0.070776284 -0.10475072
000120 44 a7 22 3c 1c 5d d0 3d 27 3f b1 3c 16 a9 88 3d
       0.009927575 0.10174009 0.021636559 0.066728756
000130 e0 03 09 bd 89 3e d6 bd b6 25 d7 3c 2e 07 89 3d
       -0.03345096 -0.104611464 0.0262631 0.066908225
000140 73 5c 00 3e a5 fa 5c 3e f8 3b ea bd c1 a4 31 3d
       0.12535267 0.21579988 -0.114372194 0.043370012
000150 01 ac 89 be 62 b6 d4 3e 72 0b 51 be 2a 00 42 be
       -0.2688904 0.41545397 -0.20414522 -0.18945375
000160 71 f9 3c bc fa c6 70 3d 41 54 67 be b0 d3 86 be
       -0.011534081 0.05878351 -0.22590734 -0.2633338
000170 57 6e 76 be b1 f0 a6 3e 1c 96 52 be 0d 1f 40 be
       -0.24065529 0.32605508 -0.20565075 -0.18761845
000180 d3 76 8f 3d d6 01 41 be cc a0 04 3e 7c f7 cb 3c
       0.07005086 -0.18848357 0.12951964 0.024898283
000190 ae 83 ad bc 2f d3 c4 bc 5e e8 22 be 5b 40 cc bd
       -0.021180954 -0.024026481 -0.15908954 -0.09973212
0001a0 10 1b 13 3d 68 0b e3 3b 57 15 0d 3e 91 b4 70 3d
       0.03591448 0.00692885 0.13777672 0.05876595
0001b0 51 74 76 3d 85 4a c2 bd 10 58 92 bc ec be 83 3d
       0.06016952 -0.0948687 -0.017864257 0.064329
0001c0 4f ca 17 bd 90 b3 0e 3e ee 02 87 3c 35 f0 ff bb
       -0.03705817 0.13935685 0.01648089 -0.0078106173
0001d0 b2 48 56 bd bf ec 11 3d 0f db 23 3e 61 aa 38 bd
       -0.05231542 0.03562617 0.16001533 -0.04508436
0001e0 8f 96 86 3c a3 6f a5 bd 03 19 9a bd b0 4a 8e 3d
       0.016429214 -0.08077934 -0.07524302 0.06947839
0001f0 a9 4f 8f 3d 06 e2 54 bc 1c 37 4c 3d 4a 8f af bd
       0.06997616 -0.012993341 0.049857244 -0.08572252
000200 20 86 e0 3d 89 93 10 3e 47 a1 26 be 6f 85 a6 bc
       0.10963082 0.1411878 -0.1627246 -0.020327298
000210 f3 33 1d be 54 de f1 bd 5c 51 3e 3d 9c 35 9a bd
       -0.15351848 -0.11809984 0.04646431 -0.075297564
000220 f7 2b a9 3d ac 7d 56 bd f8 ad a2 bc 91 0e e4 bd
       0.08260339 -0.052365944 -0.019858345 -0.11135591
000230 d9 e3 33 3d 87 08 7d bc 9e ff b3 3c ba c9 14 be
       0.043918464 -0.015443928 0.021972474 -0.14530078
000240 86 e4 43 bc 29 ea ab bc d5 77 8e bd 9f 9a 6b bc
       -0.01195634 -0.02098568 -0.0695645 -0.014380126
000250 50 53 40 bd ab 23 dd bd 8d fe 1b bd 66 11 82 3d
       -0.046954453 -0.10797819 -0.038084555 0.06350975
000260 37 0d 8c b9 a1 93 da bc d5 e2 a8 3e 8b 0e ed 3c
       -0.00026712727 -0.026681723 0.3298556 0.028937599
000270 9c 7f 99 3d 33 44 01 3d 17 02 a8 3b 3a ca e1 bd
       0.07495043 0.03155918 0.0051272023 -0.110249
000280 01 81 11 3d 96 dd 42 3c 24 2d 87 3d 13 ef 2a 3e
       0.03552342 0.0118936505 0.06600407 0.16692762
000290 68 8f 53 bd 5f 44 cc bd 07 e0 80 bd 66 1c a2 bc
       -0.051650435 -0.09973978 -0.0629273 -0.019788932
0002a0 27 3f b0 bc d7 ac dd 3d 27 92 2b be 5e 66 a6 bd
       -0.021514488 0.10823982 -0.16754971 -0.08124994
0002b0 54 81 32 3b 59 a9 e8 ba 80 28 a4 3d 10 44 60 bd
       0.002723773 -0.0017750665 0.08015537 -0.05475241
0002c0 fe 22 13 bd 20 84 b8 bc 56 24 ec bb 69 91 ec bd
       -0.035922043 -0.02252394 -0.00720648 -0.11551172
0002d0 c5 a1 02 3e 97 0f fe bd d9 c1 62 3e 0a 48 c6 3b
       0.12757023 -0.12405317 0.2214426 0.006051068
0002e0 9e b7 f1 3d 3a 17 cd 3d d2 4c f5 3c 0b 5b 87 3d
       0.118026 0.10014196 0.029943857 0.06609162
0002f0 23 7c a0 3d 8e 82 3a be cc 33 b3 bd 9e 82 e7 3c
       0.07836177 -0.18213865 -0.08750114 0.028260525
000300 9f 46 02 3e 09 db 71 bd 72 3d d4 3d 56 ee c4 3d
       0.12722252 -0.05904678 0.10363282 0.096157715
000310 dc f1 18 bd 34 0d f2 bc d0 7a 1a be 75 0a 06 bd
       -0.03734003 -0.029547311 -0.15085912 -0.032724816
000320 7a e0 00 3d 3c 6d ad bd 04 55 02 bb e9 c3 01 ba
       0.031464078 -0.084681004 -0.00198871 -0.00049501524
000330 6e 48 ed 3c 44 43 f4 3c 5e 91 fa bd 46 f4 c7 3b
       0.028965201 0.029817231 -0.12234758 0.0061021177
000340 fd 1f 33 3e 6d ca a6 bd 13 4d 15 be 3e 44 c6 bd
       0.17492671 -0.081440784 -0.14580183 -0.09680985
000350 f5 81 45 3e 8b 1f 3c 3e 79 12 4e bd 85 fa 80 3d
       0.19287856 0.18371408 -0.050310586 0.06297783
000360 3d 43 dc 3d 70 44 3a 3e 75 e1 5e bd f4 2a bd 3c
       0.10755012 0.1819017 -0.05441423 0.02309177
000370 ca 69 13 3d 83 f6 2b bd 7a 51 15 3c a0 35 0f bd
       0.03598956 -0.04198314 0.009113664 -0.03496325
000380 5c a2 ac bd 1b 69 92 3e 60 51 1e be 3f 2f 2d bc
       -0.08429405 0.28595814 -0.1546073 -0.010570346
000390 2c 4c 23 3d 76 f1 71 3e 5d 63 8c bc d4 85 37 3b
       0.039867565 0.23627266 -0.017137224 0.0028003352
0003a0 45 fb ab bd 61 aa 19 3d 03 81 13 be e2 6d 17 bd
       -0.08397535 0.037516 -0.14404683 -0.036970027
0003b0 2f 26 28 bd f5 8d b0 bd 4c e5 38 3e cf 76 bd 3d
       -0.04105204 -0.08620826 0.1805622 0.092511766
0003c0 84 0a b2 bd 99 2a de 3c 64 c4 d5 bd 73 0f d6 bc
       -0.08693412 0.027119922 -0.10437849 -0.026130414
0003d0 66 80 e6 3c f2 93 75 3d 59 7f da 3d 1e c0 79 be
       0.028137397 0.059955545 0.10668821 -0.24389693
0003e0 34 4e a4 3e 02 30 48 3e fb de 9e 3d 95 28 0b bd
       0.32090914 0.19549564 0.07757374 -0.03397425
0003f0 01 d0 01 3e b4 5c 53 3e b2 8f a3 be 5f d7 e0 bb
       0.12677003 0.20640832 -0.31945568 -0.0068616117

fc1.bias f4 [30]
000000 82 ba 4f 3e da 09 63 be 08 d6 39 be f4 54 52 be
       0.20285991 -0.22171727 -0.18148053 -0.2054022
000010 9c c0 45 3b 44 00 e1 3d 1a 8a 49 be 0d 11 7a be
       0.0030174619 0.10986379 -0.19681588 -0.24420567
000020 7b 8b 13 3e 9d 21 3b 3e cc a4 7c 3e 78 49 6a 3e
       0.14408676 0.18274541 0.2467224 0.22879589
000030 94 be 00 be 35 f8 41 be 15 4d 30 3e 85 4b 6d be
       -0.125727 -0.1894234 0.17216904 -0.2317334
000040 5c d9 e5 bd ce a9 68 3e e3 9c 3b 3e ee 42 5c be
       -0.11223099 0.22721025 0.18321566 -0.21509907
000050 72 17 68 3e 98 d6 35 3e a7 46 38 3e 0a 9f 5b 3e
       0.22665194 0.17757642 0.17995702 0.21447387
000060 a9 6e 0e 3e 6a b2 ed 3d b6 ad d4 bd f1 d1 ff 3d
       0.13909401 0.116062954 -0.10384695 0.12491215
000070 7c d4 5d 3e f5 0c 23 be
       0.21663088 -0.15922911

fc2.weight f4 [1, 46]
000000 90 95 83 3d 4a 0f 65 bd 25 c9 dd bc 27 6b ea bc
       0.06425011 -0.055922784 -0.027073452 -0.028615547
000010 4e 54 20 ba 2e 39 9d 3b 9a 4c 3a bc de c6 d1 bd
       -0.0006116078 0.004798076 -0.011370802 -0.10243009
000020 5f 1d c3 bb b9 fb be 3a 19 10 82 3d 00 04 a9 3c
       -0.005954429 0.0014570869 0.06350727 0.02063179
000030 e2 5b 99 bb 78 5a 65 bc 71 22 2e 3c 2e db 1f bc
       -0.0046801427 -0.01399862 0.010628329 -0.009756846
000040 3f 7e 29 ba 9f c2 10 3c dd 43 ef 3c 90 72 99 bc
       -0.00064656505 0.008835464 0.029207164 -0.018731385
000050 b5 75 b4 3d 39 2c 23 bb 46 e1 ba 3c d2 8c 0e 3d
       0.08811513 -0.0024898185 0.022812497 0.034802265
000060 ba 1a 8c bb 88 3d 76 bb 08 f3 78 bb 25 5f 9b bb
       -0.004275647 -0.0037573297 -0.0037986655 -0.0047415667
000070 a6 91 93 3c b8 82 51 b9 4c 61 96 bf 99 6f 3e 3f
       0.018013787 -0.0001998049 -1.1748443 0.74389035
000080 f2 4c 8d 3d 47 df 2a 3f ce 5b 17 3f 05 9e 52 3f
       0.06899442 0.66746944 0.5912446 0.8227237
000090 19 d8 25 3f f8 18 bb bf 0a 29 27 3f cf ca 23 3f
       0.64782864 -1.4616995 0.65296996 0.63981336
0000a0 e3 49 21 3d a0 56 00 3f 17 96 50 3f 52 42 39 3f
       0.039377104 0.5013218 0.8147902 0.7236682
0000b0 3f 10 b3 bf de e7 b7 bf
       -1.3989333 -1.4367635
