paramveer_singh/model_checkpoints/MultimodalNN.ckpt (torch, 76610 bytes, 11 tensors)

conv1.weight f4 [16, 3, 2, 2]
0	0xbe82c860	-0.255435
1	0xbe3680f7	-0.17822634
2	0x3ce8e7c7	0.028430833
3	0x3dc7307f	0.09726047
4	0xbdd81677	-0.1055116
5	0x3e98de89	0.2985728
6	0x3e7e08f3	0.24808101
7	0x3e94eaf5	0.29085508
8	0xbe7bd7b4	-0.24594003
9	0x3ce42ecf	0.027854351
10	0xbe6eac50	-0.2330792
11	0x3d47ecce	0.04880982
12	0x3e6bef26	0.23040447
13	0xbe8a7ed6	-0.27049893
14	0x3e72244b	0.23646657
15	0x3d93d562	0.07218434
16	0xbe70096f	-0.23441099
17	0x3e0549eb	0.13016479
18	0xbd91b811	-0.07115186
19	0xbe556660	-0.20839834
20	0x3e579d39	0.2105607
21	0xbde0abe1	-0.10970283
22	0x3db731c3	0.08945038
23	0x3e6515a7	0.22371541
24	0xbcb4ac5c	-0.022054844
25	0xbe90587b	-0.28192505
26	0xbe446e14	-0.19182616
27	0x3e2e2af1	0.17008568
28	0xbe52fa44	-0.20603281
29	0x3e029e7e	0.12755772
30	0xbe6cc04c	-0.2312023
31	0x3e9d0f69	0.3067582
32	0x3da0421c	0.07825109
33	0xbe98a9ad	-0.29816952
34	0x3d167243	0.036730062
35	0xbdfe2727	-0.124098115
36	0xbe70c6fa	-0.23513404
37	0xbe5a37fd	-0.2131042
38	0xbe5dd99e	-0.21665046
39	0xbd57bd0a	-0.052670516
40	0xbdfe6120	-0.12420869
41	0x3e6ac3ea	0.22926298
42	0xbd0aa2d1	-0.03384668
43	0x3dc15ccc	0.09441528
44	0xbdcd1d7a	-0.10015388
45	0xbe8c5447	-0.2740805
46	0xbea82ba3	-0.32845792
47	0xbdcfb0b0	-0.10141122
48	0xbe3e2c16	-0.18571505
49	0xbe3609ea	-0.1777722
50	0x3e8c725e	0.27431005
51	0xbe7e44f6	-0.24830994
52	0x3e540a6f	0.20707105
53	0x3d083e6c	0.033262655
54	0xbdc866e4	-0.0978525
55	0xbd0a4e94	-0.033766344
56	0x3e4f1f7c	0.20226854
57	0x3e96cdb0	0.29453802
58	0xbd38db28	-0.04513088
59	0xbe4f6367	-0.20252763
60	0x3e800015	0.25000063
61	0xbe04af35	-0.12957461
62	0xbb9d2f4c	-0.004796898
63	0x3e106025	0.14099176
64	0x3c86f5df	0.016474662
65	0xbd40e7ba	-0.04709599
66	0xbdd6a2a5	-0.10480241
67	0xbe42ad84	-0.19011503
68	0xbd5a9254	-0.053362206
69	0xbd943fd5	-0.072387375
70	0x3e0fa6d1	0.14028479
71	0xbe167a2f	-0.14695047
72	0xbd34baaf	-0.044123348
73	0xbd3d629e	-0.046236627
74	0xbe8594e8	-0.2609017
75	0x3e550134	0.2080124
76	0x3e35823e	0.17725465
77	0x3e8a1c5c	0.2697476
78	0xbdfd65f1	-0.123729594
79	0x3e83ddf5	0.25755277
80	0x3786977e	1.6044589e-05
81	0xbe52fdf5	-0.2060469
82	0xbe58a504	-0.21156698
83	0xbe50f4d1	-0.2040589
84	0x3e8e4888	0.27789712
85	0xbe90b9cf	-0.2826676
86	0xbdd5b8b3	-0.10435619
87	0xbe5a5082	-0.21319774
88	0x3caae961	0.020863237
89	0x3e3d8a99	0.18509902
90	0x3d04f9ea	0.0324649
91	0x3dfe9d1d	0.12432311
92	0x3e310a7b	0.17289154
93	0x3e1bce63	0.15215449
94	0xbd86dc40	-0.06584978
95	0xbe01a43a	-0.12660304
96	0xbdca69be	-0.0988345
97	0x3d814c62	0.06313397
98	0xbc5fbc1f	-0.013655691
99	0xbe8d7e3c	-0.27635372
100	0x3e71bb09	0.23606504
101	0xbe25430c	-0.16138858
102	0x3dc4f6d8	0.09617394
103	0x3e67cdcd	0.226371
104	0x3e86dec1	0.26341823
105	0xbe5efd6d	-0.21776362
106	0x3c5ac7ab	0.013353269
107	0x3e80c1e6	0.25147933
108	0xbd1ea3be	-0.038730375
109	0x3e059dac	0.13048428
110	0xbe673d85	-0.22582062
111	0x3bb43f14	0.0055006836
112	0x3e9c54c3	0.30533418
113	0x3c625051	0.013813094
114	0xbdf85c2f	-0.121269576
115	0xbe349c51	-0.17637755
116	0xbde626b0	-0.11237848
117	0xbdc3250e	-0.09528552
118	0xbe6bb510	-0.23018289
119	0xbdf41e35	-0.11919824
120	0xbe887602	-0.26652533
121	0x3e9f2ca8	0.31088758
122	0xbe46cb74	-0.19413549
123	0xbddad730	-0.10685575
124	0xbe54cf9a	-0.20782319
125	0xbc135ad1	-0.00899382
126	0xbd9d156c	-0.076701015
127	0x3dc3b41f	0.0955584
128	0x3d482388	0.04886201
129	0x3deaa228	0.1145671
130	0xbe861d6f	-0.2619433
131	0xbdbe92ff	-0.09305381
132	0xbe3dfdaa	-0.18553796
133	0x3e7799ac	0.24179715
134	0xbe840a2a	-0.25789005
135	0x3e5f2d80	0.217947
136	0xbe56a1df	-0.20960186
137	0xbe6fe4ca	-0.2342712
138	0x3c07ed32	0.008296298
139	0x3e8de5ba	0.2771433
140	0xbd735385	-0.059405822
141	0xbd644449	-0.055729184
142	0x3c849000	0.016181946
143	0xbc3a0a4b	-0.011354993
144	0xbde52759	-0.111891456
145	0x3d71dd55	0.05904897
146	0xbe5e4a5c	-0.21708053
147	0xbe8215ce	-0.2540726
148	0x3e78b3c5	0.24287327
149	0xbe7794a2	-0.24177793
150	0xbde73155	-0.11288706
151	0xbdc50646	-0.09620337
152	0xbe499d86	-0.19688997
153	0x3cadf223	0.021233624
154	0x3dbe10df	0.09280562
155	0x3e8a641d	0.27029505
156	0x3e84947e	0.2589454
157	0x3dfbd898	0.12297171
158	0xbde70bab	-0.11281522
159	0xbe17a96c	-0.14810723
160	0xbd7b16be	-0.061300986
161	0x3d46468a	0.048407115
162	0xbd4ccaa4	-0.04999794
163	0x3e228d34	0.15874177
164	0xbccdca0c	-0.025120758
165	0xbd0406ae	-0.032232933
166	0xbdeef5eb	-0.11667999
167	0xbe206665	-0.1566406
168	0x3e6ad3cb	0.22932355
169	0xbc1a3393	-0.00941171
170	0x3d35d144	0.044389024
171	0x3e184d28	0.14873183
172	0xbe1a900c	-0.15094012
173	0x3e84bbb3	0.25924453
174	0x3d2a6f88	0.04161027
175	0xbe10a979	-0.14127149
176	0x3e948b60	0.29012585
177	0x3d705a29	0.058679733
178	0xbe6b05a8	-0.22951376
179	0xbdae085d	-0.08497689
180	0x3e95e286	0.29274386
181	0xbdb41ba9	-0.08794338
182	0xbc0c13aa	-0.00854961
183	0xbe336c13	-0.17521696
184	0xbde218f9	-0.110399194
185	0xbe801e43	-0.25023088
186	0x3de3b576	0.11118595
187	0x3ea85def	0.32884166
188	0xbe00240a	-0.12513748
189	0x3e12a510	0.14320779
190	0xbe479fe0	-0.19494581
191	0xbe225ca6	-0.15855655

conv1.bias f4 [16]
0	0x3e7e5bd3	0.24839716
1	0xbc4818e4	-0.012212966
2	0x3e35df82	0.17761043
3	0x3cb97b17	0.022641702
4	0xbda9e7e2	-0.08296181
5	0x3dd5959d	0.10428927
6	0xbe9a99b7	-0.301954
7	0x3e58574a	0.21127048
8	0xbedac369	-0.4272721
9	0x3dfdda65	0.12395171
10	0x3e83593a	0.25654012
11	0xbd6fa880	-0.058510303
12	0x3eb9d4dd	0.36295214
13	0x3dc0240e	0.09381877
14	0x3ee19dd5	0.4406573
15	0x3e3754ec	0.17903489

conv2.weight f4 [32, 16, 2, 2]
0	0x3c9e16c0	0.019297957
1	0x3cc44d06	0.023962509
2	0x3d11d6a2	0.03560508
3	0x3dc1e93c	0.09468314
4	0x3da0799f	0.078356974
5	0xbde24c7c	-0.110497445
6	0x3d2329ac	0.039834663
7	0x3df308e3	0.118669294
8	0x3d7acef9	0.06123254
9	0x3cd34ca0	0.025793374
10	0xbddefdd3	-0.10888257
11	0x3e49d78f	0.19711135
12	0xbd1bd431	-0.03804416
13	0x3d1ccb2d	0.0382797
14	0xbd8a0f30	-0.06741178
15	0x3dafba37	0.085804395
16	0xbd6e1521	-0.05812562
17	0xbd47464f	-0.048651036
18	0x3d3df732	0.046378322
19	0x3d480e5d	0.048841823
20	0xbdd4b91b	-0.103868686
21	0xbd8f7516	-0.07004754
22	0xbdf87b73	-0.12132921
23	0xbd07b60b	-0.033132594
24	0x3c9980ce	0.018738177
25	0x3b3ee728	0.002912948
26	0xbc49780f	-0.012296691
27	0xbd8bd680	-0.06828022
28	0x3d4b4c5d	0.049633373
29	0x3c867136	0.016411405
30	0xbe063b68	-0.13108599
31	0x3d4076bb	0.04698823
32	0x3caf275d	0.021381075
33	0x3ce14bca	0.02750196
34	0xbce714b6	-0.028208118
35	0xbd2d9b2d	-0.042384315
36	0xbda5963e	-0.08085297
37	0xbd7627f7	-0.060096707
38	0x3d2a1051	0.041519467
39	0xbd9f8ee0	-0.07790923
40	0xbe416a78	-0.18888271
41	0x3cc51da5	0.024061987
42	0xbd773804	-0.060356155
43	0xbda58583	-0.08082106
44	0xbda97f17	-0.082761936
45	0x3b30e538	0.0026992094
46	0xbde51b8d	-0.111868955
47	0x3d094d89	0.03352121
48	0xbd4a6eab	-0.049421947
49	0x3e21c1c6	0.15796575
50	0xbb91113e	-0.0044271043
51	0x3dfde8bd	0.12397907
52	0xbe199a98	-0.15000379
53	0x3be8918e	0.0070974296
54	0x3cbe7528	0.023249224
55	0x3dcdbc39	0.10045666
56	0x3cb39861	0.021923246
57	0xbd11b56a	-0.0355734
58	0x3df0908b	0.117463194
59	0x3d79c517	0.060978975
60	0x3d7aa5e1	0.06119335
61	0xbd4302f5	-0.047610242
62	0x3dab8db1	0.08376635
63	0x3d5bf20e	0.05369764
64	0x3d9236a8	0.07139331
65	0x3db7910c	0.08963212
66	0x3de8f054	0.11373964
67	0x3e5c6718	0.21523702
68	0xbcae9d68	-0.021315292
69	0xbd14ddce	-0.036344342
70	0x3d654f71	0.055983964
71	0x3dc7b66a	0.097515896
72	0xbda8994c	-0.08232364
73	0x3df31e28	0.11870986
74	0xbe14075d	-0.14455934
75	0x3c0a6b3d	0.008448419
76	0xbd64ec9c	-0.05588971
77	0xbd1cb8ca	-0.038262166
78	0xbdd7ad5e	-0.10531114
79	0x3b43c1c9	0.0029870144
80	0x3e00d948	0.12582886
81	0x3cbccdb2	0.023047302
82	0x3cb56043	0.022140628
83	0xbccbdbbe	-0.024885055
84	0x3da7db63	0.081961416
85	0x3cce2df9	0.025168406
86	0xbdd92593	-0.1060287
87	0x3d35ee9e	0.044417016
88	0x3d0ed53f	0.034871336
89	0x3d7ccc5c	0.06171833
90	0xbcce127f	-0.025155304
91	0x3d1540f5	0.0364389
92	0x3db8df89	0.09027011
93	0x3d618358	0.0550569
94	0xbdac9982	-0.08427717
95	0xbdbf7adb	-0.09349605
96	0x3dc8c6a6	0.09803514
97	0x3b9cfae2	0.0047906497
98	0xbbc41455	-0.005983869
99	0xbda236ae	-0.079205856
100	0xbdb01b6a	-0.08598979
101	0xbdf0bc2c	-0.11754641
102	0xbda9c211	-0.08288968
103	0x3da1b872	0.07896508
104	0xbdba7a90	-0.09105408
105	0xbdfd33d4	-0.12363401
106	0x3e044308	0.12916195
107	0xbd8754c4	-0.06607965
108	0x3df8f6b4	0.1215643
109	0x3be9f8ee	0.0071402704
110	0x3e019f61	0.12658454
111	0x3d9f06e8	0.07764989
112	0xbd40e85a	-0.047096588
113	0xbe266bad	-0.16252013
114	0x3d1b72d2	0.037951298
115	0xbdd6b8d2	-0.104844704
116	0xbd243784	-0.040092006
117	0x3dadbb18	0.08482951
118	0xbc8b34c5	-0.016992936
119	0xbd186311	-0.037203852
120	0xbde80f69	-0.11331064
121	0x3ccc4b5e	0.024938282
122	0x3bb3a0df	0.005481824
123	0xbc8c6484	-0.017137773
124	0x3da42ed3	0.080167435
125	0xbe4fc556	-0.20290121
126	0xbd52bcfc	-0.05144976
127	0xbe2cb89c	-0.16867298
128	0x3d2254d1	0.03963167
129	0xbdc1c73d	-0.0946183
130	0x3d6257a2	0.055259354
131	0xbded5fee	-0.11590563
132	0x3bf60906	0.0075084
133	0xbd07044c	-0.032963082
134	0x3d3b39a7	0.04570928
135	0x3e103186	0.14081392
136	0x3d43c58d	0.04779582
137	0x3e045fa9	0.12927116
138	0xbdf00554	-0.11719766
139	0x3df7be5a	0.120968536
140	0x3d7ece40	0.062208414
141	0x3d045fcc	0.03231792
142	0x3d6d12ac	0.057879135
143	0xbdb26ded	-0.08712373
144	0x3dae6b35	0.08516542
145	0xbe05fe7a	-0.13085356
146	0xbdcde0ca	-0.10052641
147	0xbdaec928	-0.08534461
148	0xbe10d0c4	-0.14142138
149	0xbe7d19c0	-0.24716854
150	0x3ba0186b	0.0048857233
151	0x3e00ec91	0.12590243
152	0xbde43ddc	-0.11144611
153	0x3e0d3675	0.13790305
154	0xbd9a0be6	-0.07521801
155	0x3c8da0f5	0.017288664
156	0x3e2795d4	0.16365749
157	0xbaf34932	-0.0018561243
158	0xbdc5b3b5	-0.09653417
159	0x3d2da40f	0.042392787
160	0xbdd8602a	-0.10565217
161	0xbd267a62	-0.040644057
162	0xbdc736ce	-0.0972725
163	0xbc5a6732	-0.013330268
164	0xbdcc0d8a	-0.0996352
165	0x3d9b840b	0.075935446
166	0x3d9901b7	0.0747103
167	0x3dd7b354	0.10532251
168	0xbdadd582	-0.08487989
169	0x3c5fd522	0.013661655
170	0x3c165bef	0.009177192
171	0x3d48c879	0.04901931
172	0xbdce4109	-0.10070998
173	0xbdf91bdc	-0.12163517
174	0xbce77534	-0.028254129
175	0xbddbf3de	-0.10739873
176	0x3cdb4cec	0.026770078
177	0x3cb342b4	0.021882392
178	0x3c5c45c6	0.01344437
179	0x3c486cca	0.012232969
180	0x3d931540	0.071817875
181	0xbd8eb6f4	-0.06968489
182	0xbcdceabb	-0.026967397
183	0x3d1b972a	0.03798596
184	0x3d382686	0.044958614
185	0xbcc8d0e2	-0.024513666
186	0xbd1c3be4	-0.038143054
187	0x3d8ad004	0.06777957
188	0x3d0a6e13	0.03379638
189	0x3d39ee5c	0.045393333
190	0x3d314aa5	0.043284077
191	0xbd8813e8	-0.06644422
192	0x3d3f1fd7	0.046661224
193	0xbc3650f5	-0.0111277
194	0xbe2f299d	-0.17105718
195	0xbe114c27	-0.14189206
196	0xbd578220	-0.05261433
197	0xbdd089d5	-0.101825394
198	0x3d129e2c	0.035795376
199	0xbd4bbeaa	-0.04974238
200	0x3dd0e3e4	0.10199717
201	0x3de30100	0.11084175
202	0xbdc9f839	-0.09861798
203	0x3d6a242b	0.0571634
204	0xbdad73b9	-0.08469338
205	0xbe1424ea	-0.14467207
206	0xbdb97d72	-0.0905713
207	0x3d34d465	0.044147868
208	0x3bcc2b69	0.006230761
209	0x3df71e03	0.12066271
210	0xbcdc7657	-0.026911898
211	0xbc2d064e	-0.010560585
212	0x3c347f39	0.01101666
213	0x3c4a50ea	0.012348393
214	0xbe11e08c	-0.14245814
215	0xbda7d385	-0.08194641
216	0xbd5b6f5d	-0.053573
217	0x3e13a859	0.14419688
218	0x3df8043f	0.12110185
219	0xbcf935ba	-0.030421127
220	0x3e21ac5a	0.15788403
221	0xbc195f3c	-0.009361085
222	0x3d1b988b	0.037987273
223	0x3d28c807	0.041206386
224	0xbdd5ecf4	-0.10445586
225	0xbd48c2b7	-0.04901382
226	0xbc8ad346	-0.016946446
227	0xbc40b656	-0.011762222
228	0x3cc45000	0.023963928
229	0x3ddf4f60	0.109038115
230	0x3c010617	0.007874987
231	0xbe850cf9	-0.2598646
232	0x3d6a8ddc	0.057264194
233	0xbcaa733a	-0.020806897
234	0xbbc25fb8	-0.0059318207
235	0xbe2ce1c0	-0.16882992
236	0x3ddf622d	0.109073974
237	0xbd77909c	-0.060440645
238	0x3da9b445	0.08286337
239	0x3ce0248b	0.027361175
240	0xbd8c277c	-0.068434685
241	0xbdb74335	-0.089483656
242	0x3e1a3bf1	0.15061928
243	0xbaafb1b9	-0.0013404406
244	0x3dd4543d	0.1036763
245	0x3b1b0ddf	0.002365939
246	0xbe093a2c	-0.13401097
247	0x3ce82474	0.028337695
248	0xbe168f39	-0.14703073
249	0x3e01d782	0.12679866
250	0x3db46d1b	0.08809873
251	0x3d53a212	0.051668234
252	0xbdc22aaa	-0.09480794
253	0x3c98df4e	0.018661167
254	0x3deb81e4	0.11499384
255	0xbd6b9862	-0.05751837

conv2.bias f4 [32]
0	0x3e37880b	0.1792299
1	0xbe563305	-0.209179
2	0x3d9c93b2	0.07645358
3	0x3ded1a02	0.11577226
4	0x3cb3d6fa	0.021953095
5	0xbe76f9aa	-0.24118677
6	0x3e73fac8	0.23826134
7	0xbe0f1227	-0.13971768
8	0x3ed04147	0.40674803
9	0x3e91e31d	0.28493586
10	0x3e730ac1	0.23734571
11	0xbde9f23c	-0.11423156
12	0x3eb93b57	0.36178085
13	0x3eb1f214	0.34755003
14	0xbe7d5e47	-0.24742995
15	0x3e8ccaff	0.27498624
16	0xbdac235b	-0.08405181
17	0xbc432af9	-0.011912101
18	0xbd8cc189	-0.068728514
19	0x3e685b65	0.22691114
20	0x3e18fc21	0.1493993
21	0xbeae87d3	-0.34088
22	0xbe86fb81	-0.26363757
23	0x3e7ded90	0.24797654
24	0x3e204223	0.15650229
25	0xbdac4af6	-0.08412735
26	0x3e99ad17	0.3001487
27	0x3e9ac674	0.30229533
28	0x3e6590f6	0.2241858
29	0x3d549621	0.051900987
30	0x3d1b5958	0.037927
31	0x3e38c1b5	0.18042643

linear1.weight f4 [16, 5]
0	0xbd03b12b	-0.032151382
1	0x3ed83c28	0.42233396
2	0x3d544a65	0.05182876
3	0xbe0680b8	-0.1313504
4	0xbe7741fa	-0.24146262
5	0x3ec969c9	0.3933852
6	0xbd598f92	-0.053115435
7	0xbea8bd7e	-0.3295707
8	0x3f6458bf	0.89197916
9	0xbbf6e4eb	-0.0075346134
10	0x3f7270d2	0.947034
11	0xbc472c12	-0.012156503
12	0xbf056780	-0.52111053
13	0x3f281e3b	0.6567113
14	0xbf0f8d83	-0.56075305
15	0x3e563f6d	0.20922633
16	0x3e6734e5	0.22578771
17	0x3d9e6f57	0.0773608
18	0x3eedc920	0.4644251
19	0x3d1daa56	0.038492523
20	0xbec17b32	-0.37789303
21	0xbfc755c0	-1.5573044
22	0xbd9f0576	-0.077647135
23	0xbf10e4e7	-0.5659928
24	0x3df6fd3f	0.120600216
25	0x3efecdbb	0.49766335
26	0x3e611f40	0.21984577
27	0x3e863233	0.26210174
28	0x3e79406a	0.24340978
29	0xbc7e74a3	-0.015530738
30	0xbf14f32e	-0.5818356
31	0xbfdba073	-1.715834
32	0x3d85b938	0.06529468
33	0xbf0c5d1a	-0.5482956
34	0xbcfe5d7b	-0.031050434
35	0xbf1d55ea	-0.6145922
36	0xbf922611	-1.1417867
37	0xbe20e283	-0.15711407
38	0xbf12ab83	-0.57292956
39	0xbee8f54a	-0.4549964
40	0x3ed1f841	0.41009715
41	0xbe04d1c3	-0.12970643
42	0x3dc166dc	0.09443447
43	0x3e2077bb	0.15670674
44	0x3e34832b	0.17628162
45	0xbf1f3b6a	-0.62200034
46	0xbf91f435	-1.1402651
47	0x3ec31da1	0.38108543
48	0xbf1743bb	-0.59087723
49	0x3d5c7669	0.053823862
50	0xbef31fbb	-0.47485146
51	0x3dec07f6	0.11524956
52	0x3f050aac	0.5196941
53	0xbf1810c2	-0.5940057
54	0xbd270c61	-0.04078329
55	0x3ebd454d	0.36966935
56	0xbd8b9c66	-0.0681694
57	0x3e60bfab	0.21948116
58	0x3f3dd718	0.7415633
59	0x3e2eac3a	0.17057887
60	0x3e4437aa	0.19161859
61	0xbd750f87	-0.05982926
62	0xbec4a7e7	-0.3840935
63	0xbdd02240	-0.10162783
64	0x3e8ef9cf	0.27924964
65	0xbf83501e	-1.0258825
66	0x3e25d4ea	0.16194502
67	0xbd49b780	-0.049247265
68	0xbed6c9d8	-0.4195087
69	0xbe94278a	-0.28936416
70	0xbf563fde	-0.83691204
71	0x3e083c8c	0.13304347
72	0x3e8a4cf2	0.2701183
73	0xbda90ae2	-0.08254029
74	0x3d89d3af	0.067298286
75	0x3f109db3	0.5649063
76	0xbdd0093e	-0.10158013
77	0x3e259b03	0.16172414
78	0x3e38ac50	0.18034482
79	0xbf17d7e2	-0.59313786

linear1.bias f4 [16]
0	0xbe592c1a	-0.2120823
1	0x3f3a7621	0.728365
2	0x3eff6d86	0.49888247
3	0x3f126355	0.5718282
4	0xbd64768f	-0.05577713
5	0x3f7b53fe	0.98175037
6	0x3e065de2	0.13121751
7	0x3ec6173d	0.38689604
8	0x3f770317	0.9648909
9	0x3e586fa8	0.21136343
10	0x3f18fd41	0.59761435
11	0x3f85cce7	1.0453156
12	0x3f804f6a	1.0024235
13	0x3f064a30	0.5245695
14	0x3e632b63	0.2218452
15	0x3f3633fe	0.71173084

linear2.weight f4 [16, 16]
0	0xbe9f1421	-0.31070045
1	0x3f48ddf5	0.7846368
2	0x3f211b7f	0.6293258
3	0x3ea4df56	0.32201642
4	0xbf1a67c1	-0.60314566
5	0x3eb10fde	0.34582418
6	0xbec12de0	-0.37730312
7	0x3bb54de6	0.005532968
8	0x3f1188d8	0.5684943
9	0x3df4e8b7	0.11958449
10	0x3da4fe53	0.08056321
11	0x3f03f2a3	0.5154211
12	0x3f00f580	0.50374603
13	0x3e944b9e	0.2896394
14	0xbd0a60cf	-0.03378373
15	0x3eb2bead	0.349111
16	0x3d971471	0.07376946
17	0x3f392e31	0.7233611
18	0x3e85c0a9	0.2612355
19	0x3f23b14a	0.63942397
20	0xbe5ce5c5	-0.21572025
21	0x3f232656	0.6373037
22	0xbeeaeff2	-0.4588619
23	0xbe5a6a15	-0.2132953
24	0x3eb8c9f6	0.36091584
25	0x3ddb889f	0.10719418
26	0x3ea2b4f1	0.31778672
27	0x3ef32248	0.47487092
28	0x3ec13b77	0.3774068
29	0x3d3792fd	0.044817913
30	0x3e8b31ef	0.27186534
31	0x3ef15a9b	0.4713944
32	0xbeca6631	-0.3953109
33	0x3ef917e0	0.48651028
34	0x3f0223f4	0.5083611
35	0x3f0ba3c7	0.5454678
36	0xbf064c89	-0.52460533
37	0x3f464acd	0.77457887
38	0xbe72a658	-0.23696268
39	0x3d151090	0.03639275
40	0x3f2e7811	0.68151957
41	0xbdf34c85	-0.11879829
42	0x3ddc2ef5	0.10751144
43	0x3eeb5fb1	0.45971444
44	0x3f20039a	0.62505496
45	0x3ba0cca0	0.0049072057
46	0x3e0f303b	0.13983242
47	0x3ed61264	0.41810906
48	0xbdc8fe85	-0.09814171
49	0xbe060bf4	-0.13090497
50	0xbefced91	-0.494
51	0x3e40fd54	0.18846637
52	0xbeff28d7	-0.49835846
53	0xbbc28ab0	-0.005936943
54	0xbe97d7ff	-0.2965698
55	0xbd237137	-0.039902892
56	0xbde50a2f	-0.11183583
57	0x3e3bf359	0.18354549
58	0x3de33a7d	0.1109514
59	0xbd33b71a	-0.04387579
60	0x3e90b444	0.28262532
61	0x3ede1d8f	0.43381926
62	0x3e94e97b	0.2908438
63	0xbee9e68b	-0.45683703
64	0xbe12c932	-0.14334562
65	0x3f1acc2e	0.60467803
66	0x3ecf6cdc	0.4051274
67	0x3f0e6ff9	0.55639607
68	0xbf157ee1	-0.58396727
69	0x3f285561	0.6575528
70	0xbde52645	-0.1118894
71	0xbd87cc2f	-0.06630742
72	0x3f2ade0a	0.66745055
73	0xbe9fed57	-0.31235763
74	0x3e69192e	0.22763512
75	0x3ef7deb1	0.48412088
76	0x3ee6f129	0.45105866
77	0xbd7060e7	-0.058686163
78	0x3e9a589a	0.30145723
79	0x3eefc1e0	0.46827602
80	0xbe4e733c	-0.20161146
81	0xbf2b84d4	-0.66999555
82	0x3ebe159b	0.3712586
83	0xbf62769b	-0.8846223
84	0x3f01dc50	0.50726795
85	0xbf8175ac	-1.0114036
86	0x3f2e8657	0.68173736
87	0x3eaac162	0.33350664
88	0xbe62b524	-0.22139412
89	0x3f0deb23	0.55436915
90	0xbc96e38e	-0.018419053
91	0xbec92632	-0.39286953
92	0xbe5d3ecc	-0.21605986
93	0x3ec3434d	0.38137284
94	0x3e1b822f	0.1518638
95	0xbf0ffe4c	-0.562474
96	0x3ce2ff2d	0.027709568
97	0x3f0873d2	0.5330173
98	0x3f376b32	0.7164794
99	0x3eafd42e	0.34341568
100	0xbe9fe480	-0.3122902
101	0x3eaab86d	0.3334383
102	0xbecde22c	-0.40211618
103	0xbd8105b1	-0.06299914
104	0x3f15d64f	0.58530134
105	0xbd9e7f7a	-0.07739158
106	0x3d8f923d	0.070103146
107	0x3f17e29d	0.5933016
108	0x3f1639fc	0.5868223
109	0x3e610cbf	0.21977518
110	0xbc49669c	-0.01229253
111	0x3ef637d0	0.48089457
112	0x3e9aacc1	0.30209926
113	0x3e410505	0.18849571
114	0x3e6b424a	0.22974506
115	0x3e9b2c18	0.30307078
116	0xbc988c09	-0.018621461
117	0x3e490e75	0.19634421
118	0xbe7e393d	-0.24826522
119	0xbeb4a539	-0.35282305
120	0x394ee55b	0.00019731132
121	0xbe1e5808	-0.15463269
122	0xbd504f8d	-0.050857116
123	0xbe62d161	-0.22150184
124	0xbe559565	-0.2085777
125	0xbd46a742	-0.048499353
126	0xbc801124	-0.015633173
127	0xbe957811	-0.29193166
128	0x3da20a2b	0.07912096
129	0x3ea66ec9	0.32506397
130	0x3efe2306	0.49636096
131	0x3f191ed5	0.5981267
132	0xbf08ac8d	-0.5338829
133	0x3f019280	0.50614166
134	0xbe88287a	-0.2659338
135	0xbe4a6489	-0.19764914
136	0x3f1fb7eb	0.6239001
137	0xbe358e7d	-0.17730136
138	0x3b8a0314	0.0042117927
139	0x3f18a508	0.5962682
140	0x3f1aba28	0.604403
141	0x3ec1d24f	0.37855765
142	0x3e712e31	0.23552777
143	0x3ef1838e	0.4717068
144	0xbd7d17ee	-0.0617904
145	0xbf17f1af	-0.59353155
146	0xbe62e02f	-0.22155832
147	0x3cdcaffd	0.026939387
148	0x3f437fc2	0.7636682
149	0x3e4096cf	0.18807529
150	0x3f25e17b	0.6479718
151	0x3f2c371d	0.67271596
152	0x3e7eefe2	0.24896196
153	0x3f13ea9c	0.5777986
154	0x3ee8ffaa	0.45507556
155	0x3dce0169	0.10058863
156	0x3e8e20cd	0.277594
157	0x3e8b9f40	0.27269936
158	0x3ed71c65	0.4201385
159	0xbe39f3b8	-0.18159378
160	0x3d3d5b5f	0.046229716
161	0xbdaff17e	-0.08590983
162	0xbe2b8c4a	-0.16752735
163	0x3e8431f1	0.25819352
164	0xbe6fc602	-0.23415378
165	0x3e8fcca5	0.2808582
166	0xbe3b0c62	-0.18266442
167	0xbea2e2c9	-0.31813648
168	0xbde4375b	-0.11143371
169	0xbee496a2	-0.44646174
170	0x3e2d3313	0.16914015
171	0xbeaa15d7	-0.33219787
172	0x3dc889cc	0.09791908
173	0x3e1c7744	0.15279871
174	0x3e44cedb	0.19219534
175	0xbcbda910	-0.023151904
176	0xbe9ec423	-0.31009015
177	0x3f44f6f6	0.7693933
178	0x3f1278de	0.5721568
179	0x3f1c2dfd	0.6100767
180	0xbea3b1fe	-0.31971735
181	0x3edf5963	0.43622884
182	0xbdcdbf32	-0.10046233
183	0xbe245653	-0.16048555
184	0x3f312a44	0.6920512
185	0xbdae806c	-0.08520588
186	0x3e36543b	0.17805569
187	0x3eaf748d	0.3426861
188	0x3eea11f7	0.4571683
189	0x3e8575e5	0.2606651
190	0xbd372155	-0.044709522
191	0x3f294dff	0.6613464
192	0xbe1b9aa1	-0.15195705
193	0x3f13851f	0.57625
194	0x3f1129e0	0.5670452
195	0x3ebb0610	0.36528063
196	0xbea5c012	-0.323731
197	0x3f45cf19	0.7726913
198	0xbe211077	-0.15728937
199	0xbd124072	-0.03570599
200	0x3f038e55	0.51389056
201	0xbea9a7cf	-0.3313584
202	0xbe013086	-0.12616166
203	0x3f254aa8	0.6456704
204	0x3f168d42	0.5880929
205	0x3ea62764	0.32451928
206	0x3e38bc6a	0.18040624
207	0x3ed8a292	0.4231153
208	0xbe17d63e	-0.1482782
209	0x3f1ff800	0.6248779
210	0x3f17df4b	0.59325093
211	0x3ebd0534	0.36918032
212	0xbf099035	-0.5373567
213	0x3ef9ccab	0.48788962
214	0xbe04abba	-0.12956133
215	0xbccabb09	-0.024747388
216	0x3f16418c	0.58693767
217	0xbe83ce4d	-0.25743333
218	0xbe06aaf4	-0.13151151
219	0x3f154228	0.5830407
220	0x3edb48a8	0.4282887
221	0x3e2fd7eb	0.1717221
222	0x3eb199e8	0.34687734
223	0x3ed74917	0.4204795
224	0xbc465201	-0.012104512
225	0xbea39bcc	-0.319548
226	0x3de48d04	0.11159709
227	0x3daa8919	0.083269306
228	0x3f8877f4	1.0661607
229	0xbe9259d5	-0.2858416
230	0x3f52a329	0.8228021
231	0x3f1c4388	0.61040545
232	0x3db920af	0.09039437
233	0x3edd6a47	0.43245146
234	0x3f1167bb	0.56798905
235	0xbd67dd53	-0.056607556
236	0x3e85bd43	0.26120958
237	0x3e923157	0.28553268
238	0x3e0207b8	0.12698257
239	0xbde739e2	-0.11290337
240	0xbded2707	-0.115797095
241	0xbf176b69	-0.5914827
242	0xbe53537e	-0.20637318
243	0x3d638fa2	0.0555569
244	0x3f2c7896	0.673715
245	0x3de4c71b	0.11170789
246	0x3f54feaf	0.83201116
247	0x3f3a76ad	0.72837335
248	0x3ebdca17	0.37068245
249	0x3f1cab58	0.6119895
250	0x3e9677bc	0.29388225
251	0xbdb4cf99	-0.088286586
252	0x3e4ad9a5	0.19809587
253	0x3d89b5fa	0.067241624
254	0x3ea26758	0.3171947
255	0xbdc9fb7f	-0.09862422

linear2.bias f4 [16]
0	0x3f009dee	0.5024098
1	0x3e97fa31	0.29683068
2	0x3f0485f7	0.51766914
3	0x3e667ddf	0.22508954
4	0x3f22d827	0.6361107
5	0xbe021b0a	-0.12705627
6	0x3f375b30	0.71623516
7	0xbe18a8f4	-0.149082
8	0x3f2efd3a	0.68355143
9	0x3e2b795c	0.16745514
10	0xbea8ee9d	-0.32994547
11	0x3e9d05da	0.30668527
12	0x3f28a5a4	0.6587775
13	0x3f36574e	0.71226966
14	0x3ebedf78	0.37279868
15	0x3eb3f39e	0.35146803

fc1.weight f4 [30, 512]
0	0xbd34fbee	-0.04418557
1	0x3d2e3a68	0.04253617
2	0x3c830be9	0.01599689
3	0xbced73a9	-0.028985815
4	0xbc8beaa3	-0.017079657
5	0x3d1d20eb	0.03836147
6	0xbbe03cb7	-0.0068431753
7	0x3cd35242	0.02579606
8	0x3d06e1bc	0.03293012
9	0xbd58fe58	-0.052976936
10	0xbcdd5345	-0.027017245
11	0xbc7e57b6	-0.015523842
12	0x3ce9e6cb	0.028552433
13	0x3a8efd8b	0.0010909302
14	0x3c425e5e	0.011863319
15	0xbc829f91	-0.015945228
16	0xbcacb340	-0.021081567
17	0x3c54c6b9	0.012986832
18	0xbbc5c3ac	-0.006035289
19	0x3d1596d9	0.036520813
20	0xbc129325	-0.008946215
21	0xbd2d2cdc	-0.04227911
22	0xbc2c64de	-0.0105220955
23	0x3cdc797b	0.026913395
24	0x3c79ab80	0.015238643
25	0x3d1be709	0.03806213
26	0xbcdfb9d4	-0.02731029
27	0x3d24acd3	0.04020388
28	0x3cd012ea	0.025399644
29	0xbd096343	-0.03354193
30	0x3c522498	0.012826107
31	0x3d343523	0.043995988
32	0xbd8dd48d	-0.069253065
33	0x3d0a1a61	0.033716563
34	0xbc0324e4	-0.008004401
35	0xbb83b6af	-0.0040195803
36	0x3d5eb4d5	0.054371674
37	0x3d8135a7	0.063090615
38	0xbbb0952d	-0.005388877
39	0x3d32b63f	0.043630835
40	0xbc9a09d3	-0.018803513
41	0x3d11301d	0.035446275
42	0xbce57b42	-0.028012875
43	0x3cc7c84b	0.0243875
44	0xbbe732f9	-0.007055637
45	0x3cad41c6	0.021149527
46	0xbc504315	-0.012711306
47	0xbd231579	-0.0398154
48	0xbd573791	-0.052543227
49	0xbd511b1c	-0.051051244
50	0xbc239646	-0.009984558
51	0x3d49ec1b	0.049297433
52	0xbc028adc	-0.007967677
53	0x3c1cdee5	0.009574627
54	0x3d677660	0.056509376
55	0x3ca8cfd8	0.02060692
56	0xbc6402d6	-0.013916692
57	0x3bd36374	0.0064510647
58	0xbc17e14e	-0.009270025
59	0x3d14f867	0.036369707
60	0x3ce59686	0.028025877
61	0x3c9053ae	0.017618027
62	0x3ca59e92	0.020217214
63	0xbd341e0b	-0.043973964
64	0x3d3ddbcc	0.046352193
65	0xbbf81570	-0.007570915
66	0xbc573a54	-0.013136465
67	0x3bc22795	0.0059251287
68	0xbc3d8c93	-0.01156916
69	0xbd8694eb	-0.065713726
70	0x3d8e422e	0.069462165
71	0x399ccba8	0.00029906374
72	0xbc8ba0a2	-0.01704437
73	0xbd31be59	-0.04339442
74	0xbc2d7f61	-0.0105894515
75	0x3d0ba5f2	0.034093805
76	0xbd0c0ba5	-0.034190793
77	0x3cc72e04	0.024313934
78	0x3db70d39	0.08938069
79	0x3cef6021	0.029220643
80	0x3cfc0e14	0.030768432
81	0x3c03fc44	0.00805575
82	0x3c85fcf1	0.016355963
83	0x3b15c875	0.0022855077
84	0xbcf30102	-0.029663566
85	0xbd38ab5d	-0.0450853
86	0xbd565b4e	-0.05233317
87	0x3cb90544	0.022585519
88	0x3c9048c4	0.017612822
89	0xbccd2455	-0.025041739
90	0xbd481ffb	-0.048858624
91	0x3ca5ad60	0.020224273
92	0xbd03fdf5	-0.032224614
93	0xbcfa934d	-0.030587817
94	0xb95e0ff6	-0.00021177516
95	0xbce96f20	-0.028495371
96	0xbd49d838	-0.049278468
97	0x3d16d4c7	0.036824014
98	0x3d108409	0.03528217
99	0x3c342b5f	0.010996669
100	0xbd0f5477	-0.03499266
101	0xbd1a8b01	-0.03773022
102	0xbc314c91	-0.0108214775
103	0xbb798d79	-0.003807871
104	0x3d026ce4	0.031842127
105	0x3d5b2fe6	0.053512476
106	0x3cd6a23d	0.026200408
107	0x3d615edc	0.055022106
108	0x3d285432	0.04109592
109	0x3d057ac1	0.03258777
110	0x3c947557	0.018122358
111	0x3d2d988d	0.042381812
112	0xbd5107e2	-0.05103291
113	0x3cc880ac	0.024475418
114	0x3d113e9b	0.035460096
115	0x3c259225	0.010105644
116	0x3ca8c214	0.020600356
117	0x3d2b94a8	0.041889817
118	0xbc7eb9d4	-0.015547235
119	0x3b65011b	0.0034943286
120	0xbc8f700f	-0.017509488
121	0xbdb46039	-0.088074155
122	0x3d317f5f	0.04333436
123	0x3b4742b9	0.003040476
124	0xbd0c271b	-0.03421698
125	0xbbb521d7	-0.0055277157
126	0x3c924ab2	0.017857883
127	0x3c7f900d	0.015598309
128	0xbbb92266	-0.0056498526
129	0x3d02ac28	0.031902462
130	0x3d4248c5	0.04743268
131	0xbb924c32	-0.0044646496
132	0x3c915206	0.017739307
133	0x3d5f92b7	0.054583278
134	0x3d8a9fb5	0.06768743
135	0xbc1dd36f	-0.009632929
136	0x3c0faa3b	0.008768613
137	0xbc14d774	-0.009084571
138	0x3bc96bb9	0.0061468747
139	0x3bb4aa9d	0.0055135028
140	0x3d4802b3	0.0488307
141	0x3c1a5876	0.009420505
142	0xbd138149	-0.036011968
143	0x3b8db7df	0.0043248977
144	0xbcdac213	-0.02670387
145	0xbc77bf76	-0.015121331
146	0xbd4c9c9f	-0.049954053
147	0xbd3667e6	-0.04453268
148	0x3d5fd4a5	0.054646153
149	0xbc1342d5	-0.008988102
150	0xbc3b2d1f	-0.011424332
151	0x3db5360d	0.088482
152	0xbc1b9bde	-0.009497611
153	0xbb825f88	-0.0039786734
154	0x3ac16921	0.0014756062
155	0x3b3d568a	0.0028890693
156	0xbd8eb015	-0.06967179
157	0xbc130129	-0.008972445
158	0x3a4f6b6e	0.00079124316
159	0x3c964203	0.018342024
160	0xbcdd58a5	-0.027019808
161	0x3c8fbc78	0.017545924
162	0x3cd19a41	0.02558625
163	0x3cfae08a	0.030624647
164	0x3d3e6770	0.046485364
165	0xbd616826	-0.055030964
166	0xba8e95a7	-0.001087834
167	0x3b7fff56	0.0039062104
168	0xbcad0624	-0.021121092
169	0x3d01cad0	0.031687558
170	0x3cfc96a4	0.03083355
171	0x3d055d6e	0.032559805
172	0xbc180a26	-0.009279763
173	0xbcda40df	-0.026642261
174	0x3d1cb400	0.0382576
175	0xbc2060da	-0.009788716
176	0xbb655e74	-0.0034998925
177	0x3c720ca9	0.014773526
178	0xbc88610a	-0.016647834
179	0x3d3bd727	0.045859482
180	0xbc9d877b	-0.019229641
181	0x3cedcbc8	0.029027835
182	0x3c58ca47	0.01323182
183	0xbc9c5290	-0.019082338
184	0xbc7a664d	-0.0152831795
185	0xbd1781d1	-0.036989037
186	0xbd34b30b	-0.04411606
187	0xbd3e49e3	-0.046457183
188	0x3c24645d	0.010033694
189	0x3cfe70dd	0.031059677
190	0x3cb40db7	0.021979196
191	0xbd034446	-0.032047532
192	0x3caf1baf	0.021375505
193	0x3d35c723	0.044379365
194	0xbc143b98	-0.009047411
195	0x3c63f4fb	0.013913388
196	0x3d05c4bf	0.032658335
197	0x3d3f50a5	0.046707768
198	0x3d4d0794	0.050056055
199	0x3c4f0dc0	0.012637556
200	0xbd1d4caf	-0.03840321
201	0xbd0830bd	-0.033249605
202	0xbcc85490	-0.024454385
203	0x3c4a6533	0.012353229
204	0x3b39c55c	0.0028346395
205	0x3c0b8e0f	0.008517756
206	0xbd83bb80	-0.06432247
207	0xbb900b2c	-0.004395863
208	0x3ce095ba	0.027415145
209	0x3d85922d	0.065220214
210	0x3c0b706d	0.008510691
211	0x3c6af364	0.014340255
212	0xbd166844	-0.03672053
213	0x3cb934bb	0.022608152
214	0xba68517b	-0.0008862239
215	0x3b109285	0.0022059989
216	0x3d592829	0.053016815
217	0xbcf03391	-0.029321464
218	0xbcda7f55	-0.026672045
219	0xbc958a3f	-0.018254397
220	0xbd183e57	-0.037168827
221	0xbcf8fb0d	-0.030393148
222	0x3cdc07dd	0.026859218
223	0x3c5aabc4	0.013346616
224	0xbcaac0fe	-0.020843979
225	0x3b4e2407	0.003145458
226	0x3d207acd	0.039179612
227	0xbd88a687	-0.066723876
228	0xbca325b9	-0.019915449
229	0x3d6df917	0.05809888
230	0x3c9dc2c5	0.019257912
231	0x3c8af3a1	0.016961874
232	0x3c1e47a6	0.009660637
233	0xbc2b58e0	-0.010458201
234	0xbb93aacf	-0.004506446
235	0xbc215f1f	-0.009849339
236	0x3c19c205	0.009384637
237	0x3cce12fd	0.025155539
238	0x3bd7cb7e	0.0065855375
239	0x3c9cc568	0.0191371
240	0x3c36bda2	0.01115361
241	0x3d12a133	0.035798263
242	0x3c7f4b20	0.015581876
243	0xbd30fa25	-0.043207306
244	0x3bd5c160	0.0065232962
245	0x3cdba37e	0.026811358
246	0x3d148c2c	0.03626649
247	0x3d195d29	0.03744236
248	0x3c893a93	0.016751563
249	0xbd3496a9	-0.044088993
250	0xbc4e4743	-0.012590232
251	0x3d396dab	0.045270603
252	0xbd3a2ce3	-0.045452964
253	0x3cb20581	0.02173114
254	0xbb33d148	-0.0027437974
255	0xbca25610	-0.019816428

fc1.bias f4 [30]
0	0x3e8f2a43	0.2796193
1	0x3e46aa36	0.19400868
2	0x3e505456	0.20344672
3	0x3e8355c9	0.25651386
4	0x3e8ca59e	0.27470106
5	0x3e82de47	0.2556021
6	0xbe7677eb	-0.24069183
7	0xbe80ee8f	-0.25182006
8	0x3e85953b	0.26090416
9	0xbe662c62	-0.22477868
10	0xbe4fd7cc	-0.20297164
11	0x3e82dbdd	0.25558367
12	0x3e5a31e7	0.21308099
13	0x3e5f203d	0.21789642
14	0xbe5762dd	-0.21033807
15	0xbe84083c	-0.25787532
16	0xbe81c94d	-0.25348893
17	0xbe84cccb	-0.25937495
18	0xbe9029fd	-0.28157035
19	0xbe8493f3	-0.25894126
20	0x3e89c159	0.26905325
21	0x3e53f57e	0.20699117
22	0xbe48514e	-0.19562265
23	0x3e48dd6c	0.19615716
24	0x3e62539c	0.22102207
25	0xbe862d6b	-0.26206526
26	0xbe753a41	-0.23948003
27	0xbe76b13d	-0.24091049
28	0x3e5b2a71	0.21402909
29	0xbe810662	-0.25200182

fc2.weight f4 [1, 46]
0	0x3da07e89	0.07836635
1	0x3d356fcf	0.044296082
2	0x3d5f8dc4	0.054578558
3	0x3d097456	0.033558212
4	0x3cc323ff	0.023820875
5	0x3d0f6410	0.035007536
6	0xbe0ae99a	-0.13565674
7	0xbd3ecbae	-0.046580963
8	0x3d4e20f7	0.050324406
9	0xbdeb0e40	-0.11477327
10	0xbd402db1	-0.046918575
11	0x3b9ed56c	0.004847219
12	0x3e058714	0.1303981
13	0x3b462c8e	0.003023896
14	0xbccbba61	-0.024869146
15	0xbdf70b6c	-0.120627254
16	0xbdb134b0	-0.086526275
17	0xbdc0ad63	-0.09408071
18	0xbdd7b139	-0.105318494
19	0xbd949b42	-0.072561756
20	0x3dc99b9b	0.098441325
21	0x3e1107e3	0.14163165
22	0xbe11d56d	-0.14241572
23	0x3d80a505	0.06281475
24	0x3dda097f	0.106463425
25	0xbddc4397	-0.10755079
26	0xbe164a8d	-0.14676876
27	0xbe08ddad	-0.13365813
28	0x3da5094f	0.08058416
29	0xbe05a361	-0.13050605
30	0x3f16e150	0.5893755
31	0x3f23b807	0.6395268
32	0x3f252d17	0.64521927
33	0x3f48bbaa	0.7841135
34	0x3f30b8e2	0.6903211
35	0xbf87d68d	-1.0612351
36	0x3f272a08	0.6529851
37	0xbeae7471	-0.34073213
38	0x3f2fcfc4	0.686764
39	0xbec5248b	-0.38504443
40	0xbea4ad02	-0.32163244
41	0x3f1f464a	0.6221663
42	0x3f350ed5	0.70725757
43	0x3f300444	0.6875651
44	0xbf027c20	-0.5097065
45	0xbf09652e	-0.5367001
