paramveer_singh/model_checkpoints/MultimodalNN.ckpt (torch, 76610 bytes, 11 tensors)

conv1.weight f4 [16, 3, 2, 2]
000000 fb 24 f5 bd e8 df 06 bd 56 4e a6 3c 58 35 83 3e
       -0.11969944 -0.032928377 0.020301025 0.25626636
000010 62 37 b6 3e 09 bd 81 be 4a 75 9c 3c d9 70 a8 be
       0.3558913 -0.25339535 0.019098897 -0.32898596
000020 87 d5 88 3e d1 0e 5f 3d 96 55 6d be 2f 20 0f be
       0.26725408 0.05445749 -0.2317718 -0.13977121
000030 ac 46 87 3c 22 3a 91 be 74 7d 9a 3d a3 7c cd 3d
       0.016513191 -0.28364664 0.075434595 0.10033538
000040 bc 2b 23 3d 6a a2 b8 bc 2d 95 8b be e3 94 84 3d
       0.03983663 -0.022538383 -0.2726225 0.064737104
000050 b0 08 5d bd 04 e2 16 3e ed 04 1e 3d 06 5f c2 3e
       -0.053963363 0.14734656 0.038578916 0.37963122
000060 a5 83 b7 3e a4 c0 48 3e c4 d0 0d 3e 53 4b 1f be
       0.35842624 0.19604737 0.13849169 -0.15556078
000070 9c 86 b5 be 2c 37 31 bd 8a 70 36 be b6 33 53 be
       -0.3545426 -0.043265507 -0.17816368 -0.20625195
000080 2f cf b0 be 9f 18 88 be a3 e3 c6 3e 63 d5 95 bd
       -0.3453307 -0.26581284 0.38845548 -0.07316091
000090 a3 52 19 3e 21 ed 0a be b9 3c 4d 3d ce 5b 5a be
       0.1497293 -0.1356702 0.050106738 -0.21324083
0000a0 d2 19 e7 3d c8 3a ad bd 33 ac 8b 3e ac 1a 6e 3e
       0.11284222 -0.08458477 0.27279815 0.23252362
0000b0 91 c7 27 3e 3a 9b 93 be e6 f7 97 be 66 e1 f8 3d
       0.16384722 -0.28829366 -0.2968132 0.12152366
0000c0 85 ee eb 3d 7d ca 9d 3d 91 32 f6 3d d3 2a 2b be
       0.11520103 0.07704637 0.120213635 -0.16715555
0000d0 42 0e 32 3e 16 2c b6 bd fb 70 30 be 0e d6 3a be
       0.17388251 -0.088951275 -0.17230599 -0.18245718
0000e0 75 24 23 3e a8 e5 7e 3e 36 d8 87 3c d2 2b ae be
       0.15931876 0.24892294 0.01658259 -0.34017807
0000f0 02 8e c9 be 2e ea ab 3e 6b 6f 94 bd f8 54 59 3e
       -0.39366156 0.33577102 -0.07247814 0.2122382
000100 46 6d 01 3e ae c6 40 3e ad ee 4f 3e e1 a9 f1 bd
       0.12639341 0.1882579 0.20305891 -0.1179998
000110 ab 09 a7 bc 7c f1 c6 be 9b a1 9b be ed 52 99 be
       -0.020390352 -0.38856113 -0.30396733 -0.2994608
000120 fc d4 2e bd 36 74 8b 3e b5 d9 60 be d8 74 1a 3d
       -0.042683586 0.272371 -0.21958049 0.037709087
000130 4c 77 c4 3d 7c 52 85 3e 59 03 99 be a6 03 92 be
       0.095930666 0.26039493 -0.29885367 -0.2851841
000140 66 1f a8 bd e7 a5 d7 3d 79 c0 38 3a 46 94 87 3d
       -0.08209114 0.1052969 0.00070477236 0.06620078
000150 21 89 a7 bd d6 40 02 bb 54 f4 fc 3b a8 c4 99 be
       -0.08180452 -0.001987507 0.007719556 -0.3003285
000160 92 b3 ab 3e e4 49 14 be 6b 30 61 bd 77 37 5a be
       0.3353544 -0.14481312 -0.054977816 -0.2131022
000170 0e 89 a5 3e fe cf 9b be 7b 33 6a 3e ec e8 36 be
       0.32331127 -0.30432123 0.228712 -0.1786229
000180 eb c0 86 3d 24 b9 b4 be e6 22 3b 3e c8 ff 86 3e
       0.06579765 -0.352975 0.18275031 0.2636702
000190 b7 4d f8 bd 09 42 7e be 1d cc 11 be 08 03 da bd
       -0.12124198 -0.24829878 -0.1423802 -0.106451094
0001a0 99 f2 36 3e 73 85 82 3d 91 1a ac bd 5b 56 35 3e
       0.17865981 0.0637311 -0.08403505 0.17708723
0001b0 b2 07 33 bf 77 c6 b5 3c bb 28 d3 be 1f a3 ba be
       -0.6993362 0.022189362 -0.41242012 -0.36452577
0001c0 e8 e8 e1 3d 24 3e 52 3d c6 33 44 3d 05 19 e9 3e
       0.110307515 0.051328793 0.047900937 0.455269
0001d0 ee 26 aa bd 8c a0 2c 3e 7a d7 2a 3e 57 48 f0 bd
       -0.083082065 0.16858119 0.1668376 -0.11732548
0001e0 2b 6a 8e 3e c0 bd f1 bd d9 f6 cf bd eb b8 97 3b
       0.27815375 -0.1180377 -0.10154504 0.0046301982
0001f0 ed 2c 83 bd 6e 51 9c bd b3 48 95 be 3f 20 7b 3e
       -0.06405053 -0.07632719 -0.29157028 0.2452402
000200 98 7e 16 be 7e 07 1c 3d 0f 21 ab be 68 f1 f1 3e
       -0.14696729 0.038093083 -0.3342366 0.4725449
000210 8b 09 b5 be be ff 69 3e 5a 85 94 bd ca ef 21 3e
       -0.35358843 0.22851464 -0.07251997 0.15814129
000220 1c 92 90 3e 9f c7 69 be f0 4f 2e 3e 2e 2a fd bd
       0.28236473 -0.22830056 0.17022681 -0.12361561
000230 cc 8a 26 3e f8 f2 d9 bc f6 85 13 bc bb 23 57 3c
       0.16263884 -0.026605114 -0.009004107 0.013131077
000240 81 c1 f2 3d 3d 65 f9 3d 8e 2b 63 3e d7 50 c8 3d
       0.11853314 0.12177513 0.22184584 0.09781044
000250 f9 67 63 be 04 90 30 3e 90 3b 9c be fa 80 59 bd
       -0.22207631 0.17242438 -0.30514193 -0.053101517
000260 84 e0 61 be ac 5a 56 be 70 c0 88 3e a2 3c 6d bd
       -0.22058302 -0.20933026 0.26709318 -0.057919152
000270 01 1f 41 3e 72 80 ee 3e 2d dc bf be 99 63 90 3d
       0.18859483 0.4658237 -0.37472668 0.07050247
000280 fe 72 02 be 5f 8c 9b be 90 48 bb be 95 9f 2f 3d
       -0.12739179 -0.30380532 -0.36578798 0.0428768
000290 b4 ca f3 ba c0 f9 72 be e8 fb d7 bd 46 2e f3 bd
       -0.0018599839 -0.23728085 -0.10546094 -0.1187406
0002a0 02 a8 27 3e b0 bc cd 3d a6 8e 8c be df 22 71 3e
       0.16372684 0.10045755 -0.27452582 0.23548459
0002b0 d3 cd ed 3d ad 67 9b be 77 d0 31 3e 40 1d b0 be
       0.116115235 -0.30352536 0.1736468 -0.34397316
0002c0 98 79 af 3d d1 03 25 be da 77 69 3e 1c 17 d4 bd
       0.08568114 -0.16114737 0.22799626 -0.1035597
0002d0 78 83 2b bc d3 30 32 bf 23 a3 ae be 13 f2 69 bf
       -0.010468356 -0.6960575 -0.34108838 -0.91385
0002e0 31 a7 80 be 76 44 97 bd 9b 2b fd 3d c2 60 d8 be
       -0.25127557 -0.07386105 0.12361833 -0.4226132
0002f0 d1 01 ab 3e 75 8b a4 3e f3 56 a2 3c 23 05 64 3e
       0.33399823 0.32137647 0.019816851 0.22267585

conv1.bias f4 [16]
000000 92 d9 c0 3e e8 27 c5 bf 9f 6f 81 3e b9 c5 b7 bd
       0.37665993 -1.5402803 0.25280473 -0.089732595
000010 50 42 13 3f c4 88 02 3f 63 20 c0 3e 0c c1 1a 3f
       0.5752306 0.5098994 0.3752471 0.60450816
000020 f3 5a f9 3e cd 01 24 bf 0f e8 41 3f 5f 21 cd be
       0.487022 -0.6406525 0.7574472 -0.40064523
000030 2d 44 ba be be 5e 96 3f a6 9b d3 3a 43 7c 81 3f
       -0.3638014 1.1747663 0.0016144409 1.0116047

conv2.weight f4 [32, 16, 2, 2]
000000 63 19 e2 3d 60 8a 70 be 73 bd 8b 3e b0 d9 df bc
       0.110399984 -0.23490286 0.27292976 -0.027325481
000010 18 fd 20 3e 63 ae fe 3d e8 07 2d be 76 50 39 bd
       0.15721548 0.124356054 -0.16897547 -0.04524275
000020 9b 4c 4e 3e 3c a1 f2 3d e6 24 4b be 64 66 33 3e
       0.2014641 0.11847159 -0.19838294 0.17519528
000030 3c f5 ae be 63 f4 12 3d 0b 54 49 be e6 8d f1 bd
       -0.34171474 0.035877597 -0.19660966 -0.11794643
000040 82 49 32 3d b3 7a a6 be 61 8e 58 3d fe 02 42 be
       0.043527134 -0.32515487 0.052870158 -0.18946454
000050 d8 d4 90 bd fa e8 d3 bc bb 13 a9 3e 3b 75 73 be
       -0.07071847 -0.025867928 0.33022866 -0.23775189
000060 49 c6 02 be fe 26 5c 3e 0e 6e a8 3e 54 fd cc be
       -0.12770952 0.2149925 0.32896465 -0.40037024
000070 84 f7 31 3d 60 d6 1d 3e c5 3e de bd 64 01 ec bd
       0.04344894 0.15413809 -0.10851816 -0.11523703
000080 c4 90 c5 3e 75 37 e1 3d 33 75 5c 3c 3a 23 74 3d
       0.3858701 0.10996906 0.013455677 0.059603907
000090 89 ad 89 3c 03 b2 56 3e d4 c5 e9 bd e5 92 9f 3d
       0.01680638 0.20966344 -0.11414686 0.0779169
0000a0 91 07 84 3d e2 27 82 3d a0 24 3b be 35 4b 03 3e
       0.06446756 0.06355263 -0.1827569 0.12821658
0000b0 e1 91 cf bb 9a 3e b4 3d 3a 45 97 bd c8 a2 3c be
       -0.006334529 0.08801003 -0.07386251 -0.18421471
0000c0 5b 71 43 3c d0 22 c9 3d 04 c6 52 be 0e 0b 58 be
       0.0119288815 0.09821093 -0.2058335 -0.21097967
0000d0 d8 04 e9 3e a2 6f 5a 3d 91 4c b0 bd 7b 54 99 bd
       0.45511508 0.053329118 -0.08608354 -0.074868165
0000e0 2c a4 e0 3c 7c c2 c8 be 8f 36 eb bd a2 de c9 be
       0.027422033 -0.3921088 -0.114850156 -0.39427668
0000f0 39 85 d1 bb 09 43 cf 3e 51 87 f1 bd b0 00 3e 3e
       -0.006394055 0.4048083 -0.11793388 0.1855495
000100 b6 84 42 bd 25 53 11 3e cb 2d ac be 45 a4 3d be
       -0.047489844 0.14191873 -0.33628687 -0.18519695
000110 63 b2 b4 bd 88 1a 74 bd 68 b0 99 38 18 55 18 be
       -0.08823087 -0.059595615 7.328467e-05 -0.1487621
000120 ea e0 e7 3d c8 d0 3c bf 7d 47 73 3e 09 a6 54 bf
       0.11322196 -0.73756075 0.2375774 -0.8306585
000130 0d 2e bc 3d 73 0c d7 be a8 16 86 be f7 fc 9e bc
       0.09188471 -0.42001686 -0.2618916 -0.019407732
000140 4a 76 fb 3d de 1e 71 be f4 1f 2c be a8 32 b4 be
       0.12278421 -0.23546931 -0.16809064 -0.35194898
000150 a5 cd b4 3e 12 54 d6 3d eb 68 a8 3c cb 71 6a be
       0.35313144 0.10465254 0.020557841 -0.22894971
000160 6c e7 0f be c1 9d 25 bd a5 73 27 bd 13 77 94 bc
       -0.14053124 -0.04043365 -0.04088177 -0.018123185
000170 0a d8 51 3e 1f e3 41 be aa 22 f5 3d a9 76 2f 3e
       0.20492569 -0.18934296 0.11969502 0.17135109
000180 9c bd 88 3e 20 46 1b 3e a6 88 d9 3e 7b 42 8b be
       0.2670716 0.1516347 0.42487067 -0.27199158
000190 15 66 a3 bd 77 99 f4 3d df 87 fa bd e2 34 b0 bd
       -0.07978455 0.119433336 -0.122329466 -0.086038366
0001a0 3c 16 76 3e bb ee 89 3e 85 61 83 3e 78 ed 11 bf
       0.24031919 0.2693995 0.2566034 -0.57002974
0001b0 58 35 43 be 55 f9 a7 be ce f5 95 be 45 b9 f1 bd
       -0.19063318 -0.32807413 -0.29289097 -0.118029155
0001c0 ef bc c0 3d 9d cb 03 bd 21 df 19 3e 6b 71 8a be
       0.09411036 -0.032176603 0.15026523 -0.27039656
0001d0 3a 15 16 be e1 a0 05 bd 9f ff 83 bb 9c ec 12 be
       -0.14656535 -0.03262413 -0.004028275 -0.14348072
0001e0 43 88 aa bd 9e b8 6b bd a2 dd b4 be d6 a1 b5 3e
       -0.08326771 -0.05754911 -0.35325342 0.35475034
0001f0 e7 d6 92 3e c6 be 40 3d 6b 42 c5 3d 0f d2 d8 3d
       0.28679582 0.047056936 0.09631809 0.105869405
000200 fa 1d 83 bd bc 6e 3a bd dd 72 83 bc 54 da ed 3d
       -0.06402202 -0.04551576 -0.016045982 0.116139084
000210 fb b2 00 be 18 f4 a7 bc ed 6c 07 3d fe ce e1 3d
       -0.12568276 -0.020502135 0.033062864 0.11025809
000220 6e b8 a9 3e ce 0b c4 be 47 20 fc 3d c4 cf 51 be
       0.3314852 -0.38290256 0.12310844 -0.20489413
000230 c6 c5 6b bd be 70 f2 3d b3 35 88 3d ad 23 85 bd
       -0.05756166 0.1183791 0.06650867 -0.06500945
000240 c7 f5 9a bd 8f 3a 0a be fa 5f 28 3d 03 90 8e bd
       -0.075664096 -0.13498901 0.041107155 -0.06961062
000250 ee 19 45 bc 10 ab 0b 3e 6a 03 8a bf fa aa d0 3c
       -0.012030108 0.13639474 -1.0782292 0.025472153
000260 f8 4b 42 bd 76 e6 c1 bd 0e 7c 47 be 01 63 20 be
       -0.04743573 -0.09467785 -0.19480917 -0.15662767
000270 0a c2 59 be 7b 7d 87 3d e3 42 0d 3b b4 26 01 3e
       -0.21265426 0.066157304 0.002155476 0.1261242
000280 aa cf cb be d2 32 92 be f0 3a b5 3d cc 58 24 3e
       -0.39806873 -0.28554398 0.08849132 0.16049498
000290 cb ae 03 3e 2b 47 41 3d 46 23 d2 3a df 95 4a 3e
       0.12859647 0.04718701 0.0016032241 0.19783734
0002a0 2d df c5 3e 27 af fb 3d 9f 04 54 3d ba 87 b5 3c
       0.38646832 0.12289267 0.05176222 0.022159446
0002b0 e4 cf 8c be fd 13 b4 3d 52 fd 09 3d f3 54 21 3e
       -0.27502358 0.08792875 0.03368885 0.15755062
0002c0 16 a7 96 b9 1b dc cb bd 33 e0 be bd 07 56 0d be
       -0.00028734718 -0.09954091 -0.09320106 -0.13802348
0002d0 81 19 a4 3e 6e 60 97 be 36 a9 b0 be e5 45 25 bf
       0.32050708 -0.29565758 -0.34504098 -0.64559776
0002e0 d9 f4 28 3d 97 61 d5 be 24 78 92 3d fb 66 b9 3d
       0.04124913 -0.41676018 0.07151821 0.09052845
0002f0 1b 64 a4 3e ea af 07 be 8b 2b 3c bf f4 b7 b5 be
       0.32107624 -0.132507 -0.7350394 -0.35491908
000300 ee 05 cf 3d fe d0 07 be 06 f0 54 bd be 27 43 3e
       0.10108553 -0.13263318 -0.051986717 0.19058129
000310 c4 2c 5b 3e 94 63 d4 3d 8b cf 1f be 3d f1 64 bd
       0.21403795 0.103705555 -0.15606515 -0.055894125
000320 2a d3 c4 bd 40 e9 1c bd a9 5d c7 bc 80 e9 bc bd
       -0.09610589 -0.038308382 -0.024336653 -0.09224224
000330 dc 1f 0a be 87 cc 6b bd c3 f5 d8 bc 79 a5 2b 3e
       -0.13488716 -0.0575681 -0.026484376 0.16762342
000340 36 83 ab 3d 40 fd 7e 3e 60 80 a6 bd 12 e4 a7 bd
       0.08374636 0.24901295 -0.08129954 -0.08197798
000350 82 95 a7 3e 59 15 e1 bd 88 d0 cf be d2 d7 5c be
       0.32731253 -0.109904 -0.40588784 -0.21566704
000360 d0 0f 33 be ca 12 bd 38 2c d9 43 be a7 c0 af bd
       -0.174865 9.015722e-05 -0.19125813 -0.085816674
000370 55 30 41 3e 87 85 70 be 72 74 bb bb 9d ac b3 3d
       0.18866093 -0.23488437 -0.0057206685 0.08773158
000380 d6 40 a8 3e 12 b0 77 3e 29 f3 3d be 85 7d 56 3d
       0.32861966 0.24188259 -0.1854979 0.0523658
000390 f5 55 a9 3d 6c 96 23 be 8c 03 30 be 10 2e 7d be
       0.08268348 -0.1597535 -0.17188853 -0.24724603
0003a0 72 2e 10 be d0 86 93 bd 66 e6 ec 3d 76 d0 25 bf
       -0.14080217 -0.07203448 0.115673825 -0.6477121
0003b0 d2 c9 43 be 5d 00 de 3d c5 5f 46 3d 1d 4c 3f 3b
       -0.19119957 0.10839913 0.048431177 0.0029189654
0003c0 c4 56 d3 bd c2 e1 0f be 9a 99 16 3e 34 e8 36 3d
       -0.103192836 -0.14050964 0.14707032 0.04465504
0003d0 5f ad d3 bc 52 65 79 3e 24 79 d1 3d ef a9 7f be
       -0.025839506 0.24355057 0.10228184 -0.24967168
0003e0 06 52 45 3c 73 64 28 3e 00 57 0f be 37 af 93 bd
       0.012043482 0.16444568 -0.13998032 -0.07211154
0003f0 23 c2 83 3e 88 f4 57 3e 36 6c 1a 3e 96 ce f7 bd
       0.25734052 0.21089375 0.15080342 -0.1209995

conv2.bias f4 [32]
000000 45 c5 d8 3d f7 47 71 be 43 b2 ae 3e 30 50 0f 3f
       0.10584501 -0.23562609 0.34120378 0.5598173
000010 a5 06 5a 3e de 26 87 be c1 71 23 3f 26 f8 ae be
       0.21291597 -0.2639684 0.6384545 -0.34173697
000020 0b 74 82 3e b9 d2 24 3f d8 50 3d bf a5 fc 25 3c
       0.2547916 0.6438404 -0.7395148 0.010131036
000030 1f 3c df 3e cb e7 a7 be 0a ac 23 3e 38 82 bc 3b
       0.43600556 -0.32794032 0.15983596 0.005752828
000040 c6 a0 81 3d a6 5c f4 bd b0 56 af be a0 b7 05 3f
       0.06329493 -0.11931734 -0.34245825 0.52233315
000050 85 b3 41 3e bd c4 86 3d 13 a3 42 3e d6 49 64 3e
       0.18916138 0.065804936 0.1900752 0.22293791
000060 55 d9 31 3e 15 24 a5 3e 36 b4 83 be 10 0a b5 3f
       0.17368062 0.3225409 -0.25723428 1.4143696
000070 e2 e1 d7 3e 91 73 ce 3e 76 41 33 3f 05 f5 a9 3e
       0.42164522 0.40322545 0.7002176 0.33194748

linear1.weight f4 [16, 5]
000000 0f a5 a5 bc bc a2 a5 3e 1b 2e e0 3a 03 17 16 3f
       -0.020220308 0.3235072 0.0017103584 0.58628863
000010 f2 54 4e 3e 1d 63 3a bf 61 22 b5 bf 0b ef 82 3d
       0.20149592 -0.72807485 -1.4151117 0.0639325
000020 56 09 ad bf c6 b2 84 bd 72 2c 0c bf 43 73 4b 3f
       -1.3518474 -0.06479411 -0.5475532 0.7947275
000030 36 7b 2a 3d 46 99 2a be 0a 9b e5 bc 94 f2 01 3f
       0.04162141 -0.16660032 -0.02802803 0.5076077
000040 e6 96 7e 3e 7b 16 52 bd 82 e1 2e be 03 1c 78 bf
       0.2486225 -0.05129097 -0.17078212 -0.9691774
000050 5b 70 ae be 30 ea ff bf da b4 ad bd 3c a0 ef be
       -0.34070095 -1.9993343 -0.0848176 -0.46801937
000060 4e d8 f7 bb 8e 10 3e 3e c2 e2 64 3e f8 8d 3a 3e
       -0.0075636273 0.18561003 0.22352126 0.1821822
000070 47 32 0d bf bf b2 83 3e 30 23 37 bf 7f e8 c1 bf
       -0.5515484 0.2572231 -0.71538067 -1.5149077
000080 61 e5 f5 3d fa 96 8e bf 4a b7 24 bd 5a 7b 5c 3e
       0.12006641 -1.1139824 -0.04021386 0.2153143
000090 e0 03 97 3d 8f 84 46 bd 59 80 ff 3e 5d f9 ba 3d
       0.07373786 -0.04846626 0.4990261 0.091295935
0000a0 8e 41 56 be 82 37 bf bf 23 d7 44 3e f8 5f 69 bf
       -0.20923445 -1.4938815 0.19222693 -0.9116206
0000b0 a1 57 5d bf 96 ea 6b 3f 1e 5f 12 c0 a2 c9 70 be
       -0.86461836 0.92154825 -2.2870555 -0.23514417
0000c0 3f 60 82 3e 77 6b 6a be a0 4e 09 3e ba 9f 44 3e
       0.25464055 -0.22892557 0.134089 0.19201556
0000d0 13 d5 eb 3c 08 14 81 3e 19 51 d1 3d 81 f1 36 3f
       0.028788125 0.25210595 0.10220546 0.71462256
0000e0 41 f9 ca 3e 52 f6 c5 be 99 78 23 be 23 a8 7f bd
       0.3964329 -0.3866449 -0.15963973 -0.062416207
0000f0 43 a5 be 3e 3f bb 0a 3f 71 25 0d bf 48 c5 29 bf
       0.3723546 0.54191965 -0.55135256 -0.6631665
000100 55 91 b7 3d d8 a6 07 3f 5b 96 db bd 47 6f ad 3d
       0.08963267 0.5298896 -0.107220374 0.0846849
000110 9f b5 4b 3e bd 34 10 bf ad 82 85 bf 3f 2d 24 be
       0.19893502 -0.5633047 -1.0430504 -0.16032885
000120 01 62 5d 3d 4c 0f 00 40 93 0d 81 bd b8 2f b2 3d
       0.054048542 2.0009336 -0.06301417 0.08700508
000130 8a 29 b6 3e ca 01 1a bc f7 18 b5 3d d5 f2 9a 3e
       0.35578567 -0.009399841 0.08842652 0.3026339

linear1.bias f4 [16]
000000 00 5d 94 3f 80 e5 73 3e 99 12 b1 be 52 7e a4 3f
       1.1590881 0.23818016 -0.345845 1.285105
000010 07 7b 3f bf 9a 55 c6 3f bf 6b 53 3e b8 25 97 3f
       -0.747971 1.5494874 0.2064657 1.1808386
000020 87 b2 94 3d 88 27 af be 3e 46 95 3f ef 88 f9 3e
       0.07260614 -0.34209847 1.1662061 0.48737285
000030 ba 41 50 3f be 35 6e 3f cc f6 d9 37 15 ed 62 3f
       0.8135029 0.93050754 2.598334e-05 0.8864301

linear2.weight f4 [16, 16]
000000 d0 fe 85 bf fc aa 8b 3f a9 14 c1 3f b8 54 91 bf
       -1.0468388 1.0911555 1.508443 -1.1353979
000010 32 48 ee 3f 27 c6 08 bf d5 e9 9c 3f 24 f7 2e bf
       1.8615782 -0.53427356 1.225886 -0.68345857
000020 0e 40 9c 3f 9b df 46 3e 67 af 8f bf 30 68 7b bd
       1.2207048 0.19421236 -1.1225404 -0.061378658
000030 78 b9 52 bf 1a 81 88 bf f7 a0 2f 3f 18 52 76 bf
       -0.8231425 -1.0664399 0.6860499 -0.96219015
000040 64 ef 43 3f ad 61 00 bf 46 7a 8e be b9 aa 0c 3f
       0.76537156 -0.5014904 -0.27827662 0.54948
000050 ec 79 9e bf 92 4f 6d 3f 99 6e 0f be b9 99 24 3f
       -1.2380958 0.9269954 -0.14007033 0.6429706
000060 a5 0f a1 3e 62 7e 0f 3f 6a 4e eb 3e 9b e3 99 3e
       0.31457248 0.5605222 0.45958263 0.30056462
000070 26 e9 21 3f f1 a4 ac 3e 90 4b 64 3f 7c 85 0b 3f
       0.6324638 0.3371959 0.891778 0.54500556
000080 0b 95 c0 3d f4 20 0b 3f 32 fd 8f 3f 63 f4 fa 3d
       0.09403428 0.5434716 1.1249144 0.12253644
000090 c8 df d7 3f ce 0e ae 3e 38 0e 2a 3f a2 08 10 be
       1.6865168 0.3399567 0.66427946 -0.14065793
0000a0 37 c9 c6 3e ca 25 0f c0 3d e0 1a bc 28 83 61 3e
       0.3882539 -2.2366815 -0.009452877 0.22022688
0000b0 2d 64 e9 3e 96 0f 6f 3d 14 87 11 bf f7 a3 d3 3d
       0.4558424 0.058364473 -0.5684674 0.10334008
0000c0 8f 68 58 3f f6 9b 31 be 0e 62 05 bf 10 f8 78 3f
       0.84534544 -0.1734465 -0.52102745 0.97253513
0000d0 4c 55 88 bf ad f2 18 3f 56 e4 bd be 50 e8 18 3f
       -1.065103 0.59745294 -0.3708827 0.5972948
0000e0 8f 18 80 3e a2 73 fa 3e 7d b2 38 3f 99 f9 c0 3e
       0.25018737 0.48916346 0.7214735 0.37690428
0000f0 8a 55 23 3f 3e e1 ac 3e e6 a7 9b 3f 01 d5 2c 3f
       0.638024 0.33765596 1.2160614 0.6751252
000100 7c 3e ea 3c 69 25 60 3f 93 e8 94 3f a0 db 14 3e
       0.028594248 0.87557083 1.1633476 0.14536905
000110 80 1e c7 3f 87 28 8b 3e 3b a8 2f 3f 81 22 f2 bd
       1.5556183 0.27179357 0.68616074 -0.11822987
000120 6a 8a 4a 3f df 4f 1b c0 75 8b 39 be c9 34 84 3e
       0.79117453 -2.42675 -0.18119605 0.25821522
000130 7a 29 d8 3e 91 97 8a 3e e8 42 26 bf 3e ad c0 3d
       0.42219144 0.2706876 -0.6494584 0.09408043
000140 37 1e f6 3e c4 53 94 be 36 67 16 bf 1d f7 26 3f
       0.48069927 -0.28970158 -0.5875124 0.65220815
000150 61 de a9 bf 74 da 57 3f 2c e2 8c bd a6 29 43 3f
       -1.327099 0.8431771 -0.06879076 0.76235425
000160 39 fe e4 3e d1 2e 4f 3e e3 39 fd 3e a9 c6 86 3e
       0.44725206 0.20232703 0.49458227 0.2632344
000170 73 67 14 3f ba 76 11 3f 98 46 87 3f 44 f9 22 3f
       0.5797035 0.5682179 1.0568419 0.636616
000180 66 83 dd bd 25 66 2d 3f 29 9a 93 3f c6 20 f6 3e
       -0.10816078 0.67733985 1.1531421 0.4807188
000190 7d ea dd 3f 50 98 1b 3f f3 d1 3e 3f 2c bd 8c be
       1.7337185 0.60779285 0.7453911 -0.27488077
0001a0 79 0e cb 3e 36 7f 27 c0 1a 30 2e bd f7 7c d2 3c
       0.3965948 -2.6171393 -0.042526342 0.025694354
0001b0 69 dd e5 3e e2 12 f2 3d fe de f3 be 4e b4 80 3c
       0.44895485 0.11820008 -0.47631067 0.015710976
0001c0 0a 75 66 3f 64 b6 02 bf 48 b5 48 be 36 69 3e 3f
       0.9002234 -0.51059556 -0.19600403 0.7437929
0001d0 4f 8c 89 bf b3 7d 19 3f f9 b3 99 be c9 0c 55 3f
       -1.0745944 0.59957427 -0.3002012 0.83222634
0001e0 9e 1c e0 3e 61 95 91 3e ac 9b 4e 3f 35 6a cf 3e
       0.43771833 0.2843428 0.80706286 0.40510717
0001f0 b3 91 af 3e 2a d8 dd 3e a0 24 79 3f a8 4f b9 3e
       0.34290847 0.43328983 0.9732151 0.36193585
000200 28 95 ab bb fd 26 4f be 6b 4d 5d 3c f0 06 51 be
       -0.0052362867 -0.20229717 0.013507227 -0.20412803
000210 3c 2c 62 3d 25 d3 1e 3e 7d 23 a1 bc 8d 58 05 3e
       0.055217966 0.15510233 -0.019670242 0.1302206
000220 80 44 67 be 78 dd 60 be 64 17 6a 3d a6 1a 21 3e
       -0.22584724 -0.21959484 0.057151213 0.15732822
000230 cb 60 86 be 36 44 07 bd a0 c5 69 be eb 12 89 be
       -0.26245722 -0.033024035 -0.22829294 -0.26772246
000240 ab c9 07 3f 61 5b 88 be 04 db 23 bf 9f 50 12 3f
       0.53042096 -0.26632217 -0.64006066 0.5715427
000250 bc 0a b1 bf ac 7b 3a 3f ea 21 f7 3c 05 bb 4a 3f
       -1.3831401 0.7284496 0.030167539 0.7919162
000260 96 39 a7 3e 71 79 87 3e f1 28 39 3f b3 5e c0 3e
       0.32661122 0.2645984 0.72328097 0.3757225
000270 b5 53 0c 3f 81 c1 9d 3e f4 e3 77 3f 6e 1a 21 3f
       0.54815227 0.30811694 0.96832204 0.62930954
000280 00 06 1f be ba ac 8e be 26 d5 3f 3e 0e 3e 58 be
       -0.15529633 -0.27866155 0.18733653 -0.21117422
000290 70 0c ed bc 9c 78 36 be 77 6b 4d 3e 7e eb 60 be
       -0.028936595 -0.17819446 0.20060526 -0.21964833
0002a0 61 64 a0 3d c0 7c e0 3b 00 00 06 b7 20 86 1b 3d
       0.07831646 0.006850809 -7.987022e-06 0.03796971
0002b0 98 0a 40 be 28 74 34 3d a3 6b 17 bd 58 5c 60 bd
       -0.18754041 0.044056088 -0.036967885 -0.054775566
0002c0 c0 92 94 be 1f 05 26 3f 1c 9c 81 3f 53 81 bd 3e
       -0.2901821 0.64851564 1.0125766 0.3701273
0002d0 56 c5 e7 3f 03 83 9c 3e 04 0f ea 3e 79 22 2d be
       1.8107097 0.30568704 0.4571458 -0.16907682
0002e0 96 98 e9 3e 33 0f 1c c0 04 27 86 be 77 3d af bb
       0.45624226 -2.4384277 -0.26201642 -0.0053479034
0002f0 2d d8 e6 3e 20 a1 98 3e 8d fb 35 be 8c ae e9 3e
       0.45086804 0.2981043 -0.1777174 0.4564098
000300 18 dc 05 3f 62 22 bb be 19 a5 3d be 10 f8 38 3f
       0.5228896 -0.3654967 -0.18520011 0.72253513
000310 7f c3 93 bf fa 9a 75 3f f6 5c 49 be fd 7e 25 3f
       -1.1544036 0.959396 -0.19664368 0.64646894
000320 a2 9e 96 3e 44 d7 ad 3e 57 af 3c 3f 3f 43 9e 3e
       0.29417902 0.33953297 0.7370505 0.3091068
000330 00 2c d5 3e 4d 6d fa 3e 36 7c 6c 3f 08 1b a3 3e
       0.41635132 0.48911515 0.9237703 0.3185656
000340 4a d2 51 3f 4d d1 5d be 61 2e 0c bf 6c d9 1a 3f
       0.819615 -0.21661873 -0.5475827 0.6048801
000350 0f 8c 6e bf 38 7c 1b 3f 5c c2 0e be 01 54 cb 3e
       -0.9318246 0.6073642 -0.1394133 0.39712527
000360 e6 db 3d 3d 1f 7d 02 3f 38 6e fb 3e 23 08 05 3f
       0.04635229 0.5097217 0.49107528 0.5196554
000370 64 19 0b 3f 3c cb 69 3e 09 f4 72 3f f5 6b 27 3f
       0.5433562 0.22831434 0.9490362 0.65399104
000380 00 3d 58 3f 18 63 3c be 2e b6 1b bf ba b4 77 3f
       0.8446808 -0.18397176 -0.6082486 0.9676014
000390 fc 03 ae bf 7d b4 82 3f 0c 56 0e bd d9 72 03 3f
       -1.3594966 1.0211331 -0.03475003 0.5134712
0003a0 bc f9 37 3e 07 6a 16 3f b3 fa 2c 3f 22 e3 04 3f
       0.1796636 0.58755535 0.67570037 0.5190908
0003b0 79 50 7f 3e ba 77 ed 3e 8e dd 88 3f 02 a6 35 3f
       0.24933042 0.46380407 1.0692613 0.7095643
0003c0 da 1c 81 be bc b8 01 3e fe dd 7e be f0 19 fb 3d
       -0.25217324 0.12668127 -0.24889371 0.122608066
0003d0 a8 e1 67 be e7 65 db bd 44 19 88 bd 40 81 3d 3b
       -0.22644675 -0.10712796 -0.06645444 0.002891615
0003e0 94 90 30 3e 11 ab 43 3d 6a 1d 63 bd 32 ad 9e 3d
       0.17242652 0.047770564 -0.055447973 0.07747878
0003f0 00 ac 34 be 00 67 6d bd 76 75 4c be 6c 27 44 be
       -0.17643738 -0.057959557 -0.19966683 -0.19155663

linear2.bias f4 [16]
000000 98 8d f9 bd dd 18 85 3f 93 aa 2b 3e 9e 0a 48 3f
       -0.1218521 1.0398213 0.16764288 0.781412
000010 42 4d ab 3e 6f 34 4f 3f e4 c8 48 3e 00 47 5b 3f
       0.3345738 0.8093938 0.19607884 0.8565521
000020 2b ba bc bd ef 4b 78 3f 8a 11 25 be 6b 0f f6 3e
       -0.09215196 0.96990865 -0.16119972 0.48058638
000030 22 46 34 3f aa 20 51 3f 20 25 52 3f a5 aa a2 be
       0.70419514 0.81690466 0.820879 -0.31770816

fc1.weight f4 [30, 512]
000000 a0 04 ad 3b a4 ba 27 3e 40 5e 63 38 61 a8 0a 3e
       0.0052800924 0.16379791 5.4208795e-05 0.13540794
000010 13 2e 03 bc 17 7b b9 bd 3e 24 07 be 20 91 00 3e
       -0.00800659 -0.09056681 -0.13197419 0.12555361
000020 a1 cf 05 be 57 8d 60 bd b4 f5 10 be 22 f8 fb 3c
       -0.13067485 -0.054822292 -0.14156228 0.030757967
000030 8c 4a 2f bc 8f a7 83 bd f0 ab 8f bc a6 db 98 3d
       -0.010698926 -0.06428444 -0.01753804 0.074637696
000040 e2 89 fe bc f9 80 75 bc 4c 33 a5 bd cd f9 74 3d
       -0.031071607 -0.014984363 -0.08066425 0.05980854
000050 56 c8 3d 3d 2f 9d 13 be 86 3a 8b bd 49 20 37 3d
       0.046333633 -0.1441543 -0.06798272 0.044708524
000060 28 40 0b bd 84 76 d4 3e 2c 21 32 3e ce f5 62 3e
       -0.03399673 0.4149667 0.17395467 0.2216408
000070 27 ee b8 3d 31 35 20 3e 31 92 23 bd ea 66 fc bd
       0.09029799 0.15645291 -0.03993434 -0.12324317
000080 fe b1 c3 3d af 33 9c bc 42 32 94 bd fe 4b 19 3c
       0.09555434 -0.019067613 -0.072361484 0.009356497
000090 fe bc 7b bd 88 9d 7f bd 16 5a cf bc 2e ef 78 bc
       -0.061459534 -0.062406093 -0.025311511 -0.015193744
0000a0 6d fd 4f 3e f7 ca cf bd 8c 2c 9f bd 2f e0 1a bd
       0.20311518 -0.10146134 -0.077721685 -0.037811454
0000b0 ec 13 c0 3b 40 fe 8e 3d 6f 47 10 be 3a 41 e4 bd
       0.00586175 0.06982088 -0.1408975 -0.111452535
0000c0 79 b5 c4 bb 87 f9 9c bd 80 a6 bd bd 7a 3b 96 bd
       -0.0060030785 -0.07664781 -0.09260273 -0.07335563
0000d0 0f 97 37 3b 7d 08 18 bc 7a fb 5d 3a c0 1b 52 bb
       0.0028013622 -0.0092793675 0.0008467954 -0.0032059997
0000e0 ec 57 84 ba ac 30 33 3d 60 a0 f7 bd 58 4f b1 bd
       -0.0010097004 0.04374759 -0.12091136 -0.08657712
0000f0 c2 0c 35 bd f7 e5 b8 3c be a5 75 bd b7 ed af 3c
       -0.04420162 0.022570593 -0.059972517 0.021475656
000100 6f a2 b0 bd b9 fa 1d bb af bd 79 bc 1e b3 4c 3c
       -0.08624732 -0.0024105741 -0.015242978 0.012493877
000110 7e a8 85 bc bc ae ae 3c 76 5c 66 bc 36 c9 2d bd
       -0.016315695 0.021323554 -0.01406013 -0.042428218
000120 78 a7 69 bd 73 ab ac 3d e4 59 ec bb ab 69 5f bd
       -0.057044476 0.08431139 -0.0072128642 -0.054544132
000130 37 6c b1 bc a9 88 b4 bc 06 20 d9 bd bd 4d ed 3c
       -0.021658046 -0.02203782 -0.10601811 0.028967733
000140 e0 f1 04 be 0a 70 c0 bd ba 1d 79 3d be c5 51 3d
       -0.12982893 -0.0939637 0.060819365 0.051213972
000150 31 1d 80 3d 55 ff 53 be 8a a7 9a 3e 9b 9b a0 bd
       0.06255568 -0.2070287 0.30205947 -0.078421794
000160 7f c9 ae 3d 57 09 d7 3d c5 f7 7a 3a 83 62 49 be
       0.08534526 0.10499828 0.00095736637 -0.19666485
000170 7d bb cf 3d d8 f3 4f be c3 c6 29 3e c6 97 ed 3c
       0.101431824 -0.20307863 0.16579728 0.029003035
000180 fa db 05 3a 7a 44 de bd 52 ff 27 bd 09 85 0b 3c
       0.00051063264 -0.108529046 -0.041014977 0.008515605
000190 30 ba 8e bd 8e 98 7e 3c c6 fb 51 3d e4 18 49 3c
       -0.06969106 0.015539302 0.0512655 0.012274001
0001a0 73 eb 2c 3c cc 30 78 bd c4 d4 4c 3d 3b 9d fd bb
       0.010554182 -0.06059341 0.050007597 -0.0077396906
0001b0 a4 4f 5a bd c7 96 ce 3b 00 7a b5 bc 4b 2f 56 bd
       -0.053298607 0.006304595 -0.0221529 -0.052291196
0001c0 31 fb c4 3d 1c f4 65 3d 18 17 3f bd 76 ac 79 3d
       0.096182235 0.056141004 -0.046652883 0.060955487
0001d0 c7 7b 7d 3c 0b 64 63 bc 46 f0 66 3b a4 7e 58 bd
       0.015471405 -0.013878833 0.003523843 -0.05285515
0001e0 d6 ec d5 bb 44 7b c8 3d 44 16 12 bd 72 2b 91 bc
       -0.006528477 0.09789136 -0.035665765 -0.017720912
0001f0 86 f2 99 3b b3 cd 96 bd bf 08 f1 3c d4 4a 93 bb
       0.0046981005 -0.07363453 0.029423116 -0.004495004
000200 88 04 ae 3b 8b af 45 bd 40 2b ae 3c 2d 8a 07 3d
       0.0053105988 -0.048263114 0.021260858 0.03309076
000210 09 ca 09 3e f4 80 eb 3d 1f 0b 10 3e 91 41 1f bd
       0.13455977 0.11499205 0.14066742 -0.03888089
000220 98 e7 94 bd 58 e8 c5 bd 42 3a 28 be 91 a8 90 3d
       -0.072707355 -0.09663457 -0.16428474 0.070634015
000230 2d 8c 60 3c 0e 7c eb bc 5b 28 08 3e 5f 78 0f 3d
       0.0137052955 -0.028745677 0.13296644 0.035026904
000240 45 5b e2 bc b4 cf f0 bc b5 c8 1b bd 27 25 0c bd
       -0.027631411 -0.029395916 -0.038033206 -0.03421512
000250 d3 6e 26 bc ba 9b db 3c 39 d3 d4 3d da 81 77 3c
       -0.0101582585 0.026807655 0.1039185 0.015106643
000260 74 60 d2 3d 24 46 fc bc 33 6d ce bc 0e f7 b3 3c
       0.10272303 -0.030795164 -0.025198555 0.02196839
000270 1c 86 85 3d f8 92 bd bc 72 19 a2 3b c4 34 08 3b
       0.0651972 -0.02314137 0.004946881 0.0020783404
000280 34 cf dc 3b 17 52 ba bc f7 b9 44 bc ea 5c 46 bd
       0.0067385677 -0.022744222 -0.012007228 -0.048428454
000290 f4 74 41 3d 8a 0b 42 bd 4a 31 49 3d 3d 7f 9a bc
       0.047230676 -0.047374286 0.04911927 -0.0188595
0002a0 0e eb e3 bc 3f e9 d2 3c 48 67 95 3c 7f 41 ac 3d
       -0.027822044 0.025745986 0.018237725 0.0841093
0002b0 23 d3 bd 3d 36 33 c6 bd f9 b8 f3 bc 16 65 50 bd
       0.09268787 -0.096777365 -0.029751288 -0.050877653
0002c0 67 6b fc bd 6f 49 b9 bd f3 5d 10 be bb 95 15 bd
       -0.12325173 -0.090472095 -0.14098339 -0.036519747
0002d0 54 12 ce 3c 31 f2 4d 3d c8 4f 8d 3c 7c 92 9d 3d
       0.025155224 0.0502798 0.017249957 0.07693955
0002e0 82 b8 d3 bc b1 20 83 3c 78 be 9e bc c8 6a 98 3d
       -0.025844816 0.0160068 -0.019377932 0.07442242
0002f0 f5 d6 5c 3e 5e 95 b2 bd 32 6e 67 bd 29 7c d5 bd
       0.21566375 -0.08719896 -0.056501575 -0.10424072
000300 67 20 fb 3c 26 29 36 bd 39 97 8e bd ce ab 85 bd
       0.0306551 -0.044472836 -0.06962437 -0.0652691
000310 aa 9c ad 3d 02 21 99 bd 31 be 02 3b ab cc f8 bd
       0.08477147 -0.07476999 0.0019949789 -0.12148412
000320 6e 2a ae bd 77 91 a4 3c b0 cf 46 bd ec 05 9d 3d
       -0.085041866 0.020088894 -0.04853791 0.07667145
000330 d2 79 65 bd 5e da 40 3d b0 26 d0 bc af f6 97 3d
       -0.05602438 0.04708325 -0.025409073 0.07420098
000340 b2 05 3f 3d 33 5b f8 bc 32 54 43 3c ef 53 1d bb
       0.04663629 -0.030316925 0.011921929 -0.0024006327
000350 8b 01 e7 3b 5b 1a 1b bb 7a 1b 5c 3d 49 67 b5 bc
       0.0070497445 -0.0023666832 0.05373714 -0.022143977
000360 84 5f e8 3c 3d bf 97 3d 90 d9 8f bc 82 30 c9 ba
       0.028365858 0.07409523 -0.017559797 -0.001534954
000370 60 a9 9e bd 04 f9 98 bd ea f6 09 bd ab d2 e0 ba
       -0.077471495 -0.07469371 -0.03368274 -0.0017152628
000380 b1 41 29 be 79 f5 3b 3d a5 83 04 be ea b2 17 be
       -0.16528966 0.045888398 -0.12940843 -0.14814344
000390 e5 16 b3 3d 63 38 94 3d cd 8f 37 3c 73 c0 8f 3c
       0.08744601 0.072373174 0.011203718 0.017547822
0003a0 56 0e d8 3c 7a 99 57 bd 7b 27 54 bc ec e0 d3 bd
       0.026374023 -0.0526366 -0.012948866 -0.10345635
0003b0 d1 04 dd 3d 85 ad 39 be 72 74 85 be d6 45 01 be
       0.10791934 -0.18132599 -0.26065403 -0.12624297
0003c0 f7 d9 1e 3c 5d 5b 31 3d e9 5a 4e be d6 4a d4 bd
       0.009695522 0.04330002 -0.20151867 -0.10365836
0003d0 75 2f fb bd 68 9e 4f be 20 fb ae 3b f6 97 99 3d
       -0.12264911 -0.20275271 0.005339995 0.074996874
0003e0 93 81 9a bd 66 f7 34 be 6d fd 67 be d8 7f 03 be
       -0.075442456 -0.176725 -0.22655268 -0.12841737
0003f0 b9 91 58 3e 55 99 1f 3e 58 19 1e be d4 c9 7a bd
       0.21149339 0.15585835 -0.15439355 -0.061227635

fc1.bias f4 [30]
000000 33 02 56 be 8b 72 c3 3e 2a b6 c4 3e 84 5c d0 3e
       -0.20899276 0.38173327 0.3842023 0.40695584
000010 b5 ed bd be f2 d0 67 be 82 bc 25 be f7 94 b2 be
       -0.3709542 -0.226383 -0.16185191 -0.34879276
000020 a0 f9 c3 3e 84 f5 ca be c6 a2 90 be a5 f0 c9 be
       0.38276386 -0.3964044 -0.28249186 -0.3944141
000030 68 4a 35 be 19 5c cd 3e a7 9b b9 bd b5 7f e2 be
       -0.17704165 0.40109327 -0.090628915 -0.44238058
000040 6a 4c d5 be 19 26 ae 3e 06 d5 e8 be 12 24 c7 3e
       -0.41659862 0.3401344 -0.45475024 0.38894707
000050 83 bf 80 be 25 7b ab be 4f 2d a9 be 6e bb 9f be
       -0.25146112 -0.3349239 -0.3304238 -0.31197685
000060 39 31 c3 be 13 07 b7 3e 3d 14 bf 3e 66 48 9e be
       -0.3812349 0.35747585 0.37320128 -0.3091461
000070 2f 9a c6 be 16 82 7d be
       -0.38789508 -0.24756655

fc2.weight f4 [1, 46]
000000 07 68 03 3c ad 38 e9 3c fb f2 5b 3b 02 a6 a6 3c
       0.0080204075 0.028469408 0.0033561576 0.02034283
000010 7c 91 68 bd 0b e3 5d 3b b0 15 25 3c 88 6d e9 3b
       -0.05677937 0.0033857252 0.0100759715 0.007123653
000020 2e 5e eb 3a 0f 59 16 bc 57 e6 17 3a 16 d0 d2 ba
       0.0017957145 -0.009176507 0.0005794516 -0.0016083743
000030 23 ea 4d bb dd 37 a7 3b 1a a9 83 ba 66 75 58 bd
       -0.0031420074 0.005103095 -0.0010044903 -0.052846335
000040 8c b7 92 bd c6 d7 6d 3b 3a 01 c8 bd 37 6e 37 3d
       -0.07163915 0.003629194 -0.09765859 0.044782843
000050 31 0e 1d 3b 58 9e 3a bb 13 64 8e bb 85 56 cf b8
       0.0023964758 -0.0028475728 -0.004345426 -9.886645e-05
000060 17 17 54 ba 01 08 95 3c 95 24 ed 3c e0 fa d0 ba
       -0.0008090599 0.018192293 0.028948108 -0.0015943907
000070 34 3e 45 bd 84 54 7a 3b 14 1a 07 c0 64 0a 34 3f
       -0.048155025 0.0038197348 -2.1109667 0.70328355
000080 72 a9 8b bf 09 a6 41 3f 2c 65 93 bf ac 0c 4f 3f
       -1.0911086 0.75643975 -1.151525 0.8087871
000090 eb 5e ad bf 81 e4 44 3f 82 cf 03 bd 31 05 4b 3f
       -1.3544592 0.7691117 -0.032180317 0.79304796
0000a0 dd b7 4a 3d fc e6 93 bf 25 84 5a 3f 3e e7 3e 3f
       0.049491752 -1.1554866 0.85357887 0.745716
0000b0 56 94 32 3f ae 75 50 3b
       0.6975759 0.0031808424
